JEDInet/model_1/IN_kFold_150/IN_sumO_bestmodel5.params (torch, 38319 bytes, 18 tensors)

fr1.weight f4 [50, 32]
000000 42 f8 89 3d 46 ee 99 3d e6 c6 18 3e 04 0e 28 be
       0.067368045 0.0751615 0.14919624 -0.16411597
000010 14 fa b4 3d 7d 67 59 be 61 68 60 3d 76 b4 6b 3c
       0.08836761 -0.21230884 0.054787043 0.014386287
000020 ea e4 00 be 6e ef c9 bd a5 b1 f9 bb d9 f0 1f be
       -0.12587324 -0.09860121 -0.007620054 -0.1561922
000030 9d 1e c4 3f a9 87 6f 3e ed 09 ac bd ac 13 a3 bd
       1.5321842 0.23391594 -0.08400331 -0.079627365
000040 5d 24 0d 3d a6 a2 15 bd 2a a8 02 bd 4a 32 22 3c
       0.034458507 -0.036532067 -0.031898655 0.009899685
000050 d1 bf 81 bd a2 cc bf bc bd 3c 10 be b6 4d ff bc
       -0.06335414 -0.023413006 -0.1408567 -0.031164985
000060 2c f9 17 3d 3a cf 9a bb 87 29 d1 bd 24 96 92 3b
       0.037102863 -0.0047244104 -0.10212999 0.0044734646
000070 f1 47 01 3e 56 eb a1 3e c0 5c 87 3d 25 8d 3d 3e
       0.126251 0.3162486 0.066094875 0.18510874
000080 b7 3d f2 3c f2 fe 82 bd b6 65 58 3c d8 9e b8 3c
       0.029570444 -0.06396283 0.0132078435 0.02253668
000090 4e 32 a7 bd 40 12 7e 3c dc 6b 54 3c 45 33 29 be
       -0.08163892 0.015507281 0.012965169 -0.16523464
0000a0 6e ed fe bd 44 9a 81 bc 63 91 e9 3c ba 91 fa bb
       -0.1244763 -0.01582063 0.028511709 -0.0076467665
0000b0 82 1d 34 3f 9e d9 06 c0 53 af c9 3c 40 13 e6 bd
       0.70357525 -2.1070323 0.024619734 -0.112341404
0000c0 40 e4 d2 3d a8 78 cf bd 43 cd 84 bd 33 6d f5 3d
       0.102974415 -0.10130435 -0.06484463 0.11983719
0000d0 54 42 4c bd a2 e0 b6 3d 39 59 7d 3d 37 34 da bd
       -0.049867943 0.08929564 0.061852667 -0.106544904
0000e0 e9 70 26 bd f0 29 f6 bd 54 06 e9 3d 02 5f ea 3c
       -0.040635023 -0.12019718 0.1137816 0.028609756
0000f0 16 65 79 be 84 85 1e bf 0e 85 83 3d 70 4d 44 3d
       -0.24354967 -0.6192248 0.064218625 0.047925413
000100 5e 85 fb 3c e7 be e4 3c 07 b1 3b bd 49 b5 98 bd
       0.030703243 0.02792306 -0.045823123 -0.074564524
000110 25 e0 1a 3d bb f9 10 3e 5f 82 78 be 25 91 de 3d
       0.037811417 0.14157765 -0.24268483 0.10867528
000120 ce dc a3 be e1 5b 31 bc 7b c1 b4 bc a6 59 be 3d
       -0.32004398 -0.010825128 -0.022064915 0.09294443
000130 aa 18 29 c0 f3 f8 90 3f 08 00 1e 3d 77 3f 00 be
       -2.6421304 1.1325973 0.03857425 -0.1252421
000140 73 46 47 bd 02 0f 88 bd 3a 16 d9 bd c4 f6 c7 bc
       -0.04865117 -0.066434875 -0.105999425 -0.02440966
000150 8c da a0 be 3d 65 ea bd 42 8a fb bc 18 b3 74 3d
       -0.31416738 -0.11445091 -0.030705575 0.05974111
000160 52 c5 ac be 36 28 85 3d 46 0f 04 3e 46 c6 31 3e
       -0.33744293 0.0650181 0.12896451 0.17360792
000170 58 f4 4d 3f 83 25 49 3f ed bf ba 3c 5d f0 82 3d
       0.80450964 0.78572863 0.022796595 0.06393502
000180 42 29 5c 3d 5e 1f 80 3d ec 3a 47 bd 9c a2 70 3d
       0.053750284 0.06255983 -0.048640177 0.058748826
000190 fb 80 b2 bc 9e 67 7f bd 5e d5 a3 3e ea 15 7d 3e
       -0.021790018 -0.062354676 0.31998724 0.24715391
0001a0 0e cc 2a 3e 2b ca d8 bc b4 a0 17 bb 68 85 44 be
       0.16679403 -0.026463589 -0.0023136558 -0.19191515
0001b0 93 c4 0d 3f a1 70 25 bf 44 29 80 bc 33 b8 79 bd
       0.55378073 -0.64624983 -0.015644677 -0.06096668
0001c0 9d 12 c6 bd c7 52 82 3c f2 d9 ba 3b b3 02 7b 3d
       -0.09671519 0.015908612 0.0057022506 0.06128187
0001d0 6a d3 3f 3e ad 88 17 be 88 86 05 3e e3 3d 3d 3e
       0.18732992 -0.14798231 0.13039601 0.18480639
0001e0 24 a5 0d be 29 a7 11 be 75 de 19 3e 48 b1 0b bc
       -0.13832527 -0.14223923 0.15026267 -0.008526154
0001f0 6b c5 dc be a5 b7 64 bf 3f 22 de 3d ad 0e 0f be
       -0.43119368 -0.8934272 0.10846376 -0.13970442
000200 91 d6 3c 3d fc 96 c4 bc 2d c6 f9 bc 1e f5 6c bd
       0.046103064 -0.023997776 -0.030490005 -0.05785095
000210 f2 91 54 bb db 75 03 3e 63 8f e3 3d 1b aa 8a bd
       -0.0032435623 0.12837927 0.11111333 -0.06770726
000220 8d 08 d7 3d bd 96 e6 bd ab 82 7b 3c c9 a5 9e 3d
       0.10499678 -0.1125922 0.015350978 0.07746465
000230 69 dd 04 40 79 6b 3a c0 fd f9 72 3e 25 17 0f 3d
       2.0760138 -2.9128096 0.23728175 0.03493418
000240 09 e3 02 bd b9 38 bd 3d 15 14 6e 3d f1 3a 8f 3d
       -0.0319548 0.092393346 0.05812462 0.06993664
000250 f4 09 fe bd 04 b2 a6 3d 92 ac 32 be 80 95 06 be
       -0.12404242 0.081394225 -0.17448643 -0.13142967
000260 f5 34 88 be a7 14 4c bd 81 32 31 bd 77 37 8c 3d
       -0.26602903 -0.049824383 -0.043261055 0.068465166
000270 92 b5 80 be b2 72 bb bf 93 19 e9 bd 19 fb 0b be
       -0.25138527 -1.4644377 -0.11381831 -0.13670005
000280 0e 89 5d 3d 6f 76 79 bc 88 9d d0 b9 90 5c 0e 3d
       0.054085784 -0.015225991 -0.00039790221 0.034756243
000290 16 45 17 3e 0b fc 8e 3c a0 75 3f be 45 4a bd 3d
       0.14772448 0.017454168 -0.18697214 0.092426814
0002a0 73 19 89 bd d4 47 86 bc 0b 5b ce 3d 06 67 1a 3d
       -0.06694307 -0.016391672 0.10075959 0.037695907
0002b0 a7 f7 45 c0 9f f8 62 bf 06 25 42 3d aa 57 33 bd
       -3.0932405 -0.88660616 0.04739859 -0.043784775
0002c0 72 9c 13 3d 40 20 92 bd 1b 21 42 3d 82 00 80 3b
       0.03603787 -0.071350574 0.047394853 0.0039063105
0002d0 6f ed 63 be c7 5a 50 3e dd 9b 32 be c0 b0 40 3d
       -0.22258542 0.20347129 -0.1744227 0.047043562
0002e0 32 5b 9a 3d ab 8e f3 bd 32 77 cc 3d d4 3c b7 bd
       0.075369254 -0.11892446 0.09983672 -0.08947149
0002f0 d6 28 18 bf 86 50 10 3f 2e 6c 92 3d e2 bf b9 bd
       -0.5943731 0.5637287 0.0714954 -0.09069802
000300 66 a1 1d bc cb 06 ad bd 73 63 0b bd 28 ef 10 3e
       -0.009621 -0.08448561 -0.03403039 0.14153731
000310 1e 26 d4 3d 3b 68 df bd 67 9f a5 3e e7 8f 1d be
       0.10358833 -0.10908552 0.32348177 -0.15386926
000320 1b 16 4d bc 2b 17 69 3e 61 1b 77 3d 0d 99 1d 3e
       -0.012517477 0.22762744 0.060328845 0.15390415
000330 d2 c4 66 3f 12 8e 0b c0 94 28 fb bc ef ca d1 3c
       0.90144074 -2.1805463 -0.030658998 0.025609462
000340 2a b7 ad bd cf 72 b2 3d ce 4a 2a bc fb 48 01 3d
       -0.084822014 0.08713304 -0.010393811 0.03156374
000350 b2 2e 95 bd b3 37 12 3e 0d 42 c7 bd 6c f8 0f be
       -0.07284297 0.1427906 -0.09729395 -0.14059609
000360 fd f4 04 bd c5 99 48 3e 30 62 cf 3d ac e1 0d 3e
       -0.0324602 0.19589908 0.1012615 0.13855618
000370 af d5 07 bf 13 56 7b bf ed b3 58 be 5f 14 4b 3e
       -0.5306043 -0.98178214 -0.21162386 0.1983199
000380 4c f1 df bd 0a 97 53 bd 72 3a 95 bd 1e 95 ff 3d
       -0.109346956 -0.051657714 -0.07286538 0.12479614
000390 dc d1 68 be 36 ea 56 3c 09 e2 18 3c a1 9d 80 3d
       -0.22736305 0.013117364 0.009331235 0.06280065
0003a0 44 5f 49 3e 17 fe 09 3d 03 b0 e5 3d c8 7d c7 3b
       0.19665247 0.033689585 0.11215212 0.0060879923
0003b0 e0 a4 d9 bf ff 6f 09 40 8c 0d ed bd 31 96 56 bd
       -1.7003441 2.1474607 -0.115748495 -0.052389327
0003c0 ae b1 97 bd d5 c3 e5 bd e7 74 b0 bc 9c a2 d5 bc
       -0.074069366 -0.112189926 -0.021540118 -0.026078515
0003d0 ec b6 00 bd 6d f1 20 3e a2 2d 9f bd 7e bd 28 3d
       -0.031424448 0.15717097 -0.07772376 0.04119634
0003e0 c6 fb 85 bd ef c9 8a bd 80 f5 3b bd 80 7b be bd
       -0.065421626 -0.06776797 -0.045888424 -0.093008995
0003f0 20 57 56 3f 27 ce 70 3f f2 34 d0 bd 7c f1 2d 3d
       0.8372669 0.94064564 -0.101663485 0.042466626

fr1.bias f4 [50]
000000 ff 53 8a 3b 7e 60 30 3d c7 1d 0d bd 4f cf a6 bd
       0.004221439 0.043060772 -0.034452226 -0.0814501
000010 9a 11 86 be b3 74 fc bd 62 76 61 3d e5 cc 30 be
       -0.26185304 -0.12326946 0.05504454 -0.17265661
000020 fb 48 2d 3a 14 d9 ee bc be d0 ec 3d 88 7a 7e bd
       0.0006610301 -0.029156245 0.11563252 -0.062128574
000030 7f 32 a2 3e af e3 48 be 49 28 50 be 5c 8d 06 3c
       0.3167915 -0.19618104 -0.20327868 0.008212414
000040 d2 7a a4 bb bb f1 34 bd 2f 2f 6e bd a2 6a 3c be
       -0.005019524 -0.044175845 -0.058150467 -0.18400052
000050 9c f2 07 bd 08 db 36 3e 8c 1e c9 bd c3 70 14 3e
       -0.033190355 0.17856991 -0.098202795 0.1449614
000060 a7 a6 06 be 06 f6 2d be 6a c7 63 bd 9a fc 06 3d
       -0.1314951 -0.16988382 -0.055610098 0.032955743
000070 a7 c5 94 3d 7a 0b 7d bd 01 e7 86 3d 10 46 1f be
       0.07264262 -0.061778523 0.06587029 -0.1555407
000080 77 9b a9 3d 46 15 75 3d 03 b4 18 be b4 3d f5 3c
       0.08281606 0.05983474 -0.14912419 0.029936649
000090 1b 0a 66 bd ae 22 fa 3b 82 57 93 bd 00 86 3d 3e
       -0.05616198 0.0076335287 -0.07194425 0.18508148
0000a0 c9 ea d7 3d 80 e3 b9 3d e2 da 27 bd 64 e2 80 3d
       0.105428286 0.09076595 -0.040980227 0.062931806
0000b0 b8 14 02 3e d7 23 5b bd 18 a8 dd bd fc 0f 83 3d
       0.12703216 -0.053500976 -0.10823077 0.06399533
0000c0 93 e2 0d 3e 4a 4a ac 3d
       0.13855962 0.08412607

fr2.weight f4 [25, 50]
000000 df 34 93 3e fb 30 a5 bd 4a 1e e4 bd f1 4a 04 3e
       0.28751275 -0.08065983 -0.1113859 0.12919213
000010 03 fb c5 3d ea 8a 9c 3b 01 df 0b be 85 b5 07 3c
       0.09667017 0.004777302 -0.13659288 0.008283024
000020 98 0a 32 3c 6c 98 e0 3d 79 11 0c be c7 00 93 3d
       0.010866784 0.10966572 -0.1367854 0.07177883
000030 1c 40 1b 3e a4 ec 9b bd 7b ae 01 bd 3e ad 5a 3e
       0.15161175 -0.07613495 -0.03166054 0.21355149
000040 5b 07 97 3b c1 91 bf bc d2 7e ef 3d 8a 16 38 3d
       0.004609031 -0.02338493 0.11694111 0.04494337
000050 1b e5 27 bd b7 6d b5 3c d1 ab b5 3b 86 93 96 3d
       -0.040989976 0.022147043 0.0055441638 0.073523566
000060 6c 0a a0 3d 40 51 ba bd 66 20 c4 3d a2 ae 40 3d
       0.07814488 -0.090975285 0.09576492 0.047041543
000070 3c cd 30 bd 11 50 39 bd db 1d af 3c 93 3b f6 3d
       -0.043164477 -0.045242373 0.02137654 0.12023082
000080 1d f6 70 bd f2 c6 49 3d 07 a0 d0 3d 0b 44 1d bd
       -0.058828462 0.049261995 0.10186773 -0.03839497
000090 c4 6b 3d 3d e8 36 0e 3e 89 4b 6a bd 78 f6 ab 3d
       0.04624535 0.13888133 -0.057200942 0.083966196
0000a0 e7 25 47 bd 3e ba dc bd cb 30 8e bd b5 18 97 3c
       -0.04862013 -0.107777104 -0.069429 0.018444398
0000b0 89 8c c7 bd 4e 5c 4d bd 7d 11 2c bd 3b 4d d0 3e
       -0.09743602 -0.050136857 -0.042008866 0.40683922
0000c0 b5 59 a9 3d 25 05 86 bd 5a b6 bd 3d 7d 28 95 3d
       0.082690634 -0.0654395 0.092632964 0.07283113
0000d0 02 a7 f8 bd 97 2e 22 bc 6d 48 cd 3d 8f 62 25 3e
       -0.12141229 -0.009898803 0.1002358 0.16150878
0000e0 2f 14 f0 3d ed 76 11 3e c2 4b 99 3d ea b6 90 bd
       0.117226 0.14205523 0.07485153 -0.07066138
0000f0 0b ce c1 3d d0 5c e2 bd 25 ca 22 3d 78 7c cd bd
       0.09463128 -0.11052859 0.03974356 -0.10033506
000100 d7 22 5d 3d 1e b2 49 bd a3 c5 2b 3e 48 e2 b8 bd
       0.053988304 -0.04924213 0.16774611 -0.09027535
000110 c8 61 96 bd 60 1c c5 3d 94 e3 b8 3c ab 88 13 be
       -0.07342869 0.09624553 0.022569455 -0.14407603
000120 73 a6 01 bd d8 b6 60 bd 63 a5 10 3e 18 92 c8 bb
       -0.03165288 -0.054861873 0.1412559 -0.0061209314
000130 ae fc e0 3d 32 d0 21 bd 9f 59 66 be 91 38 e0 3d
       0.10985695 -0.03950519 -0.22495125 0.10948289
000140 5a 75 b5 3b 0e 77 a8 3d b3 fe cf 3c 15 63 d1 bd
       0.005537671 0.08225833 0.025390005 -0.102239765
000150 bd 25 8c bd 1d 6b e0 3d 2c 45 80 bd a9 f3 55 bb
       -0.068431355 0.1095793 -0.062631935 -0.0032646453
000160 a2 ca 45 3c 81 d1 bd bc ab 03 1b 3d 91 bb 0d 3e
       0.012072237 -0.023171188 0.037845295 0.13841082
000170 7f ac d5 3c 18 29 aa 3d 56 56 cb bd b8 d2 0b be
       0.02608323 0.08308619 -0.09928577 -0.13654602
000180 d7 6f 1a 3d f0 aa d6 3a 87 d4 5c 3d 7b e0 d6 3c
       0.037704315 0.0016377848 0.05391362 0.026230088
000190 12 65 c3 bd 74 7d c0 bd d1 ab 86 3d fa bc 6a bd
       -0.09540762 -0.09398928 0.0657574 -0.05730913
0001a0 d5 18 c3 3d e7 cd 1f 3e 5b 6b 11 be bd 61 0a be
       0.09526221 0.1560589 -0.14201109 -0.13513847
0001b0 71 fe 65 bd 13 a3 f5 3d e4 9d 6c 3d 68 c0 d5 3d
       -0.056150857 0.119939946 0.057767764 0.10437089
0001c0 6d 5a 94 bc 72 e3 ad bd 1b 99 43 bd 31 8f f6 bc
       -0.018109525 -0.084906474 -0.047753435 -0.030097576
0001d0 38 85 dc 3d 64 12 07 3d 7b a8 f3 bd 21 dd e0 3c
       0.10767597 0.032976523 -0.118973695 0.027449192
0001e0 44 5d 0f 3e 9f 53 6a bc a4 f3 e1 3d 5b 9e 90 3c
       0.14000422 -0.014302163 0.11032799 0.017653635
0001f0 79 81 76 bd 2d b7 e5 bc eb 78 d7 bd 7f 5d b5 3d
       -0.06018207 -0.028041447 -0.1052111 0.088557236
000200 9d 31 2d 3d fa 46 0a be 1b 05 15 be 01 aa b1 bc
       0.042283643 -0.13503638 -0.14552729 -0.02168751
000210 04 71 3b 3d c9 3c c1 bd f7 1a 2a 3d a4 63 00 3e
       0.045762077 -0.09435422 0.041529622 0.1253801
000220 a7 88 ba 3d 3d 4c ec bd 6a c0 ea 3d ea 9f 15 3d
       0.091080956 -0.11537979 0.11462481 0.03652946
000230 55 7c 03 3d 31 d7 30 3e 90 97 c6 bd 5c 0d ec bd
       0.032100994 0.17269589 -0.09696877 -0.115259856
000240 df 49 b1 3d 78 c0 37 be e3 80 03 bd 35 81 88 3d
       0.08656668 -0.17944515 -0.032105338 0.06665269
000250 4d b8 ca 3d d4 04 ea bd c6 6b 17 3e b2 00 91 bc
       0.09898434 -0.11426702 0.14787206 -0.017700527
000260 66 33 9e bc e7 b9 db 3d 17 1b a8 3d 0f c8 f5 bb
       -0.019311618 0.107288174 0.08208292 -0.0075006555
000270 7d 04 a1 3d 66 2f 3a be 55 ce 6b bd 8f ca 68 bd
       0.07862184 -0.18182144 -0.05756982 -0.0568338
000280 7a a6 b5 bd e8 3e 26 3e 2b d5 91 3d 20 75 0f 3e
       -0.088696435 0.16234934 0.07120737 0.14009523
000290 b6 4f 16 3e fe 84 08 3d e1 d5 91 bd 27 c9 b0 3c
       0.14678845 0.033329956 -0.07120872 0.021580292
0002a0 37 a9 e7 bd ad da 0c be 16 1b 5e 3d 86 2b 3c bd
       -0.11311572 -0.13755293 0.05422505 -0.045939945
0002b0 a4 e4 46 3c 58 de c0 3c be 1a 8c bd 44 c0 e7 bd
       0.012139473 0.023543522 -0.06841038 -0.11315969
0002c0 0d 69 44 3d d6 f9 d0 bd b5 0a 0a 3e ee 1b b6 bd
       0.047951747 -0.102039024 0.13480647 -0.08892046
0002d0 6c 64 c7 3d 9c c7 56 3c 04 66 59 bb c1 16 98 bc
       0.09735951 0.013109114 -0.0033172378 -0.018565537
0002e0 67 81 ab 3d 48 f6 40 3c 61 82 2b 3d e5 9b ba 3d
       0.08374291 0.011777468 0.041872386 0.09111766
0002f0 85 2a b0 3d ee db cf 3d 5e 2a 4b 3d aa 2f f1 3d
       0.0860186 0.1014937 0.04960095 0.11776669
000300 51 f4 02 3e cf 0b 2c bc 50 6d 29 3d b4 1a 9a bc
       0.12788512 -0.010500862 0.041364014 -0.018811561
000310 dc 88 b1 bc dc ac 16 bd 4f 04 34 3e bc 18 45 bd
       -0.021671705 -0.036785945 0.17579769 -0.04811929
000320 43 4b ea bd db c7 16 be db 4e 20 3e 3f 1e 1f bd
       -0.11440136 -0.14724676 0.15655081 -0.038847204
000330 92 73 98 3d 05 67 85 bd 3e 3d e7 bd 29 60 8f ba
       0.07443918 -0.0651379 -0.11290978 -0.0010938692
000340 75 76 13 be 86 7c 31 3d 09 49 96 bd ed 7b 88 bc
       -0.14400657 0.043331645 -0.07338149 -0.016660655
000350 b2 6d e4 3d 74 8d 06 be 5b 0e 19 be 52 b9 3e 3e
       0.11153735 -0.13139898 -0.14946882 0.18625382
000360 04 71 e9 bd 0b 85 c8 3d 90 7f 10 3e 45 9b 01 3d
       -0.11398509 0.09791001 0.14111161 0.031642217
000370 81 9f 3b bd 32 ee b9 bb b2 49 5b 3d a1 ef 0b 3d
       -0.04580641 -0.005674147 0.05353708 0.034164075
000380 af 1e 7b 3d 88 c7 87 bd 68 39 a4 3b a7 e7 3f bd
       0.06130856 -0.066298544 0.005011726 -0.04685178
000390 2b 14 1d 3d a5 5b 1c be 0d ac 73 bd 06 9e 59 3b
       0.03834931 -0.15269335 -0.059490252 0.0033205762
0003a0 c6 b2 b6 3d 95 e9 aa 3d 49 7a f5 3c 50 2e 97 bc
       0.08920817 0.083453335 0.029965537 -0.0184547
0003b0 30 9b 04 bc c0 ee 1e be 50 99 73 bd ad 3b c1 bd
       -0.00809364 -0.15520763 -0.059472382 -0.094352104
0003c0 9d 09 23 3c f0 1e c4 bd 52 c8 34 be 14 7d 28 bc
       0.009951022 -0.09576213 -0.17654541 -0.010283727
0003d0 9c 2d bc 3d 7d 85 1b 3e 47 50 1d be 3d 36 39 bd
       0.09188387 0.1518764 -0.15362655 -0.04521774
0003e0 1c c6 ac bb 3c ed c3 bc 69 7a e2 bd 65 91 5b bd
       -0.00527264 -0.023916833 -0.11058504 -0.053605456
0003f0 5f 64 6d bd 75 3c 44 bd 28 3c b3 bd d9 14 32 be
       -0.05795705 -0.04790922 -0.08751708 -0.17390765

fr2.bias f4 [25]
000000 a7 14 0b bd 79 14 79 bd e5 79 02 be be 57 21 bd
       -0.033955242 -0.06081054 -0.12741812 -0.039390318
000010 0e ea 8c 3d fe 2e ec 3d 4d 12 98 bd f3 10 7f bd
       0.0688058 0.115324005 -0.074253656 -0.062272023
000020 b6 dd ed 3d 97 e0 07 be c3 62 2f 3e 95 87 05 be
       0.11614554 -0.13269268 0.17127518 -0.13040002
000030 9d 15 6e 3d c1 f1 e0 3d cf 62 8f bb 30 7a 57 bc
       0.05812608 0.10983611 -0.0043757926 -0.01315169
000040 e2 32 31 be cb 15 1f be 57 97 13 be 89 0d b3 3d
       -0.17304567 -0.15535657 -0.144132 0.08742816
000050 47 26 0a 3e fa 67 04 be ab 7c 60 bd 3f ab 3f bd
       0.13491164 -0.12930289 -0.054806393 -0.046794172
000060 82 f7 12 3c
       0.008970143

fr3.weight f4 [14, 25]
000000 c7 b3 a7 3c 0d ff 60 3c 2e c8 0d 3e a0 a1 83 3b
       0.020471467 0.013732684 0.13845894 0.00401707
000010 d1 7e 99 3d 95 87 d1 bd f7 d2 42 3e 53 b4 a2 bd
       0.074948914 -0.10230938 0.19025789 -0.0794455
000020 34 97 5e 3e 35 bd 95 3e 02 c5 b4 bd 46 3c 97 bb
       0.21737367 0.29245916 -0.08826639 -0.0046153395
000030 c3 65 fa 3d 7f 60 13 be 08 d1 bf bd 90 fa 84 bc
       0.12226441 -0.14392279 -0.093660414 -0.016232759
000040 1e 88 13 3d 13 91 c2 bd 4c ab f7 bd cc a0 cd be
       0.036018483 -0.09500327 -0.12093219 -0.4016174
000050 75 b6 3d be 82 cf ca b9 8b 0f 58 bb 7a 06 09 3c
       -0.18526633 -0.00038683048 -0.0032968249 0.008363361
000060 9a 89 1a 3d c3 02 8c 3e 60 fb ed bd 10 20 7e bd
       0.037728883 0.27345857 -0.116202116 -0.062042296
000070 6a 2d 0e be a9 4c db bd 46 99 46 3d cb a3 fe bd
       -0.13884512 -0.10707981 0.048486017 -0.12433585
000080 fa ef e1 3d 77 4a bc bd 7a 0d c8 3d af 3f 5d 3e
       0.110321 -0.091938905 0.097681955 0.21606325
000090 2f 81 d5 ba 93 08 45 3d 20 83 8c bd ed f0 28 3d
       -0.001628911 0.04810388 -0.068609476 0.04124539
0000a0 78 c3 82 be 15 ab b6 3d b9 e2 35 3e 1e cf 0c be
       -0.25539756 0.0891935 0.17762269 -0.13750884
0000b0 53 72 be 3d e9 a0 41 be 2c 34 f6 3a 41 b3 18 3e
       0.09299149 -0.18909039 0.0018783859 0.1491213
0000c0 3e 09 3e 3e 59 0b 20 3e a5 1b d3 bd 42 db 6c 3d
       0.18558213 0.15629329 -0.10308007 0.057826288
0000d0 f8 5e 15 3e 2a 24 06 3e 58 01 bd 3d 23 3b 1c 3e
       0.14587009 0.13099733 0.09228772 0.15256934
0000e0 90 3b 09 bd b3 66 26 be ae 79 1d 3e ec e0 5a be
       -0.03350407 -0.16250114 0.15378448 -0.21374863
0000f0 22 bf cc bc 21 1e a6 3d 96 36 35 3e 48 04 21 bb
       -0.024993483 0.081112154 0.17696604 -0.0024569202
000100 27 57 a7 bd b5 ce e9 3c d0 50 03 3b 5b 3c f0 3d
       -0.0817092 0.028540948 0.0020037182 0.11730262
000110 ad 88 20 3e 77 e1 e6 3d 14 41 bc 3d b8 d2 16 bd
       0.15677138 0.11273473 0.091921 -0.03682205
000120 e3 da 23 3e f9 33 a7 3d f1 46 03 3e 97 80 23 bd
       0.16001467 0.0816421 0.12820031 -0.039917555
000130 57 56 d7 bd 7c 13 53 bd 8c a8 0e be 1d 4b 96 be
       -0.10514515 -0.051532254 -0.13931483 -0.29354182
000140 97 fc 6d be aa ff 5b bd 73 90 37 3c 94 d8 cb 3d
       -0.23240887 -0.053710617 0.011203873 0.099534184
000150 88 45 ff bd f7 04 9b bd 34 aa be bd 65 cf 2c bd
       -0.12464434 -0.07569306 -0.093098074 -0.042189974
000160 16 64 d2 bb f9 87 fa 3d d7 ae e4 3d c9 01 c7 bb
       -0.0064206226 0.12232966 0.111661606 -0.006073211
000170 e9 f8 62 3d c3 ab 8c 3d cb f7 55 3e 25 68 57 3e
       0.05541316 0.068686984 0.20895307 0.21035822
000180 89 6b a7 3d 0e 94 dd 3d 31 ba 8c bb 17 56 37 bc
       0.081748076 0.10819255 -0.0042946567 -0.011189959
000190 dc 23 27 be f8 a9 a1 3d c1 c0 3b 3d 00 25 3e 3d
       -0.16322273 0.07893747 0.04583812 0.046422005
0001a0 50 bf 47 bd 8f 2a 88 3c d5 4d 19 be 48 e2 e7 bd
       -0.048766434 0.016621856 -0.14971097 -0.113224566
0001b0 62 b3 43 bd ee 80 19 be 56 51 22 be 1f 06 13 bd
       -0.047778495 -0.14990589 -0.1585134 -0.03589451
0001c0 9f 1d 2a 3e ec f5 5d 3d 30 f7 ef bd ed c7 34 3d
       0.16612862 0.054189608 -0.11717069 0.044135977
0001d0 e1 53 fa 3d 95 a1 22 3e f2 25 09 3e 76 82 c1 3d
       0.1222303 0.15881951 0.13393381 0.094487116
0001e0 5d e3 44 3e 1f be bf 3c a8 30 1f 3e 13 59 df 3c
       0.19227357 0.023406086 0.15545905 0.027264154
0001f0 97 67 e1 3d 57 a2 9d bd 72 fa 02 3e c3 36 72 3d
       0.11006086 -0.076969795 0.1279085 0.059134256
000200 22 04 87 bd 24 e3 3b bd a0 56 e6 bd 72 6d a6 bd
       -0.06592585 -0.045870915 -0.11246991 -0.08126344
000210 eb 3a 9a 3d 52 91 cb bd aa c2 07 3e d9 d9 45 be
       0.07530769 -0.09939827 0.13257852 -0.19321384
000220 08 55 10 3e fe 8e 36 be 08 35 22 3d 75 37 75 3d
       0.14094937 -0.17827985 0.039601356 0.05986734
000230 43 8c c1 3d 70 86 26 3e cc dd 2c bc c3 dc 5b 3e
       0.09450581 0.16262221 -0.010550927 0.21470933
000240 f2 83 0c be b1 22 00 3e 12 e7 aa 3d 19 84 0b 3c
       -0.13722208 0.12513234 0.083448544 0.008515381
000250 51 79 67 bb 6d c4 8a bd 72 74 2c be 5b 63 4f 3d
       -0.0035320113 -0.067757465 -0.16841295 0.050631862
000260 ff 35 ea 3d a2 1a 0e 3d ad 17 f7 3d 72 6e 98 bd
       0.1143608 0.034693368 0.12065063 -0.07442941
000270 af 75 90 3d 38 e4 c5 3d e6 e2 7f be e0 6e 5d be
       0.07053696 0.0966267 -0.24988899 -0.21624327
000280 69 ea 07 3e 1b 48 10 3b e9 2e 7f 3d 4e 8c ee bd
       0.13273014 0.0022015634 0.062300596 -0.11647855
000290 65 c3 4e 3d 8f c5 4c 3d 8b ab 49 bd ce 59 1a be
       0.05047931 0.049993094 -0.04923586 -0.1507332
0002a0 3d 7d 94 3c c4 30 1b 3e cd 6f ad bd a9 03 5f bd
       0.018126125 0.15155321 -0.0846859 -0.05444685
0002b0 7b 7e ac bc 9a 20 09 3d 37 82 41 3e 01 80 87 bd
       -0.021056404 0.033478357 0.1889733 -0.06616212
0002c0 65 b2 26 bb 98 41 b4 3d 25 2c 30 be 79 eb 4e be
       -0.0025435921 0.088015735 -0.1720434 -0.20207013
0002d0 ee 4f 24 3e 2f bd a3 bb 02 ef 10 3e b4 59 85 be
       0.16046116 -0.0049969177 0.14153674 -0.26045
0002e0 32 7f 0f be 18 e3 c5 3d cd 24 13 be 34 7f da bd
       -0.14013365 0.09662455 -0.14369507 -0.10668793
0002f0 8e 56 76 bd 48 d7 38 3c 98 cb fb 3d a0 8e 30 be
       -0.06014114 0.011281796 0.12294692 -0.17241907
000300 73 4a ea 3d 16 ff 9b 3d bb 8c cb 3e e1 9c e5 3d
       0.11439981 0.07617013 0.39755806 0.11211563
000310 20 85 7f 3d 36 09 e2 3c 9f 27 f1 bc a1 0d 88 3d
       0.062382817 0.027592283 -0.029437838 0.066432245
000320 82 45 58 3e d9 40 8b 3d c6 b4 d3 bd 3c 3a bd 3c
       0.21120265 0.06799478 -0.10337214 0.023099057
000330 8a f7 87 be eb e3 90 3d 70 50 41 bd 9f 8f 65 3d
       -0.26556045 0.07074722 -0.04719585 0.05604517
000340 c4 9e 4d 3e b0 9d 05 3e 72 32 85 3d d6 76 f7 bd
       0.20080096 0.13048434 0.06503762 -0.12083213
000350 93 1b 3a be 4f b7 9c bd 66 9a ea 3d a6 80 1c be
       -0.18174581 -0.07652151 0.114552304 -0.1528345
000360 46 6b 10 3d 45 e2 46 3c c7 58 39 bd a7 44 e5 3c
       0.035258554 0.012138908 -0.04525068 0.027986838
000370 a3 cc ba 3d 67 66 13 be 8f 34 81 3c e2 83 d4 3c
       0.091210626 -0.14394532 0.015772132 0.025941793
000380 87 24 e3 bb 33 7d 1c be 24 29 7d bd b4 33 80 bc
       -0.0069318446 -0.15282135 -0.061806813 -0.015649654
000390 00 10 a4 bd 12 f8 6a 3b 13 63 36 3e 0a a6 d3 bd
       -0.08010864 0.0035853428 0.17811231 -0.10334404
0003a0 4a 44 f9 bd c4 d4 a8 3d d7 15 87 3e 90 2b 75 bd
       -0.12171228 0.08243707 0.2638385 -0.059855998
0003b0 ee d1 4d be f1 2d d1 3d 5d 82 2c be 7a ee 26 be
       -0.20099613 0.10213841 -0.16846605 -0.16301909
0003c0 a1 a7 2b bc 09 c8 96 3d ca 52 f3 bd ca 4d 9c 3d
       -0.010476978 0.073623724 -0.11881025 0.076320246
0003d0 6e dc 49 be 94 ae 52 be ff 71 93 3d e8 9b 5d bd
       -0.19712994 -0.20574409 0.071994774 -0.054103762
0003e0 2a e5 95 bd 1a 10 e8 3d 04 a3 b7 3d da 51 1b 3e
       -0.073191 0.11331196 0.0896664 0.15167943
0003f0 8d 78 b6 3c 37 44 91 3d f5 1c 33 3e a0 a2 1f be
       0.02227428 0.07093089 0.17491515 -0.1558938

fr3.bias f4 [14]
000000 f7 c9 bf 3d f9 41 9d 3d ae 9b 57 be 03 48 25 be
       0.093646936 0.07678599 -0.21055481 -0.16140752
000010 a0 67 b0 bb 11 00 49 be b9 51 d2 bd e4 29 dd 3d
       -0.005383447 -0.19628932 -0.102694936 0.10799006
000020 ce 13 ed 3c 68 14 41 be fb 1b 23 be 1f a1 6f 3e
       0.028940108 -0.1885544 -0.15928642 0.23401307
000030 38 ea 9e bd 88 ae 54 3e
       -0.077595174 0.20769703

fo1.weight f4 [50, 30]
000000 a8 25 53 bd 60 8f cc ba b2 3f 08 3d 07 a5 d2 3c
       -0.051549584 -0.0015606694 0.03326387 0.025713457
000010 f6 e6 7b be 7a ed 0c be ff 5c 75 be 71 ea c0 bb
       -0.24599823 -0.13762465 -0.23961256 -0.0058873226
000020 83 82 dd 3d c3 46 3e be f6 bf 43 3e 33 b1 1e 3e
       0.10815909 -0.18581681 0.19116196 0.15497284
000030 4b b1 51 bf 79 51 c4 3f 00 13 37 3e 8f 07 64 be
       -0.8191115 1.5337363 0.17878342 -0.22268508
000040 f3 d1 34 3e 4e f0 66 be d1 5f 31 39 b3 44 40 3d
       0.17658214 -0.22552606 0.0001691573 0.046940517
000050 16 46 78 be 36 9c b1 bd 0e 14 ab bc 0f 77 1f 3d
       -0.24245486 -0.08672373 -0.020883586 0.038931902
000060 40 ce d4 bd 55 af 34 3e 02 cc b2 3d 29 c6 ed bd
       -0.103909016 0.17645009 0.08730318 -0.11610062
000070 1c 97 ac bd 47 6f 8d bc 7b 56 7e 3d 16 55 8a bd
       -0.08427259 -0.017264975 0.062094193 -0.0675451
000080 b5 08 b1 bc 3f 80 d0 3d d4 2f 0f be b2 54 ae 3d
       -0.021610597 0.10180711 -0.13983089 0.08512248
000090 0e 1f 7a bd 2c 80 6c 3d b3 0c 3e 3e 70 c8 a6 3b
       -0.061064772 0.05773942 0.18559532 0.005089812
0000a0 7e e5 d3 bb 71 60 76 bd 4c 32 85 bd f0 81 b6 3f
       -0.0064665666 -0.060150567 -0.06503734 1.4258404
0000b0 8f 46 42 be 79 e6 1b bd 43 39 00 3e 8b 2b 12 3e
       -0.18972228 -0.038061593 0.12521844 0.14274423
0000c0 8e 46 60 bc 41 3b 3f bd e5 38 19 be 75 37 0e be
       -0.013688697 -0.04668737 -0.1496311 -0.13888343
0000d0 23 78 26 be 43 bc a2 3c c5 3c 25 3e a0 3b e0 bd
       -0.16256766 0.01986516 0.16136463 -0.109488726
0000e0 59 95 8f bd ab e9 a1 3d b8 8d fc bd 73 75 44 be
       -0.07010908 0.07905897 -0.12331718 -0.19185428
0000f0 3b f0 ce bc da 09 6c 3d 78 59 03 bd 85 74 7c bc
       -0.025261035 0.057626583 -0.032067746 -0.01540864
000100 50 4a c1 bd 3c 76 76 bd 12 8c 85 be e8 54 9d 3e
       -0.09438002 -0.06017135 -0.26083428 0.3072884
000110 a4 d7 02 be ea 9b d7 bc 40 60 4e bc 31 84 08 3e
       -0.12777573 -0.026319463 -0.01259619 0.13331677
000120 4c 24 96 bf 0f 3b aa 3f cf cd 36 3e b5 56 00 be
       -1.1729827 1.3299273 0.17851947 -0.12533076
000130 10 ee 0f 3e a5 db 55 3d 51 b5 13 3e e1 9a f0 3c
       0.14055657 0.052211422 0.14424635 0.029370727
000140 a1 b9 09 bb 5d 31 71 3d a1 53 f9 bd 03 bc 9c bb
       -0.0021015184 0.058884967 -0.12174154 -0.004783155
000150 b9 29 1d 3e 0e 5c 14 3e 40 34 1d 3e 5a d0 30 3d
       0.15347947 0.14488241 0.15351963 0.04316745
000160 61 d4 a4 3d d5 23 05 be 51 6b f0 3c 08 5e 97 3d
       0.080483206 -0.1300195 0.029348047 0.07390982
000170 05 10 af 3c e6 3e cb 3c 4e c3 58 be 68 89 10 be
       0.021369943 0.024810266 -0.21168253 -0.14114916
000180 ad 09 93 be 62 e3 87 3c 7f 0d 85 be fc 5d 07 bd
       -0.2871832 0.016587917 -0.2598686 -0.033048615
000190 e7 ef 6c bd 90 4d 00 3d 0e e6 a6 bf a9 db f1 3f
       -0.057845976 0.03132397 -1.3038957 1.889516
0001a0 99 74 28 be 96 4b c6 bb 33 19 24 3e b6 35 73 bd
       -0.16450728 -0.006051491 0.16025238 -0.059377395
0001b0 87 b4 d8 bd 07 7e 65 be c7 64 64 3d 1a 14 b5 3d
       -0.10581308 -0.22411357 0.05576017 0.08841725
0001c0 10 23 e8 bd 30 cc 18 be 6e 48 db bd 64 3f 0a 3e
       -0.11334813 -0.14921641 -0.10707174 0.13500744
0001d0 73 ca 89 bc 6a 62 8b 3d 95 cc 07 be 1d bb 23 bc
       -0.016820168 0.0680588 -0.13261636 -0.009993342
0001e0 80 92 ae bc 86 46 a8 3c af e0 b5 bb 7a 2f 8d 3c
       -0.021310091 0.02054144 -0.005550466 0.017234553
0001f0 40 b3 ae bd 63 2f 34 be a8 b5 8e bd fa 6b 52 3c
       -0.08530283 -0.17596202 -0.06968242 0.012843126
000200 49 6b 21 be eb 90 ee bd d6 84 6b 3d d2 ca 6b 3d
       -0.15763582 -0.11648735 0.05749973 0.05756647
000210 30 c2 03 c0 52 9c 86 bf b0 69 8b be 06 e3 90 be
       -2.0587273 -1.0516455 -0.2722907 -0.28298205
000220 22 90 21 3e 1d d8 30 be 2e 63 4a bd 82 1b bf 3c
       0.15777639 -0.1726994 -0.04941099 0.023328546
000230 ee 76 80 3d 13 02 6b bd 27 4e 9c bd 58 88 b2 3d
       0.06272684 -0.057375025 -0.07632094 0.08717412
000240 df 1b f2 3d 31 3f cf 3c 9a c7 5a bc 10 39 ea 3d
       0.11821722 0.025298687 -0.013353253 0.11436665
000250 53 46 31 bd 84 10 06 3d 5c 63 a3 3e d9 f6 78 3d
       -0.043279957 0.032730594 0.31911743 0.060782287
000260 56 67 5d be 8f 88 3a 3d d2 da f1 bd b9 d0 4f be
       -0.21621451 0.04554039 -0.11809315 -0.20294465
000270 4a 61 ae be 82 6c 69 be 82 d7 0f be e6 41 27 be
       -0.340586 -0.22795299 -0.14047053 -0.16333732
000280 a7 eb b4 3d 0b c2 a2 3e 9b 16 ed 3e 02 69 94 3e
       0.088340096 0.31788668 0.4630631 0.28986365
000290 97 b3 47 3d 67 f2 43 be 3f 9a f1 bd 5f a4 10 3e
       0.048755255 -0.19135438 -0.11796998 0.14125203
0002a0 39 fa a2 bd e5 e2 33 bb 2f a4 6e bd 7b 4c d4 3d
       -0.079578824 -0.0027448472 -0.058262046 0.1036615
0002b0 ca 44 04 be 43 b3 da 3b 60 1c 8e 3d 50 78 e5 3c
       -0.12916866 0.0066742017 0.06939006 0.028011471
0002c0 a6 e9 e5 b9 e2 65 41 be 3d 90 ff bd c8 59 4f 3e
       -0.00043852365 -0.18886521 -0.12478683 0.20249093
0002d0 1b e3 31 3d e4 dc d4 bd 96 87 db bc 69 df d4 3d
       0.043429475 -0.10393694 -0.02679805 0.103941746
0002e0 48 20 46 be 33 a8 ca bd 3b f9 79 be ab c0 51 3d
       -0.19348252 -0.09895363 -0.2441148 0.051209133
0002f0 d4 5e d8 3e 80 c9 5d 3d 1e 9d 9c bd 11 18 26 3e
       0.42259848 0.054147243 -0.07647155 0.16220118
000300 06 9a ab bf 8b e6 f1 3f 95 b2 88 be 7d b5 3c 3e
       -1.3406379 1.8898481 -0.26698747 0.18428607
000310 e0 e9 21 3e 9c a1 33 3d 7d a0 5b 3c b0 3c c3 3d
       0.15811872 0.043855295 0.013404963 0.095330596
000320 c0 0f b6 3d 95 f5 2c 3e 1f d5 0f be ef 34 01 be
       0.08889723 0.16890557 -0.14046143 -0.12617849
000330 0c 72 73 3c 06 7b ca bd 7c dc 5f 3d 0b 87 68 3d
       0.014858734 -0.09886746 0.05465363 0.056769412
000340 52 6f 09 bc fa d6 a1 bd fe 6a 30 bc 26 81 29 3d
       -0.008388357 -0.07902332 -0.010767696 0.04138293
000350 c4 b3 52 bd 26 38 c9 3d c0 87 4c be 7f 96 56 be
       -0.05144097 0.098251626 -0.1997366 -0.20955847
000360 63 13 62 bd a8 dc 26 3d 7a f2 2f 3d ff bd 83 be
       -0.05519427 0.040737778 0.042955853 -0.25730893
000370 42 70 77 bd b9 d4 83 bd 70 bc aa 3e e4 8e c5 3c
       -0.06040979 -0.06437058 0.3334689 0.024115987
000380 d3 c6 4a 3e f5 c4 8e be 5d 02 34 be 09 56 43 bd
       0.19802408 -0.2788464 -0.17579027 -0.04768947
000390 e5 c7 2e be ad 7d a0 bd 11 2a 90 bd 11 8f a0 3d
       -0.17068441 -0.07836471 -0.070392735 0.07839788
0003a0 8f 3c 3d 3e 40 9e 4c bc ec 88 76 be 13 c9 97 3d
       0.18480133 -0.012488902 -0.24075669 0.07411399
0003b0 67 da a8 3d b0 6f 80 3d 88 27 bc 3d 91 51 05 be
       0.08244782 0.06271303 0.091872275 -0.13019396
0003c0 bf 4a 10 bb e3 3e fb 3c 9a 0b dc ba 09 01 18 3e
       -0.0022017208 0.030669635 -0.0016788126 0.14844145
0003d0 b7 af 00 be 03 68 b8 bd ab 6f 88 3d aa 97 47 3e
       -0.1256703 -0.09004214 0.06661924 0.19491449
0003e0 5d 4c 08 3e 05 6e 40 bd 91 69 45 3d dd e0 27 bd
       0.1331038 -0.046979923 0.04819638 -0.04098593
0003f0 4d a0 8f 3f 19 5a 86 3f e1 57 69 3e 3f 5f 3b 3d
       1.1220795 1.0496246 0.2278743 0.04574513

fo1.bias f4 [50]
000000 5f 20 42 3d ca 60 8a 3d a3 3f 01 be aa 61 55 3d
       0.047394153 0.06756742 -0.12621932 0.052095093
000010 57 aa 7b bd f8 7c ec bb dc 70 8a 3d 56 7f 7c 3e
       -0.061441746 -0.007217046 0.067598075 0.2465795
000020 ba b6 0b be 3f 14 4c bd b8 d8 03 3c ab b0 65 be
       -0.13643923 -0.049823996 0.008047275 -0.22430675
000030 00 e3 c0 bd de ad c8 bd 22 66 b7 bd 5d 38 38 be
       -0.09418297 -0.097987875 -0.08955027 -0.17990251
000040 b4 17 a3 3a 54 13 2c 3e e9 3d 3b 3e 6d 87 2a 3e
       0.0012442977 0.16804248 0.18285336 0.16653223
000050 13 95 8c bd db a0 2c be d3 c5 40 be 16 79 06 be
       -0.06864371 -0.16858236 -0.18825464 -0.13132128
000060 c7 49 65 bd bc 0b 65 3e a5 68 c8 3d 02 cf d1 3b
       -0.055978563 0.22367758 0.09785584 0.006402851
000070 8e 50 33 3b f2 a0 54 3d 1c 99 8b 3e 00 b3 04 bc
       0.0027361247 0.051911302 0.2726525 -0.008099318
000080 42 a6 68 bc 28 fe af be 34 41 93 be eb 42 18 3d
       -0.014199795 -0.34373593 -0.28760684 0.037173193
000090 c6 bc cf bd f6 3a e8 bd 00 04 b9 bd 5b ee 60 bd
       -0.101434276 -0.11339371 -0.09033966 -0.054914813
0000a0 a0 b1 9d 3d 2b dc fe ba 1f bc 48 be 92 2e 18 be
       0.07699895 -0.0019444277 -0.19603013 -0.14861515
0000b0 ef d2 8a 3d 63 92 05 bb 42 6f 99 3c d3 10 0b 3e
       0.06778514 -0.0020381443 0.01872981 0.13580637
0000c0 52 be 6b be ff 30 56 be
       -0.2302182 -0.20917128

fo2.weight f4 [25, 50]
000000 4d b9 2f be 8e cf 07 3d ac aa 36 bd e6 83 3e bc
       -0.1716053 0.033156924 -0.04459636 -0.011628127
000010 00 4c fb bc d3 94 99 3c 61 f0 2f 3c a1 f7 89 bd
       -0.030675888 0.018747723 0.010738463 -0.067366846
000020 6f e0 81 3c 6e 95 5d bd 1f 5f 0f bd 22 ad 05 3e
       0.015854089 -0.054097585 -0.035002824 0.13054326
000030 2d 56 b2 bd 97 b0 dc 3d 7e d1 63 bd 14 bc a1 bd
       -0.08707843 0.10775869 -0.05561971 -0.07897201
000040 00 33 38 bd 4f be f7 3c e2 71 b3 bd 66 fd 2e bd
       -0.044970512 0.030242113 -0.08761956 -0.04272213
000050 fb d0 fe 3b 38 19 01 bd 54 25 63 3c 7c 17 c9 bd
       0.0077763773 -0.03151819 0.01386388 -0.098189324
000060 c9 98 94 bd c9 f6 46 bd 1e 12 b8 3d 72 58 65 3d
       -0.07255704 -0.048575196 0.089878306 0.05599255
000070 6d d4 2e 3c 9e d1 92 3d 60 61 81 3c 5e 75 23 3c
       0.010670763 0.071688876 0.015793502 0.009976713
000080 cd 17 e2 bd 17 92 28 3d 00 42 fc 3d 22 2d bc 3d
       -0.11039696 0.041154947 0.12317276 0.09188296
000090 cb 6f 9e 3d a8 e2 ad 3d 06 9e 8a bd fd 45 ce 3d
       0.077361666 0.08490497 -0.06768422 0.10071943
0000a0 33 b4 c3 bb 07 38 f4 3d fb 31 2b 3d 2c 1d b7 3d
       -0.005972409 0.11924749 0.041795712 0.08941111
0000b0 b3 5f 3a 3d fe 3c 03 3c b8 c7 ab 3d c8 e8 d3 bd
       0.045501422 0.008010147 0.08387703 -0.10347134
0000c0 f4 ee 54 be f4 3d 85 3d 21 3e 87 bd ee 4b 70 be
       -0.20794278 0.06505957 -0.06603647 -0.23466465
0000d0 90 43 9d 3d 1c 8d 0c be 17 fc de be 00 99 00 3d
       0.07678902 -0.13725704 -0.43551704 0.031395912
0000e0 b6 b0 c8 bd 6e 6f 3c bd 8b 64 cf 3d f2 14 2b be
       -0.0979933 -0.046004705 0.10126599 -0.16707209
0000f0 6a 24 09 3e 67 9d 02 bc 7d fc 17 3d 14 9d eb 3d
       0.13392797 -0.007972098 0.037106026 0.1150457
000100 32 57 13 bb ef bb 28 be df ef cc 3d b5 16 0b 3d
       -0.0022482392 -0.16477941 0.10006689 0.033957202
000110 1f d6 66 bd b1 83 ad 3c 21 5e f1 bd 20 4d c4 3d
       -0.056356546 0.02118096 -0.11785532 0.09585023
000120 60 4f 85 bd de a8 a3 bd 7b 5a e2 3d 6c b1 d5 bc
       -0.0650928 -0.07991193 0.11052414 -0.026085578
000130 15 fb c3 3d cb 35 56 3d fd 32 b2 bd 1e 6e 11 3e
       0.095693745 0.052297395 -0.087011315 0.14202163
000140 ae c8 7d 3d ef 8d 86 3c 69 61 85 3d 72 b5 3e 3c
       0.06195896 0.016425101 0.0651272 0.01163994
000150 08 43 0e be 46 b1 a8 3c 33 b5 2d 3d 7c ef 60 3d
       -0.13892758 0.020592343 0.042409133 0.05491589
000160 09 eb 67 bd 35 f0 4f 3e 6e 74 31 be 3c 32 a8 bd
       -0.05662063 0.20306475 -0.1732957 -0.082127064
000170 bf 2f f3 3d ac 98 ae bd 65 73 b3 bd 61 2f 6a 3c
       0.11874341 -0.085252136 -0.08762244 0.014293523
000180 e4 94 d7 3d d5 8a 8d 3d ea 30 96 3d 5f e4 8f 3b
       0.105264455 0.06911246 0.07333548 0.0043912376
000190 54 b4 02 3e 50 08 af bd e2 c0 25 bd f1 81 7d bc
       0.12764102 -0.08546507 -0.04046715 -0.015472875
0001a0 15 1e 02 3d 0b 00 88 3d 68 37 cb 3d 2e cb a4 3d
       0.03176697 0.06640633 0.09922677 0.08046566
0001b0 59 b2 e1 3c 20 a0 18 bc da 55 a4 3d f3 fb 1c bb
       0.027550863 -0.0093155205 0.080241874 -0.0023953884
0001c0 26 e3 83 3c f6 9a e2 bb 3b 11 05 bd 72 b8 f1 3c
       0.016099524 -0.0069154454 -0.032487135 0.029506896
0001d0 ee 44 de 3d eb 6f 7f 3c 25 38 8c be 05 a7 6b be
       0.10852991 0.015590648 -0.27386585 -0.23012932
0001e0 99 b6 93 bc d9 62 91 bd ab 06 de bd 9a cd 56 ba
       -0.018031405 -0.07098932 -0.108411156 -0.0008194089
0001f0 5a 1c a4 3d 6a b7 8b 3c 2b 60 ff bd 1c 5a 0e bc
       0.0801322 0.017055232 -0.124695145 -0.008688476
000200 35 4d 34 bd f9 78 00 3e c9 43 4c 3d be 59 33 3d
       -0.044018943 0.12546147 0.049869332 0.043786757
000210 32 b4 06 3e d1 9c c0 bc e0 0b d6 3b 3b ee 90 3d
       0.13154677 -0.023512276 0.0065321773 0.07076689
000220 82 1b d4 bd 35 32 f9 bc 7a 66 c9 3d c7 52 05 3e
       -0.10356809 -0.030419448 0.09833999 0.13019858
000230 2d ad 0d be 05 9b 48 bc 24 93 4b 3e 88 a3 68 bc
       -0.13835593 -0.012243991 0.19880348 -0.014199145
000240 a6 94 92 bd 07 7a 6f 3c ce 83 3e 3c 03 f0 74 bd
       -0.07157259 0.014616496 0.011628104 -0.059799206
000250 e1 6c 25 3c 59 9a bd 3d f2 4f 9f bd b1 43 b8 bd
       0.01009676 0.09257955 -0.0777892 -0.08997286
000260 55 b3 5e bc 61 3c 4d 3d 71 f3 e8 ba ae 63 b4 3d
       -0.013592561 0.05010641 -0.0017772747 0.08808075
000270 de 65 04 3d 5b 46 17 3e 0f 4d c2 3d 80 3b 5c bb
       0.03232371 0.14772932 0.09487354 -0.00336048
000280 ec 2a 87 3d 96 d7 22 be 89 54 2f bc 2c 53 07 3d
       0.065999836 -0.15902552 -0.010701307 0.033038303
000290 32 ef bc be a0 8b 48 bd 23 07 7f bc 8d 71 c3 3d
       -0.36901242 -0.04896128 -0.015565666 0.095431425
0002a0 cc a3 01 bd c4 b0 94 bc a4 51 f7 3c 1b 22 08 bd
       -0.03165035 -0.018150695 0.030190296 -0.03323565
0002b0 84 bd 79 3c 1b 47 d5 bd 91 4e d2 3d 52 0f 07 be
       0.015242938 -0.10413953 0.102688916 -0.13189438
0002c0 06 f1 9d 3c 96 67 57 be 19 fe 1f 3d ed 8d bb bd
       0.019279968 -0.21035609 0.039060686 -0.091579296
0002d0 ec 7a 90 bd f4 12 7a bd f6 74 12 3e c7 5d 9e 3d
       -0.070546955 -0.06105323 0.1430243 0.0773273
0002e0 7a 9e 3d bc 8f 00 3d 3e fe 33 87 bd 24 52 4f be
       -0.011573428 0.18457244 -0.066017136 -0.20246178
0002f0 e9 36 65 bd 5d d1 b4 3d 87 62 f5 bc dd 47 c9 bd
       -0.05596057 0.088289954 -0.029954208 -0.0982816
000300 9c 0c e0 bd ee be 2a 3d 6e 86 90 3d 8c 6e 66 3d
       -0.10939905 0.04168599 0.070568904 0.05625777
000310 c6 26 ca bc 17 29 09 3e c7 2b 03 bd ea 5d 85 bd
       -0.024676692 0.13394581 -0.03202417 -0.06512053
000320 bf e9 26 bc 57 17 24 3e c8 4b b3 be 05 9a 9b 3d
       -0.010187565 0.16024528 -0.35018754 0.07597736
000330 94 97 db bb 51 22 4c 3d 17 2b 25 be 44 33 4c 3d
       -0.006701419 0.049837414 -0.16129719 0.04985358
000340 4c 83 6b bd 4c fb d4 bb 18 b2 85 3c 60 1d 90 bd
       -0.05749826 -0.0064996835 0.016320273 -0.07036853
000350 04 c8 d6 3b ca 20 d5 bc 93 0c 68 3c c4 e8 35 bd
       0.0065546054 -0.026016612 0.014163154 -0.044411436
000360 e0 36 44 3b ec 84 df bc 6b bb b2 bc 8e 38 9e bd
       0.0029939935 -0.027285062 -0.021817883 -0.07725631
000370 8d a4 45 3e 45 d2 5f bd 24 73 f5 bb 97 7c 62 bd
       0.19301052 -0.054643888 -0.0074905325 -0.0552946
000380 24 bb c4 bc fa 70 d1 bd 1d ca 81 bd 16 02 cc 3c
       -0.024015017 -0.10226627 -0.06337378 0.024903338
000390 b7 2a 2c be 30 d8 2f 3c f0 93 ee 3d 66 df 29 bd
       -0.1681317 0.010732695 0.116493106 -0.041472815
0003a0 34 76 b5 3d e4 fe fb 3c 44 a5 0e bd 25 78 ae bc
       0.08860436 0.03076119 -0.03482558 -0.021297524
0003b0 64 55 10 bd c5 64 35 3c 17 a7 d9 bd 58 cd 9c 3d
       -0.035237685 0.011071389 -0.10627573 0.07656354
0003c0 b1 73 3d be ed 57 34 3d cb fb 3a 3e ca 8d 30 be
       -0.18501164 0.044029165 0.18260114 -0.17241588
0003d0 7f 96 1f be 13 fb 79 be 82 62 ea 3d 7d fd 8c bd
       -0.15584753 -0.24412183 0.1144457 -0.068842866
0003e0 ad 53 c3 bc fc 4e 83 3d 7e 2f e9 3d d7 a4 04 3b
       -0.02384361 0.064115494 0.113860115 0.0020239854
0003f0 d2 10 0a bc 69 e4 df bc 77 a6 9a bc 53 06 a4 3d
       -0.008426862 -0.027330594 -0.018878205 0.08009019

fo2.bias f4 [25]
000000 da f6 9f 3d 0e 6b a0 bd 13 8e f2 bd e1 41 70 bb
       0.07810755 -0.07832919 -0.11843505 -0.003666036
000010 34 11 f5 bd 70 8e 9a bd 3d e8 67 bc 48 67 dd bd
       -0.11966172 -0.07546699 -0.014154491 -0.10810715
000020 57 2e 84 bc 36 62 a4 bd e7 e5 5f be cb c7 2c be
       -0.016135378 -0.08026545 -0.21865045 -0.1687309
000030 b2 2f 69 be ef bd 1e 3e ab 30 73 be 07 60 b6 bd
       -0.227721 0.15502141 -0.23749034 -0.089050345
000040 91 2e 0e be 7b 8e 1e 3a 5e 25 c7 3d 60 9b d8 3d
       -0.13884951 0.0006048453 0.09723924 0.105765104
000050 c9 98 21 3d 50 6e 83 3d 3e 9c 7b 3d ec 0b df 3c
       0.039452348 0.06417525 0.0614283 0.027227364
000060 91 d3 be bd
       -0.09317697

fo3.weight f4 [10, 25]
000000 a0 40 9e bb 13 f3 2d 3d de 1d 50 bd 56 12 13 3d
       -0.0048294812 0.04246814 -0.050809734 0.03590616
000010 5a b5 80 3d 3b 94 01 be d0 97 95 3d b6 c2 47 be
       0.0628459 -0.12654202 0.073043466 -0.1950787
000020 e2 fc 19 be ce 8a 13 3e d2 94 fa 3d 09 fe 85 3c
       -0.15037873 0.14408419 0.122354165 0.016356485
000030 56 b9 06 be 0a c2 b6 3c ec 9f c2 3e b9 9a 3e be
       -0.13156638 0.022309322 0.38012636 -0.1861371
000040 ff a9 dd 3d 85 3a 2b be 34 bf 82 3d 98 8e b5 3d
       0.1082344 -0.16721542 0.06384125 0.08865088
000050 7b 5c eb 3c 7a 96 b3 bd 01 18 02 3c e2 4c 05 be
       0.028730622 -0.087689355 0.007940293 -0.1301761
000060 e8 7a 02 3e 50 c0 a3 bc 81 1a 2d 3d e9 f2 fb 3d
       0.12742198 -0.019989163 0.042261604 0.12302191
000070 25 8b 19 be 8b 8e 14 3e dd 8a 9d bd f2 81 51 bc
       -0.14994486 0.14507501 -0.07692502 -0.012787329
000080 d8 02 9b bd f0 6e 11 be 93 7d 27 3e 62 9f 0a bd
       -0.07568902 -0.14202476 0.16356497 -0.033843406
000090 fa 1f 02 bd 12 eb 6b 3d 6e c8 44 bd e1 b0 5d 3d
       -0.031768776 0.057597227 -0.048042707 0.054123763
0000a0 c0 11 32 be 3c 4f e6 bd 40 85 8d bd 06 48 84 3d
       -0.17389584 -0.112455815 -0.06910181 0.0645905
0000b0 13 3d 78 bc 35 31 8d 3d 1f 31 83 3d 7a ee e3 bd
       -0.01515128 0.06894151 0.064058535 -0.1112947
0000c0 5e 97 5d be 92 f9 01 3e c7 a3 2c bd 5c de 5d 3e
       -0.21639773 0.1269286 -0.042148378 0.21666855
0000d0 81 4b 2e 3e d3 ac 62 3c 90 49 1e be dd e6 0b 3e
       0.1702099 0.01383515 -0.1545775 0.13662286
0000e0 18 cc 43 3e 51 7c 38 bc 28 11 5e bd d4 8e 15 be
       0.19120824 -0.011260108 -0.05421558 -0.14605266
0000f0 88 7d 8c be 37 aa 4d 3e 26 7e 42 be 16 ac 6b 3d
       -0.27439523 0.20084463 -0.18993434 0.05753716
000100 86 d3 9d 3e b3 ba d4 bd 7e 20 21 be f5 ec 9b 3d
       0.30825442 -0.103871725 -0.15735051 0.07613555
000110 32 fd ba 3d 48 db bd bd f0 59 33 be cc 02 54 3e
       0.091303244 -0.0927034 -0.17514777 0.20704192
000120 ac b1 24 bd ef ad 87 bd d6 cf c7 3c ea 1a 1b be
       -0.040208504 -0.06624972 0.024391096 -0.15146986
000130 99 b4 2e be 40 3c ef 3d eb c6 55 bc 69 ba e1 3c
       -0.1706108 0.11681414 -0.013047914 0.027554708
000140 d2 02 22 3e 9e 56 f2 3d 07 41 2e be 83 8f 16 be
       0.15821388 0.11832927 -0.17016993 -0.14703183
000150 d0 09 00 3e ad 76 00 3d 71 7e 36 3e a1 a0 f8 bc
       0.12503743 0.031363178 0.17821671 -0.030350031
000160 d8 7b d8 3c 6d 66 7c 3e fb 71 61 3d 07 2a 09 3e
       0.02642624 0.24648447 0.05504034 0.13394938
000170 6c cb 6e be a5 0c 88 bc d5 85 53 bd 74 24 90 bc
       -0.23319787 -0.016607592 -0.051641304 -0.017595507
000180 2c 97 1d bd 41 a0 c2 bd 07 c0 18 3c be 18 e2 bc
       -0.038474247 -0.09503222 0.009323127 -0.027599689
000190 e6 1d 56 be b2 ef 3d bd 16 98 81 ba 53 7d 4b 3c
       -0.20909843 -0.04637117 -0.0009887244 0.012420016
0001a0 51 b9 84 3d 23 11 b4 bd 97 8c 97 3d 01 2b 2d 3d
       0.06480659 -0.08792331 0.07399862 0.04227734
0001b0 a5 6c ea 3d 40 3c e1 3d 28 45 59 3e e5 f3 16 be
       0.114465035 0.1099782 0.21217787 -0.14741476
0001c0 9f 9a 2b bc 65 b9 30 be 44 87 28 bd 9a 6e 34 3d
       -0.010473876 -0.17258222 -0.041144624 0.04405079
0001d0 92 b6 de 3d 94 7d 6d 3d 6c 57 0c 3e 93 f2 2f 3b
       0.10874666 0.05798109 0.13705224 0.0026847466
0001e0 a5 03 41 bc 17 93 95 bd e1 3f 8f 3c 65 38 8b 3d
       -0.011780654 -0.07303446 0.017486515 0.06797866
0001f0 a9 f1 e5 bd d4 9f ae 3d 53 4d f0 3d 4f d7 0d be
       -0.11227734 0.085265785 0.117334984 -0.13851665
000200 38 0b b8 bb 11 65 49 3e d6 13 f0 3d 4a 12 f9 3b
       -0.0056165718 0.1966746 0.117225334 0.007601057
000210 8c 6b a7 bd dd 94 36 be 08 0a 89 ba f4 77 ec bd
       -0.0817481 -0.17830224 -0.001045526 -0.11546317
000220 4c f0 f5 3d 8b 77 34 be 7d 99 6f 3b 22 b3 74 3e
       0.120087236 -0.17623727 0.0036559992 0.23896459
000230 14 21 20 3d 95 12 9e bd 04 d8 f7 bd 61 e9 ce 3d
       0.039094046 -0.07718388 -0.121017486 0.10103107
000240 f1 80 b7 bd 06 ba a7 bd 7b 97 88 3e 98 0e ac bd
       -0.089601405 -0.08189778 0.2667807 -0.08401221
000250 1f 2f fd 3d 17 7e 64 bd d9 76 44 3c c8 f2 4d be
       0.12362503 -0.05578431 0.011991226 -0.20112145
000260 34 51 1f 3e cc 4c 83 3c 96 62 22 be 9f c3 16 bd
       0.1555832 0.01602783 -0.1585792 -0.036807653
000270 f7 23 9f bd 99 4c f1 bd a5 8e f2 bd c4 51 b2 3d
       -0.077705316 -0.11782188 -0.118436135 0.08707002
000280 77 ee f7 bd b1 35 13 3e 1d ec dc 3c 96 17 a1 3d
       -0.121060304 0.1437595 0.026968056 0.07865827
000290 30 e5 e1 3c ff 06 a4 3d 56 74 43 bd aa 3b 99 bd
       0.027575105 0.08009147 -0.04771837 -0.07482083
0002a0 59 a8 a1 3d 1c 14 d6 ba c2 80 65 bd 76 52 71 bd
       0.07893438 -0.0016332897 -0.056030996 -0.05891653
0002b0 29 7e af bd 75 a7 04 3e 56 21 06 3c 3a a8 b6 3d
       -0.08568985 0.12954505 0.008186659 0.089188054
0002c0 72 62 83 3b 88 12 fb bd bf d3 9b bd 61 39 ff 3d
       0.0040095383 -0.12259394 -0.07608747 0.12462116
0002d0 97 24 e5 3d 2e 98 94 bd 5f d3 39 3e 4d eb e6 bd
       0.111886196 -0.072555885 0.18147038 -0.11275349
0002e0 f9 69 11 3e 60 29 3d 3d 9f 2a eb 3d 47 65 0e bd
       0.14200582 0.046182036 0.11482739 -0.034764554
0002f0 d0 5c ad bd 1c a9 3a 3c 22 49 e5 3d b5 92 03 be
       -0.08464968 0.011392858 0.111955896 -0.12848933
000300 f4 24 33 be 85 5e a2 bb d8 d1 40 3c bf b8 0f 3c
       -0.17494565 -0.0049551153 0.011768781 0.008772074
000310 a2 fe 05 be 5a 73 0d be ba cf 6c 3d 76 97 f7 bc
       -0.13085416 -0.13813534 0.05781529 -0.03022359
000320 93 2a 48 bd c0 4b 2f 3e e7 7f e9 bd 03 55 71 3c
       -0.048868727 0.1711874 -0.114013486 0.014729741
000330 85 2b 23 3e 8e cb bf bd 17 05 b5 3e b6 1c 52 bd
       0.1593457 -0.09364997 0.35355446 -0.051296912
000340 05 d5 13 bc 7a 23 a1 3c 1d a4 ff bd ea 8b bc bd
       -0.009022956 0.019670237 -0.12482474 -0.09206374
000350 f0 f0 14 be b4 86 c3 bd 7c db f1 3d 66 44 a2 bd
       -0.14545035 -0.09547177 0.118094414 -0.07923202
000360 35 55 d0 3d 55 bd ef 3d 10 1a 3a 3e 48 cb 09 be
       0.10172502 0.11706034 0.18174005 -0.13456452
000370 6b a8 a1 3d 64 7d 04 3d 54 17 cd 3d 2b eb df 3d
       0.07893451 0.032346144 0.10014215 0.109335266
000380 3a 7a 62 be 5a e2 c5 bc a4 40 e8 bc 75 39 fd 3d
       -0.22116938 -0.024155784 -0.028351136 0.12364475
000390 16 5d 1e 3c 62 6b 2d 3e d2 94 c2 bd 71 97 f5 bd
       0.009665748 0.16935495 -0.095010415 -0.11991776
0003a0 3e 54 8e 3c 9a 1d 5c 3c 67 d7 76 3d 76 fb 17 3e
       0.017374154 0.013434792 0.060264017 0.14842018
0003b0 09 5b 4b 3b 3d c2 87 3c 66 3a 1a 3d 57 2c 9b bd
       0.0031029603 0.016572112 0.03765335 -0.075768165
0003c0 e3 74 b7 3d 1b 1b 53 3d 70 84 f0 bd 54 70 d9 3d
       0.08957841 0.05153952 -0.117440104 0.10617128
0003d0 b5 3c d0 3d e8 f8 b2 3b fa a6 e0 bd 8f 1e 26 be
       0.10167829 0.005461801 -0.10969348 -0.16222595
0003e0 03 ea ba 3d ca 8b 50 3c
       0.091266654 0.012728641

fo3.bias f4 [10]
000000 91 3a 59 be 0e 5e 12 3e 4a af 57 3d 9b ad d2 bd
       -0.21213748 0.14293692 0.052657403 -0.10287019
000010 8a 0a f2 3c 39 48 18 3e ea 1e fb 3d 26 ad 51 be
       0.029546041 0.14871301 0.12261756 -0.20476207
000020 92 57 14 3d 5a 51 3b be
       0.036216326 -0.18292752
