JEDInet/model_1/IN_kFold_150/IN_sumO_bestmodel.params (torch, 21393 bytes, 18 tensors)

fr1.weight f4 [30, 32]
0	0x3cc9d48f	0.024637489
1	0x3d206bf9	0.03916547
2	0x3b3328eb	0.0027337621
3	0xbc1b016c	-0.009460788
4	0xbe356fe1	-0.1771846
5	0x3d1c2d06	0.038128875
6	0xbe5366e3	-0.20644717
7	0xbd8b5a8e	-0.06804381
8	0xbb93c633	-0.004509711
9	0x3e23c64b	0.15993612
10	0xbdb1ecf3	-0.086877726
11	0xbe535ba1	-0.20640422
12	0x3f7408e9	0.95326096
13	0x4005bc07	2.0896013
14	0xbd2a7153	-0.04161198
15	0xbba5b411	-0.005056866
16	0x3c9be01c	0.019027762
17	0xbd2cb345	-0.042163152
18	0x3dd0ad48	0.10189301
19	0xbcfad9bf	-0.030621408
20	0x3de6a159	0.112612434
21	0x3d08bd8e	0.0333839
22	0x3dd5d700	0.104413986
23	0x3d8201fc	0.06348035
24	0xbd7b3873	-0.06133313
25	0xbe2c5b36	-0.16831669
26	0xbda64768	-0.081190884
27	0xbe2d745d	-0.1693892
28	0x3e13300f	0.14373802
29	0x3e12b9d1	0.14328696
30	0xbdd3d9c3	-0.10344269
31	0xbe1d2a4d	-0.15348168
32	0xbe0c1251	-0.13678862
33	0xbda77560	-0.081766844
34	0x3d4bb315	0.049731333
35	0x3d9bce15	0.076076664
36	0x3d6fa142	0.058503397
37	0x3e170c3a	0.14750758
38	0xbe74f244	-0.23920542
39	0xbdee1ffe	-0.11627196
40	0x3d688b32	0.056773372
41	0xbdb70f6c	-0.08938488
42	0x3e035308	0.12824643
43	0xbd7ecb46	-0.062205575
44	0xc00aba86	-2.1676345
45	0x40407b13	3.0075119
46	0x3c986a1c	0.018605284
47	0xbd86054c	-0.06543979
48	0x3be0a3b8	0.0068554543
49	0x3d60a57a	0.05484531
50	0x3db63cb1	0.08898295
51	0xbd58af58	-0.052901596
52	0xbde2b661	-0.11069942
53	0x3db7c499	0.08973045
54	0xbdb04709	-0.08607299
55	0xbe6c7d5b	-0.23094694
56	0x3e0a61f3	0.13513927
57	0x3e03138b	0.12800424
58	0xbdf555dd	-0.11979268
59	0x3d73fec8	0.05956915
60	0x3e88b969	0.26703957
61	0x3f41bbdd	0.7567728
62	0xbdefe414	-0.11713424
63	0x3d47219f	0.048616048
64	0xbb3e0ed2	-0.0029000533
65	0x3a3c65b3	0.0007186785
66	0x3e05d437	0.13069235
67	0xbf34373a	-0.7039677
68	0xbf3b605f	-0.73193926
69	0xbf5197f9	-0.81872517
70	0xbf68e682	-0.90976727
71	0x3e4429b2	0.1915653
72	0x3e117f2c	0.14208668
73	0xbacbbd5e	-0.0015544107
74	0xbc50aaaa	-0.012736002
75	0xbe29bd57	-0.16576134
76	0x3fbc6b3c	1.4720225
77	0xbf64f19d	-0.8943117
78	0x3cf5852b	0.029970726
79	0x3d99205c	0.07476875
80	0xbb0fd8ef	-0.002194937
81	0xbd62ccec	-0.05537121
82	0x3d382be6	0.04496374
83	0xbd9fd0c2	-0.07803489
84	0x3d6ba615	0.057531435
85	0x3db867ba	0.09004159
86	0xbc3d132f	-0.011540218
87	0xbdd5d8c9	-0.10441739
88	0xbdbdc46b	-0.092659794
89	0xbdf5512a	-0.119783714
90	0x3d0f39e5	0.034967322
91	0xbde5ab49	-0.11214311
92	0x3f37902d	0.7170437
93	0x3f0b44bd	0.5440176
94	0x3d715648	0.058920175
95	0xbe6735e0	-0.22579145
96	0x3c0d01d4	0.008606393
97	0x3d990264	0.07471159
98	0x3d26e9ed	0.040750433
99	0xbb2e37a0	-0.0026583448
100	0xbe61dd1d	-0.22057004
101	0x3e13378e	0.14376661
102	0x3d02ac72	0.031902738
103	0xbd4fe1af	-0.050752338
104	0x3e85ee4d	0.26158372
105	0xbcb5af96	-0.022178452
106	0xbe3a69fd	-0.18204494
107	0x3d9df1a7	0.07712107
108	0xbfe311e1	-1.7739831
109	0x4037ba34	2.87074
110	0xbd4ed2fa	-0.05049417
111	0x3d9ef2ad	0.077611305
112	0x3d97d502	0.07413675
113	0xbc956c29	-0.018240051
114	0xbcab7cdf	-0.020933567
115	0x3e2d2c11	0.16911341
116	0xbda3ce16	-0.07998292
117	0xbd7e7ca2	-0.062130578
118	0xbc113090	-0.008861676
119	0x3e059ecf	0.13048862
120	0x3d867e85	0.065671004
121	0x3c9e81a4	0.019348927
122	0x3dcfae8d	0.10140715
123	0x3df20f67	0.11819344
124	0xbdce4321	-0.100713976
125	0x3f95f333	1.1714844
126	0xbdde162f	-0.10844075
127	0x3d0727fc	0.032997116
128	0xbabd8b65	-0.0014461098
129	0x3c87dde2	0.016585294
130	0x3c817b40	0.01580584
131	0x3c173b31	0.009230421
132	0xbd74efc9	-0.05979899
133	0xbbb18095	-0.0054169395
134	0xbda5b70c	-0.08091554
135	0xbdcd6ce9	-0.100305386
136	0x3e54385a	0.20724621
137	0x3e920af7	0.2852399
138	0x3af7d074	0.0018906728
139	0x3e094dfe	0.13408658
140	0x3f9e860c	1.2384658
141	0x3f5d9915	0.8656171
142	0x3b954b25	0.004556077
143	0x3eb4e2c0	0.35329247
144	0xbd779ba2	-0.060451157
145	0x3db44dfa	0.08803935
146	0xbd6a0a66	-0.057138823
147	0xbe05efb3	-0.13079719
148	0xbe4943a9	-0.19654717
149	0xbe2bb063	-0.16766505
150	0xbe837d97	-0.25681755
151	0xbd8ae950	-0.06782782
152	0xbdd2a042	-0.10284473
153	0x3cb48fff	0.022041319
154	0x3d347af0	0.044062555
155	0x3dd18e43	0.102322124
156	0x3e340bb0	0.17582583
157	0xbee03f94	-0.43798506
158	0x3dc77318	0.09738749
159	0xbd0b386e	-0.033989362
160	0xbd0a6167	-0.033784296
161	0x3ce6fb90	0.028196126
162	0xbd4690d3	-0.04847796
163	0xbdb472b0	-0.088109374
164	0x3d865f17	0.06561106
165	0xbcb7c849	-0.02243437
166	0x3d99a46c	0.07502064
167	0xbd434bbd	-0.04767965
168	0x3d67a41e	0.056553
169	0xbe18a91d	-0.14908262
170	0xbd8bfae2	-0.068349615
171	0xbe3871e8	-0.18012202
172	0x3f610ff9	0.87915
173	0x3e757a8f	0.23972534
174	0x3e1061d0	0.14099813
175	0xbc68944f	-0.014195516
176	0x3db050c6	0.08609156
177	0x3d171025	0.03688063
178	0x3d91d4cd	0.07120667
179	0xbdb1bb85	-0.08678345
180	0xbe871134	-0.26380312
181	0x3d1d4e95	0.03840502
182	0xbea1f76b	-0.31634077
183	0xbd88a3ad	-0.06671844
184	0x3d947f83	0.072508834
185	0x3d5dc1c0	0.054139853
186	0xbe062b0a	-0.13102356
187	0xbd84040c	-0.064460844
188	0xbd490e4a	-0.049085893
189	0xbe0ee7cf	-0.13955615
190	0x3d4adb73	0.04952569
191	0x3dec221b	0.115299426
192	0x3b8ec257	0.004356663
193	0xbbbca801	-0.0057573323
194	0x3caaa0b2	0.020828579
195	0x3ce13093	0.027488982
196	0x3e12827c	0.14307588
197	0xbd95d42d	-0.0731586
198	0x3d395f28	0.045256764
199	0x3c9d0868	0.019169047
200	0x3ea27b30	0.3173461
201	0xbd9d2d52	-0.0767466
202	0xbc056509	-0.008141764
203	0x3df9748c	0.12180433
204	0xbfae055e	-1.3595388
205	0x3f11cd75	0.5695413
206	0xbe5e3078	-0.21698177
207	0xbcede0ee	-0.029037919
208	0xbc8dc0e5	-0.017303893
209	0xbdc11088	-0.09426981
210	0x3ca5934e	0.020211842
211	0xbd715483	-0.058918487
212	0x3e520ede	0.20513484
213	0xbdc9e0bc	-0.09857318
214	0x3b098b87	0.0020987706
215	0xbd6be39f	-0.057590123
216	0xbd1bfbc2	-0.03808189
217	0x3cca2abe	0.024678584
218	0x3d8a693e	0.067583546
219	0xbe5c437a	-0.21510115
220	0x3f24824b	0.6426131
221	0x3e36bf39	0.17846383
222	0xbb61f392	-0.0034477455
223	0x3e1c9df1	0.15294625
224	0xbd596154	-0.053071335
225	0x3d25e331	0.04049987
226	0xbd37289b	-0.04471646
227	0x3dd94030	0.10607946
228	0x3da1da52	0.079029694
229	0xbe024297	-0.12720715
230	0x3d9d4d8f	0.07680809
231	0x3e2f51de	0.17121074
232	0x3db7eef2	0.08981122
233	0xbdced786	-0.100997016
234	0xbde899c3	-0.11357453
235	0xbc7e9831	-0.015539215
236	0x3ebda6fc	0.3704146
237	0xbfda7403	-1.7066654
238	0x3c2796cf	0.010228827
239	0x3db35403	0.08756258
240	0x3db79f06	0.08965878
241	0xbda46405	-0.0802689
242	0x3e43d699	0.19124831
243	0xbe88b429	-0.2669995
244	0xbe64250c	-0.22279757
245	0xbe2c1354	-0.16804248
246	0xbb5d6735	-0.003378344
247	0xbb18955d	-0.0023282387
248	0xbe7695ec	-0.24080628
249	0xbcf49cbb	-0.029859891
250	0xbd72a00b	-0.05923466
251	0x3e0d856f	0.13820432
252	0xbe7b768b	-0.2455694
253	0xbe1a108a	-0.15045372
254	0xbdc7e356	-0.09760158
255	0xbe50e89e	-0.20401236

fr1.bias f4 [30]
0	0xbe30b324	-0.17255837
1	0x3d023ee5	0.031798262
2	0x3c0eb6bf	0.008710562
3	0xba86fcde	-0.0010298749
4	0xbe57c482	-0.21071056
5	0xbe23af94	-0.15984946
6	0x3da147dd	0.07875035
7	0x3e08240e	0.13295004
8	0x3d8748da	0.06605692
9	0xbd247f9f	-0.04016077
10	0x3d7b97e9	0.06142417
11	0xbdf2a099	-0.11847038
12	0xbdd9d108	-0.10635573
13	0x3dd471f6	0.10373299
14	0x3a41171e	0.00073658105
15	0x3e3805bb	0.17970936
16	0x3e5ab61e	0.21358535
17	0x3d1b86ab	0.037970226
18	0xbc8e71c5	-0.017388234
19	0x3e921374	0.28530467
20	0x3e82822d	0.2548994
21	0x3ce6f71f	0.028194008
22	0x3c3a7609	0.011380681
23	0x3dcfd806	0.10148625
24	0xbe25fe34	-0.16210252
25	0xbe3ba17a	-0.18323317
26	0x3c03d952	0.008047419
27	0xbc2eaa61	-0.010660739
28	0x3e23342c	0.1593787
29	0xbe365ba7	-0.178084

fr2.weight f4 [15, 30]
0	0xbdd113fc	-0.1020889
1	0xbcd0000e	-0.025390651
2	0x392dd97f	0.0001657959
3	0x3d439b61	0.047755603
4	0xbdbcd22b	-0.09219774
5	0x3e1289aa	0.14310327
6	0x3d19c5b2	0.037542053
7	0x3dec00fc	0.11523625
8	0x3e041932	0.12900236
9	0x3dd45ad7	0.10368889
10	0xbdc67f36	-0.09692232
11	0x3d7efb3b	0.06225131
12	0x3e1b65cb	0.1517555
13	0xbe255858	-0.16146982
14	0xbd56831d	-0.052371133
15	0x3ded334b	0.11582049
16	0xbdd7627f	-0.105168335
17	0x3dc22ab3	0.094808005
18	0xbe7dcffe	-0.24786374
19	0x38a4defd	7.861664e-05
20	0xbcd444a4	-0.025911637
21	0xbdbfe6d0	-0.09370196
22	0x3d629884	0.05532123
23	0x3e152e6a	0.14568487
24	0xbdee1da6	-0.11626749
25	0x3de9042f	0.11377751
26	0x3d5266f2	0.051367708
27	0x3de35231	0.11099661
28	0xbd247141	-0.04014707
29	0x3e4549e0	0.19266462
30	0x3cc4a491	0.024004253
31	0xbd6dcd43	-0.05805708
32	0xbdd5e4a4	-0.10444
33	0xbe1850a2	-0.14874509
34	0x3dd6b3e7	0.104835324
35	0xbd9f61b9	-0.07782311
36	0x3e1c7d35	0.15282138
37	0x3dde0214	0.1084024
38	0x3e184e7c	0.1487369
39	0xbe86938b	-0.2628444
40	0x3ddb5e0f	0.107113
41	0xbc524937	-0.012834839
42	0xbd1d920e	-0.038469367
43	0x3e3a9ffa	0.18225089
44	0xbd63cbe2	-0.05561436
45	0x3d289d3e	0.041165583
46	0x3e12cfa3	0.1433702
47	0x3d8cfaa7	0.06883746
48	0x3dce14f6	0.10062592
49	0x3e2b0929	0.16702713
50	0xbc9ccf68	-0.019141868
51	0xbd56f754	-0.052481964
52	0x3d86da55	0.06584612
53	0xbccf43f2	-0.025300954
54	0xbdbd4f58	-0.09243649
55	0xbd7b5bc0	-0.061366796
56	0xbe19136e	-0.14948818
57	0x3d24a085	0.040192146
58	0xbd274097	-0.040833082
59	0xbe0a2141	-0.13489248
60	0x3e04f961	0.12985756
61	0x3c359f76	0.011085382
62	0x3dfbf0cf	0.1230179
63	0x3e0ef5e8	0.13960993
64	0x3d5775c1	0.052602533
65	0x3e0930ad	0.13397475
66	0xbc4c1171	-0.01245533
67	0x3d7512b5	0.059832294
68	0x3cd338d8	0.025783941
69	0xbe234df3	-0.15947704
70	0x3e4e1d92	0.20128468
71	0x3e96afa5	0.2943088
72	0x3d2edc0e	0.04269033
73	0x3d5a9eef	0.053374227
74	0x3e0c4a54	0.13700229
75	0xbe1a6fb4	-0.15081674
76	0xbe295c0b	-0.16539018
77	0xbd33e6e8	-0.04392138
78	0xbdbf4561	-0.09339405
79	0x3cf10c1c	0.02942472
80	0xbd9c6a3c	-0.0763745
81	0x3dac9965	0.08427695
82	0x3d800935	0.06251756
83	0xbe82f9f2	-0.25581318
84	0x3c3538bc	0.01106089
85	0x3da726b4	0.08161679
86	0x3bff8914	0.0077983234
87	0x3c2e0058	0.010620199
88	0x3d7aaa13	0.06119735
89	0x3d5a7002	0.053329475
90	0x3d334d40	0.043774843
91	0xbde160a2	-0.11004759
92	0x3dc94f3b	0.09829565
93	0x3e13740b	0.14399736
94	0xbe009455	-0.12556584
95	0xbd8179ed	-0.063220836
96	0xbc93b00a	-0.018028278
97	0xbd889e72	-0.06670846
98	0xbe130dde	-0.14360759
99	0xbd98b952	-0.07457222
100	0xbe218603	-0.15773778
101	0x3e954ce4	0.29160225
102	0xbbb93225	-0.0056517296
103	0x3d99d543	0.075113796
104	0x3a51ae18	0.0007998659
105	0xbde47c4b	-0.111565195
106	0x3dade098	0.084901035
107	0x3bac3091	0.005254813
108	0x3e61b355	0.22041066
109	0xbe4e110e	-0.20123693
110	0xbd8d6100	-0.06903267
111	0x3e203c0a	0.15647903
112	0xbe0fb2ab	-0.14033
113	0xbdfd8c5c	-0.12380287
114	0x3e40f286	0.18842515
115	0x3e4b4cce	0.19853517
116	0xbd1821d6	-0.037141643
117	0x3d998a7e	0.074971184
118	0xbe00711f	-0.12543152
119	0xbe17b48a	-0.14814964
120	0x3db330e0	0.087495565
121	0xbd59941e	-0.05311977
122	0x3da78154	0.08178964
123	0x3d550a74	0.052011922
124	0x3e105035	0.14093097
125	0x3ddd93b0	0.10819185
126	0xbdbbad21	-0.09163881
127	0xbdf9801b	-0.12182637
128	0xbdfb8699	-0.12281532
129	0xbdec2fd0	-0.11532557
130	0xbe252747	-0.16128264
131	0x3e3b04e0	0.18263578
132	0xbd079e1e	-0.033109777
133	0x3cb36dcc	0.021902941
134	0xbe1c11f1	-0.15241219
135	0xbe4b4acc	-0.19852751
136	0x3da185e2	0.07886864
137	0xbe2dd61e	-0.1697621
138	0x3e030861	0.12796165
139	0x3c16ec25	0.009211575
140	0xbd91f9c6	-0.071277186
141	0x3cd0d769	0.02549334
142	0xbdbf3562	-0.09336354
143	0xbe287691	-0.1645148
144	0x3e372f43	0.17889123
145	0x3e00d529	0.12581314
146	0x3cf17564	0.029474922
147	0x3cd6e0ba	0.026230205
148	0x3c47b972	0.01219021
149	0xbeac7dd4	-0.3368975
150	0xbd59c544	-0.053166643
151	0xbe1ab20d	-0.15106983
152	0xbc41f4fb	-0.011838193
153	0xbe3978fa	-0.18112555
154	0xbe35c58c	-0.1775114
155	0xbe089aac	-0.13340253
156	0x3e44358f	0.19161056
157	0x3d0e05e5	0.03467359
158	0x3df7c894	0.12098804
159	0x3e0a88d2	0.13528755
160	0xbe2668c0	-0.16250896
161	0xbe7ce3f9	-0.2469634
162	0x3e16c71e	0.14724395
163	0xbcdda5aa	-0.027056534
164	0xbae87126	-0.0017733916
165	0x3dab8598	0.0837509
166	0x3e20823b	0.15674679
167	0xbe583bec	-0.21116608
168	0xbe0490a1	-0.12945797
169	0x3def006f	0.116700046
170	0xbda5b6ac	-0.080914825
171	0xbe074a8a	-0.13212028
172	0xbdc0bde5	-0.094112195
173	0x3e8ac097	0.2710006
174	0xbd207a9d	-0.039179433
175	0xbde81f17	-0.11334055
176	0x3d1d6a68	0.038431555
177	0xbd8ab244	-0.06772283
178	0x3e3eb146	0.18622312
179	0xbe5c420c	-0.2150957
180	0x3d2d38d7	0.042290535
181	0x3dbee99a	0.093219
182	0xbe586b5f	-0.21134709
183	0xbe05883c	-0.1304025
184	0x3db162d2	0.086614266
185	0x3c713a48	0.014723368
186	0xbdf2a44f	-0.118477456
187	0xbdd8205a	-0.105530456
188	0xbda1db59	-0.07903165
189	0xbd5f8f8c	-0.054580256
190	0xbe09b4e6	-0.13447914
191	0x3e457a7a	0.19285002
192	0xbe16a6f8	-0.14712131
193	0x3df01f0b	0.11724671
194	0xbdee04c0	-0.11622
195	0xbc95d4b4	-0.018289901
196	0xbdb699e8	-0.08916074
197	0xbe6f205f	-0.23352192
198	0x3e3d0734	0.18459779
199	0xbdeeb5db	-0.1165578
200	0x3d51f9f8	0.05126378
201	0x3e05f50d	0.1308176
202	0x3d7393d2	0.059467144
203	0xbcf925f8	-0.030413613
204	0x3d8b8d27	0.06814032
205	0xbd84b570	-0.06479919
206	0xbe4a0ba1	-0.19730999
207	0xbde25073	-0.11050501
208	0x3dd32c69	0.10311205
209	0xbe238d21	-0.15971805
210	0x3e2809f4	0.16410047
211	0xbd36a05a	-0.044586517
212	0xbde0da23	-0.10979106
213	0xbdd730fa	-0.105073884
214	0x3e1f5115	0.15558274
215	0xbcd6207c	-0.026138537
216	0x3e5cae39	0.21550836
217	0x3ddce0bc	0.10785052
218	0xbe21317c	-0.15741533
219	0xbd64a795	-0.05582388
220	0x3d89e691	0.0673343
221	0x3e0ea2af	0.13929246
222	0xbe63ab6e	-0.22233364
223	0xbdb99fbd	-0.09063671
224	0x3e0345ea	0.12819639
225	0x3d9fd468	0.07804185
226	0xbe9d400a	-0.3071292
227	0x3e6828c4	0.22671801
228	0x3e33a5bb	0.1754369
229	0xbd298750	-0.04138881
230	0xbb9d7cae	-0.0048061227
231	0xbc27192d	-0.0101988735
232	0x3e2c0af2	0.1680105
233	0xbeaf48dd	-0.34235278
234	0x3e503090	0.20331025
235	0x3c08f3f3	0.008358943
236	0xbe235d9c	-0.15953678
237	0xbdd99056	-0.10623233
238	0xbe88c6a6	-0.26714057
239	0xbd7881c4	-0.06067063
240	0x3c5637a1	0.013074786
241	0xbe4b582a	-0.1985785
242	0xbe5df2bf	-0.21674632
243	0xbe273cf1	-0.16331841
244	0x3d128d5d	0.035779346
245	0x3d47bc1b	0.048763376
246	0xbdb67358	-0.08908719
247	0x3d1db6dc	0.038504466
248	0x3e1a22dc	0.1505236
249	0x3e2026cc	0.156398
250	0xbd98c51c	-0.07459471
251	0x3d9bb9a2	0.07603766
252	0x3e53bc8a	0.2067739
253	0xbdbb54cd	-0.09147034
254	0xbcedc181	-0.029022934
255	0xbdc24dbb	-0.09487482

fr2.bias f4 [15]
0	0xbdf550c2	-0.11978294
1	0x3cf4eb4e	0.029897358
2	0xbc869e86	-0.016433012
3	0xbdd3c740	-0.10340738
4	0xbe9518ab	-0.29120383
5	0x3e9e8e64	0.3096801
6	0xbe1be144	-0.15222651
7	0xbe4e0a78	-0.20121181
8	0x3cb635fa	0.022242535
9	0xbd98ef6f	-0.07467543
10	0x3b7d1803	0.0038619048
11	0xbdc16181	-0.094424255
12	0x3dc08fb5	0.0940241
13	0xbe621e87	-0.22081958
14	0x3df0a59e	0.11750339

fr3.weight f4 [10, 15]
0	0xbc05e41d	-0.008172062
1	0x3cef26a3	0.029193228
2	0x3d809225	0.06277875
3	0x3dfc45f3	0.12318029
4	0xbce0aa62	-0.027424995
5	0xbeb3f8ca	-0.35150748
6	0xbe7162d8	-0.23572862
7	0x3e48c05f	0.19604634
8	0xbe70cad4	-0.23514873
9	0x3ca3dfd3	0.020004189
10	0xbe82c789	-0.25542858
11	0x3e5f94e1	0.21834137
12	0x3dcf3f40	0.10119486
13	0xbe285f7f	-0.16442679
14	0xbda1c495	-0.07898823
15	0xbd271203	-0.04078866
16	0x3c223a11	0.009901539
17	0xbcaf9bee	-0.021436658
18	0xbdf691c5	-0.12039522
19	0xbd95e312	-0.07318701
20	0x3e262958	0.16226709
21	0xbcb6faa6	-0.022336315
22	0x3e1abd24	0.15111214
23	0x3d40a5da	0.04703317
24	0xbe540fed	-0.207092
25	0x3c738072	0.014862167
26	0xbe9eb495	-0.30997148
27	0xbe039abf	-0.12852
28	0xbd35f9bf	-0.04442763
29	0xbe09fdfd	-0.13475795
30	0xbe133b83	-0.1437817
31	0xbe6d78fd	-0.23190685
32	0x3d7a20ae	0.061066322
33	0x3da86352	0.08222069
34	0xbd9d883b	-0.076919995
35	0x3e378b35	0.17924197
36	0xbe266472	-0.16249254
37	0x3d481df2	0.048856683
38	0x3e50dfab	0.20397823
39	0x3b98439b	0.004646731
40	0xbeb56dfc	-0.35435474
41	0x3d89a0ec	0.067201465
42	0xbd939df4	-0.072078615
43	0xbe6af4ce	-0.22944948
44	0xbdcd7498	-0.10032004
45	0xbc32ad27	-0.010905541
46	0x3d4b5c25	0.049648423
47	0x3e43d9b6	0.19126019
48	0xbd36ccc7	-0.044628885
49	0x3ea5c722	0.3237849
50	0xbe18bae1	-0.14915039
51	0x3e55939c	0.2085709
52	0x3d823c37	0.06359141
53	0x3e67686b	0.22598426
54	0x3e109d60	0.14122534
55	0xbe189466	-0.1490036
56	0x3ddcadce	0.10775338
57	0x3e0fdbc1	0.14048673
58	0x3ddeb9c8	0.10875279
59	0x3dd8297f	0.1055479
60	0x3d6a4f9a	0.05720482
61	0xbdb30118	-0.08740443
62	0x3b30c468	0.0026972536
63	0xbe0d0854	-0.13772708
64	0xbd6efce0	-0.05834663
65	0x3c9d1db3	0.0191792
66	0xbdaf8241	-0.08569766
67	0x3de0ee33	0.10982933
68	0xbf4cee21	-0.80050856
69	0x3dd752d6	0.105138466
70	0xbdce8fcb	-0.1008602
71	0xbe097d52	-0.13426712
72	0xbe05391a	-0.13010064
73	0xbcd577e3	-0.026058143
74	0xbd41cd78	-0.04731509
75	0x3dd9a476	0.106270716
76	0x3dbbd3bc	0.091712445
77	0xbc07b4aa	-0.00828282
78	0xbe26122b	-0.16217868
79	0xbdb9781e	-0.09056114
80	0xbd290cf6	-0.041272126
81	0x3d8964ef	0.06708705
82	0x3e41e09e	0.18933341
83	0xbdf44e9b	-0.11929055
84	0x3e63f81e	0.22262618
85	0x3dea9e34	0.11455956
86	0x3d0eefd2	0.03489668
87	0xbe538543	-0.20656304
88	0x3e38f5d5	0.18062527
89	0xbd38faab	-0.04516093
90	0x3ddec333	0.10877075
91	0xbde92bb3	-0.11385288
92	0x3e0fe0c9	0.14050592
93	0xbd51acd9	-0.05119023
94	0x3e1c46b9	0.15261354
95	0xbe6e22fc	-0.23255533
96	0x3e75a63a	0.23989192
97	0x3e9f5d17	0.3112571
98	0x3db027c5	0.086013354
99	0xbe14cb80	-0.14530754
100	0x3da1fb00	0.079092026
101	0x3e761dfd	0.24034877
102	0x3e0d7f2d	0.13818045
103	0x3e664eb3	0.22490959
104	0x3e35b492	0.17744663
105	0xbdf53cd4	-0.11974493
106	0x3e5eb77f	0.21749686
107	0x3df045e0	0.117320776
108	0x3dfaf544	0.12253812
109	0xbe63b087	-0.22235309
110	0xbe532716	-0.20620379
111	0x3df1b12e	0.118013725
112	0xbb77001f	-0.003768928
113	0xbf1504e6	-0.582106
114	0x3e5b11c1	0.21393491
115	0x3d44d3fb	0.048053723
116	0xbe01dcc0	-0.12681866
117	0xbc3cdae8	-0.011526801
118	0xbe0e1a49	-0.13877214
119	0x3d3bec48	0.045879632
120	0x3dc40a6b	0.095722996
121	0x3d51cb69	0.051219378
122	0x3d8967a4	0.06709221
123	0xbd1854e4	-0.037190333
124	0x3dd44ad0	0.10365832
125	0xbcd8ba35	-0.026455978
126	0xbdf99fac	-0.12188658
127	0xbdcf59c4	-0.10124543
128	0x3e22b1c7	0.15888129
129	0x3e37f7a8	0.17965567
130	0xbd06ceed	-0.032912184
131	0x3e101378	0.14069927
132	0xbe284750	-0.16433454
133	0x3d545fa2	0.051849015
134	0x3c83bf54	0.016082443
135	0x3d346ba4	0.044047967
136	0x3e50c837	0.20388876
137	0xbd2a806a	-0.04162637
138	0xbc34b963	-0.011030528
139	0xbe72c152	-0.23706558
140	0x3e28b5e8	0.16475642
141	0xbdc0955b	-0.09403487
142	0x3ea2bfd0	0.31786966
143	0x3e11c921	0.14236881
144	0xbe0f8498	-0.14015424
145	0x3c64fac0	0.013975799
146	0xbd6dd619	-0.058065508
147	0xbc68302e	-0.014171643
148	0x3d54118d	0.05177455
149	0x3da9f244	0.082981616

fr3.bias f4 [10]
0	0x3d97fe07	0.07421499
1	0x3e0daab6	0.13834652
2	0xbdbffc4d	-0.093742944
3	0xbd577099	-0.052597616
4	0x3e04600c	0.12927264
5	0xbea41b49	-0.32052067
6	0x3e59801c	0.21240276
7	0x3e5ab236	0.21357045
8	0x3d878f21	0.066190965
9	0x3df06604	0.11738208

fo1.weight f4 [30, 26]
0	0x3da77d1b	0.08178159
1	0xbc495d91	-0.012290374
2	0x3d0aa9ef	0.033853468
3	0xbe484700	-0.19558334
4	0xbde16261	-0.110050924
5	0xbda8c1d3	-0.08240094
6	0xbe8a9e71	-0.27074006
7	0xbe3a7c4a	-0.18211475
8	0x3dd850d8	0.10562295
9	0x3c2269a8	0.009912886
10	0x3d989cfb	0.07451817
11	0x3dc1fb55	0.09471766
12	0xbd5d3fdf	-0.05401599
13	0xbf91bb16	-1.1385219
14	0xbdb31783	-0.08744719
15	0xbd202e1b	-0.03910647
16	0xbe098fbb	-0.13433735
17	0x3b758b75	0.0037467156
18	0xbd65fe3f	-0.05615067
19	0xbe09f2d7	-0.13471542
20	0x3d3828a2	0.044960625
21	0xbe3501da	-0.17676488
22	0x3c067293	0.008206028
23	0x3d60530c	0.0547667
24	0x3d8272f7	0.06369584
25	0x3dca386b	0.09874042
26	0xbc885371	-0.01664135
27	0xbce44c73	-0.027868485
28	0x3b4c01ca	0.0031128996
29	0xbd39294f	-0.04520541
30	0x3d2a7504	0.0416155
31	0xbdb175a7	-0.086650185
32	0x3dca37c5	0.098739184
33	0xbd0d1c5f	-0.034450885
34	0xbe12c738	-0.14333808
35	0xbe73d92e	-0.23813316
36	0xbe0cccd9	-0.13750018
37	0xbe71f4b3	-0.23628502
38	0x40affb34	5.4994144
39	0xc097094a	-4.719884
40	0xbe8959c4	-0.26826298
41	0xbe34fe0b	-0.17675035
42	0x3d836d7d	0.064173676
43	0xbd970863	-0.073746465
44	0x3e0e2bd4	0.13883907
45	0x3d6ee90c	0.05832772
46	0xbeaf6df9	-0.3426359
47	0x3e907f17	0.28221962
48	0xbe8562f0	-0.26052046
49	0xbebaf3ce	-0.36514133
50	0x3d5bc371	0.053653184
51	0x3e1fb6dc	0.15597099
52	0xbd9e5502	-0.07731058
53	0x3e104d6f	0.14092039
54	0x3c8f6e2d	0.01750859
55	0x3e46d580	0.19417381
56	0xbbf2f86b	-0.0074148676
57	0x3e604acc	0.21903533
58	0x3e2185b8	0.15773666
59	0xbe745a56	-0.23862585
60	0x3e2b0734	0.16701967
61	0x3e2ea66f	0.17055677
62	0xbc744606	-0.014909273
63	0x3dcfd821	0.10148645
64	0xbfab0e0d	-1.3363663
65	0x40078ab3	2.1178405
66	0xbdeb33fc	-0.114845246
67	0xbd155f53	-0.03646786
68	0xbd53bd39	-0.05169413
69	0xbe021e98	-0.12706983
70	0xbb8b1df2	-0.004245513
71	0x3d7e625b	0.062105518
72	0x3e2d5b66	0.16929397
73	0xbd94d7c6	-0.07267718
74	0x3cdc8e17	0.026923222
75	0x3e4b1fbe	0.19836327
76	0x3d6d1db7	0.057889666
77	0x3cf55b13	0.029950654
78	0xbc9d4df8	-0.019202217
79	0xbe047254	-0.12934238
80	0xbda59cdb	-0.080865584
81	0xbd3a9121	-0.045548562
82	0xbe63eadb	-0.22257559
83	0xbe682770	-0.22671294
84	0xbecfd19b	-0.40589604
85	0xbd852a75	-0.06502239
86	0xbe5722d2	-0.21009377
87	0x3e305b8d	0.17222424
88	0x3b971633	0.0046108006
89	0xbdf67715	-0.12034432
90	0x3e918fa5	0.28429905
91	0xbfa49d5e	-1.2860525
92	0x3da752d0	0.08170092
93	0xbe38b289	-0.18036856
94	0x3c897c13	0.016782796
95	0x3db1d44a	0.08683069
96	0x3d874808	0.06605536
97	0xbd40eee8	-0.04710284
98	0x3e2509ed	0.16117068
99	0xbdf659c8	-0.12028843
100	0x3e181ab4	0.14853936
101	0xbc94511e	-0.018105086
102	0xbc504cd8	-0.0127136335
103	0xbe112e60	-0.14177847
104	0x3bb56c70	0.0055366084
105	0xbd7e005d	-0.062012065
106	0x3df37364	0.118872434
107	0x3d799967	0.06093731
108	0x3e2ccf13	0.16875868
109	0x3cedf8f4	0.029049374
110	0x3e02c9d3	0.12772302
111	0xbe62bbe7	-0.22141992
112	0x3e919a0d	0.28437844
113	0xbdb62aaf	-0.0889486
114	0x3dc0fc99	0.09423179
115	0x3e063f3b	0.13110058
116	0xbfaa8182	-1.3320773
117	0x3f8caf97	1.0991086
118	0xbd0ea0bd	-0.03482126
119	0x3e10b312	0.1413081
120	0x3e399e3a	0.18126765
121	0xbe3c4a7e	-0.18387792
122	0xbe045586	-0.1292325
123	0xbe6ddb1c	-0.23228115
124	0x3e9ddda7	0.3083317
125	0x3eb8bb94	0.3608061
126	0xbe968635	-0.29399267
127	0x3db1dc19	0.086845584
128	0x3c4da3f5	0.012551297
129	0xbdc28230	-0.094974875
130	0xbc777597	-0.015103719
131	0xbd6f34cc	-0.05839996
132	0xbe2b5504	-0.1673165
133	0x3d056331	0.0325653
134	0x3da73cd7	0.08165901
135	0xbdc15eae	-0.09441887
136	0xbd892720	-0.066969156
137	0x3e467172	0.19379213
138	0xbb28d467	-0.0025761367
139	0x3c718b0b	0.014742623
140	0x3e1523d9	0.14564456
141	0x3e33777b	0.17526047
142	0xbeddae42	-0.4329701
143	0x40131a5f	2.2984846
144	0x3e8176ef	0.25286052
145	0x3e1e65b6	0.15468487
146	0x3d9cc18c	0.07654104
147	0xbe1f6d6d	-0.15569086
148	0xbda4f683	-0.08054831
149	0x3ea18f53	0.3155466
150	0xbd721e41	-0.059110884
151	0xbbe68cfe	-0.0070358505
152	0xbbabf28a	-0.005247419
153	0x3c584e62	0.013202282
154	0xbe4fd9a0	-0.20297861
155	0xbe38ace9	-0.1803471
156	0x3b957986	0.004561606
157	0xbd5f0fb9	-0.054458354
158	0x3e38e9d9	0.18057956
159	0xbe03846b	-0.12843482
160	0xbe2c706e	-0.16839764
161	0xbe08e0b1	-0.13366963
162	0xbd4cc320	-0.049990773
163	0xbe5858f3	-0.21127681
164	0xbef69efc	-0.4816817
165	0xbcb3a9f8	-0.021931633
166	0xbea2c347	-0.3178961
167	0xbcceb60f	-0.025233297
168	0x3f93bfc4	1.1542897
169	0xbf78d1bf	-0.9719505
170	0xbc8dd9d2	-0.017315779
171	0xbd9033a5	-0.070411004
172	0x3d39ca76	0.045359097
173	0x3ea52e7c	0.32262027
174	0xbd2737ee	-0.040824823
175	0x3dab9ab1	0.083791144
176	0x3dd1650c	0.10224351
177	0x3e951e41	0.29124644
178	0xbe2dd1b5	-0.16974528
179	0x3d450010	0.048095763
180	0xbdfa8322	-0.12232043
181	0x3e489477	0.19587885
182	0x3c207b6e	0.009795053
183	0x3ce04f60	0.027381599
184	0x3dd5fe0f	0.104488485
185	0x3e140082	0.14453319
186	0x3e2d7f90	0.16943192
187	0x3e0f8a07	0.14017497
188	0xbdb17cc5	-0.08666376
189	0xbdcb5065	-0.099274434
190	0x3e4417c5	0.19149692
191	0x3e4bc62f	0.1989982
192	0xbd2125dc	-0.039342746
193	0x3dbbe8b2	0.091752425
194	0x3f30d858	0.69080114
195	0xc01e3686	-2.4720778
196	0xbadf7069	-0.0017047051
197	0xbdfc2a79	-0.123127885
198	0xbe39a878	-0.18130672
199	0x3cd74700	0.026278973
200	0xbe1cc865	-0.1531082
201	0xbc889f16	-0.01667742
202	0x3e3f547b	0.1868457
203	0x3ea185e6	0.3154747
204	0xbdff19e4	-0.1245611
205	0xbd8b8e10	-0.06814206
206	0x3d991e0d	0.07476435
207	0xbe3e1052	-0.18560913
208	0xbc57a0b3	-0.013160872
209	0x3dd63a1d	0.10460303
210	0x3bb022a7	0.0053752246
211	0xbe05865f	-0.1303954
212	0xbc5cd0d7	-0.013477526
213	0xbdaa8fc7	-0.083282046
214	0xbc1380d5	-0.009002884
215	0x3d5099b3	0.05092783
216	0x3ebb4205	0.36573806
217	0xbd71522c	-0.058916256
218	0x3ca69728	0.020335749
219	0xbe03cc54	-0.12870914
220	0xbfce8958	-1.6135664
221	0x401089d8	2.2584133
222	0x3cfd1d0b	0.030897638
223	0xbe597427	-0.21235715
224	0x3eb67a84	0.35640347
225	0xbe7e8d96	-0.24858698
226	0x3d72e749	0.059302602
227	0x3e15165b	0.14559309
228	0x3e8de11a	0.277108
229	0x3e532f1d	0.20623441
230	0x3cca9d02	0.02473307
231	0x3d7e2bd3	0.062053513
232	0xbd1b5039	-0.037918303
233	0xbd6e2986	-0.05814507
234	0xbdf45cb1	-0.11931742
235	0xbdca45b9	-0.0987658
236	0xbcbde080	-0.023178339
237	0xbd62451d	-0.055241693
238	0x3da2ed3b	0.07955404
239	0x3db8b0db	0.090181075
240	0x3d357f3a	0.044310786
241	0xbde10205	-0.10986713
242	0x3d790374	0.06079431
243	0xbe681ddc	-0.2266764
244	0xbdd09f0d	-0.101865865
245	0xbe6841ea	-0.22681394
246	0x4085a5df	4.176498
247	0xc0113f66	-2.2694945
248	0xbc9f1a76	-0.019421797
249	0xbe2f0e19	-0.17095222
250	0x3da8e2c8	0.0824638
251	0x3e793145	0.24335201
252	0x3e11ef8f	0.1425154
253	0x3e47332c	0.19453114
254	0xbdadc3a9	-0.08484585
255	0x3e322f82	0.17400935

fo1.bias f4 [30]
0	0x3e1b404e	0.15161249
1	0xbede0a2e	-0.4336714
2	0x3db2799e	0.08714603
3	0xbe01e6c8	-0.12685692
4	0xbded1fcb	-0.1157833
5	0xbe300d61	-0.17192604
6	0xbe814c27	-0.25253412
7	0x3de4be41	0.111691006
8	0xbea32d61	-0.3187056
9	0xbe7a3b38	-0.24436653
10	0xbe9ea9f0	-0.30989027
11	0xbd5fcb7d	-0.05463742
12	0x3e480b0e	0.19535467
13	0xbdd6a4cf	-0.104806535
14	0x3e0762a4	0.13221222
15	0xbd012aaa	-0.03153483
16	0x3de40ec2	0.11135627
17	0xbd43ea5b	-0.04783092
18	0x3d865894	0.06559864
19	0xbdc58672	-0.09644784
20	0x3dccf26e	0.10007177
21	0x3def64cc	0.11689147
22	0xbda150dd	-0.078767516
23	0xbd3b8d21	-0.045788888
24	0x3df45d4e	0.11931859
25	0x3e3e3abb	0.18577091
26	0xbd6488a4	-0.055794373
27	0xbe228074	-0.15869313
28	0xbd997a07	-0.07493978
29	0xbe47b941	-0.19504263

fo2.weight f4 [15, 30]
0	0xbf0d5682	-0.55210125
1	0xbdff0b8f	-0.124533765
2	0x3cd4d1f8	0.025979027
3	0xbe0f2042	-0.13977149
4	0xbdecec41	-0.11568499
5	0x3e4b142c	0.19831914
6	0xbe340067	-0.17578278
7	0xbec191eb	-0.3780664
8	0x3e53a0de	0.20666835
9	0x3e210587	0.15724765
10	0xbe200bb3	-0.15629463
11	0x3d7fad67	0.06242123
12	0xbf04e253	-0.51907843
13	0x3e0ed959	0.13950099
14	0xbe51eb86	-0.20500001
15	0x3dbc4f50	0.09194815
16	0x3dbd83c3	0.09253647
17	0x3e8863e5	0.26638713
18	0xbc2d59cf	-0.010580494
19	0xbde36e16	-0.111049816
20	0xbd45d0bd	-0.04829477
21	0xbe21a803	-0.15786748
22	0x3e053c29	0.1301123
23	0xbec4723e	-0.3836841
24	0x3d2baca1	0.04191268
25	0x3d4a4af6	0.049387895
26	0x3cb48c5c	0.022039585
27	0x3e37e8f5	0.1795996
28	0xbe8bba8b	-0.27290758
29	0xb9118ef6	-0.00013881535
30	0xbdc77f88	-0.097411215
31	0xbcf71b22	-0.030164305
32	0x3d6274d9	0.055287216
33	0x3d32ef7e	0.04368543
34	0xbce70def	-0.028204886
35	0x3e0f3948	0.13986695
36	0x3e6f80a8	0.23388922
37	0x3dca83e1	0.09888435
38	0x3e674275	0.22583945
39	0xbe6163d6	-0.2201074
40	0xbe225d7f	-0.15855978
41	0xbdb470b1	-0.08810557
42	0xbcc0d889	-0.023540752
43	0xbdeb4b00	-0.114889145
44	0xbd157d5c	-0.036496505
45	0xbcd62a66	-0.026143264
46	0x3e45d498	0.1931938
47	0xbc25f389	-0.010128864
48	0xbdfbfe7b	-0.12304398
49	0xbc65a94d	-0.014017415
50	0x3da3e650	0.08002913
51	0xbe5159b8	-0.20444381
52	0xbdfe9443	-0.124306224
53	0xbe759fb5	-0.23986705
54	0xbe097eb0	-0.13427234
55	0x3d07a06c	0.033111975
56	0x3ddeb26f	0.10873877
57	0xbdf3bb83	-0.119009994
58	0x3e1464dc	0.144916
59	0xbd89ae95	-0.06722752
60	0xbebde64a	-0.3708976
61	0x3d565a13	0.052331995
62	0x3db605bb	0.08887812
63	0xbee545e2	-0.4477988
64	0xbd238b29	-0.039927635
65	0x3d962335	0.07330934
66	0x3e6d957c	0.23201555
67	0x3dc6fe72	0.097165
68	0x3c44f264	0.012020681
69	0x3dd76009	0.10516364
70	0x3e27c9a3	0.16385512
71	0xbf224cdc	-0.6339853
72	0xbe3fb00f	-0.18719505
73	0xbdc8fcc0	-0.09813833
74	0x3e90aeda	0.282584
75	0x3d66b385	0.056323547
76	0xbe1665db	-0.14687292
77	0xbd45297f	-0.048135277
78	0x3e8c3ee1	0.27391723
79	0xbe4bb629	-0.19893707
80	0x3d474671	0.048651163
81	0x3e974a02	0.2954865
82	0xbddb3d42	-0.107050434
83	0xbec153be	-0.37759203
84	0x3e264e37	0.16240774
85	0xbe2c9110	-0.16852212
86	0xbceacc28	-0.028661802
87	0xbd5f19fa	-0.054468133
88	0x3e5e51d7	0.21710907
89	0x3dc72cc0	0.09725332
90	0x3d4c588c	0.049889132
91	0x3e6c45c9	0.23073496
92	0xb963ac30	-0.00021712552
93	0xbd987c14	-0.07445541
94	0xbd475833	-0.048668098
95	0xbb9b7d9b	-0.004745198
96	0x3d9d41a8	0.076785386
97	0x3dccd008	0.10000616
98	0xbeed4d1f	-0.463479
99	0x3e4e078e	0.2012007
100	0x3c56382e	0.013074918
101	0xbbd237fb	-0.006415365
102	0xbd5cc0f2	-0.053894944
103	0x3e23c3a6	0.15992603
104	0x3d395fbd	0.04525732
105	0x3da4c876	0.080460474
106	0xbe3edc00	-0.18638611
107	0xbd676a91	-0.056498114
108	0x3b37290d	0.0027948052
109	0x3ca44b82	0.020055536
110	0x3e03e8f7	0.12881838
111	0xbd2a2fcd	-0.041549493
112	0x3e2adf2f	0.166867
113	0x3dd2fc5d	0.10302041
114	0xbde719e0	-0.11284232
115	0x3c4bc742	0.0124376435
116	0x3ddd63a6	0.10810022
117	0xbe23bb90	-0.15989518
118	0xbe45143d	-0.19246002
119	0xbd90f5dd	-0.07078145
120	0xbdbe07f6	-0.09278862
121	0xbf48fb07	-0.7850804
122	0x3e60d1be	0.2195501
123	0xbe499f11	-0.19689585
124	0x3e87ee0d	0.26548806
125	0x3e089a84	0.13340193
126	0xbd56934f	-0.05238658
127	0x3d4ac9a6	0.049508713
128	0x3ea3e8c8	0.32013535
129	0xbe641fbf	-0.22277735
130	0xbe9ddae7	-0.30831072
131	0xbe014b93	-0.12626486
132	0xbcda5978	-0.02665399
133	0x3e19a12f	0.15002893
134	0xbea1f9cf	-0.316359
135	0xbd756458	-0.05991015
136	0xbe80b3d6	-0.25137204
137	0xbd807a92	-0.062733784
138	0xbe41443a	-0.18873683
139	0x3db2d092	0.08731188
140	0x3ed8ecc8	0.4236815
141	0xbe27400d	-0.16333027
142	0x3e6811d5	0.22663052
143	0xbf08ac64	-0.5338805
144	0xbe217813	-0.15768461
145	0x3e3072d3	0.17231302
146	0xbdcf7cd0	-0.10131228
147	0xbe23eb6a	-0.16007772
148	0xbcb56f8d	-0.022147918
149	0x3ddfec37	0.10933726
150	0x3d606ac3	0.054789316
151	0xbe052f2e	-0.13006279
152	0x3d6ff3e7	0.058582213
153	0x3e0fca9c	0.14042133
154	0x3ead4ae2	0.33846194
155	0x3d1cf63b	0.03832076
156	0xbd30c0cd	-0.04315262
157	0x3c47f2c0	0.012203872
158	0x3ddfb64a	0.10923441
159	0xbd06ace2	-0.032879718
160	0x3d42f084	0.047592655
161	0x3c9c98af	0.019115774
162	0xbdc91318	-0.09818095
163	0x3de52129	0.111879654
164	0x3a7bee61	0.00096104114
165	0xbbdb0a93	-0.00668461
166	0xbd8b6a0a	-0.06807335
167	0xbddcb597	-0.10776823
168	0x3d989148	0.07449585
169	0x3dd9f13e	0.106417164
170	0xbcfbd698	-0.030741975
171	0xbd59faa2	-0.053217538
172	0xbe8dc0d6	-0.27686185
173	0xbd612a92	-0.05497224
174	0xbe6707a9	-0.22561516
175	0x3e5c5bfe	0.21519467
176	0xbe6cc704	-0.23122793
177	0x3e1fc541	0.1560259
178	0x3ba5bf74	0.0050582234
179	0x3da0279a	0.078200534
180	0x3d751ec8	0.05984381
181	0x3e016f83	0.12640195
182	0x3d934088	0.07190043
183	0x3d8f42cf	0.069951646
184	0x3d873ee2	0.06603791
185	0xbde84df2	-0.11342992
186	0xbb9edeca	-0.004848336
187	0xbe31d178	-0.17365062
188	0x3cfacbe6	0.030614804
189	0xbe1288f5	-0.14310057
190	0x3d1ccefd	0.038283337
191	0x3caf7613	0.021418607
192	0xbde8bacc	-0.11363754
193	0x3d4be5c4	0.04977967
194	0xbc827eec	-0.015929662
195	0x3d7256fa	0.05916498
196	0x3b99dcbe	0.004695504
197	0xbcfddbc6	-0.030988585
198	0xbd98a556	-0.0745341
199	0x3e1bfc66	0.15233001
200	0x3e27ad96	0.16374812
201	0xbe09740b	-0.13423173
202	0x3cad6705	0.021167288
203	0xbda3668f	-0.07978546
204	0xbc35b7c9	-0.011091181
205	0xbd79e1f8	-0.061006516
206	0xbdb3b511	-0.0877477
207	0xbd9945fd	-0.07484052
208	0x3da17dbe	0.078853115
209	0xbd23d46d	-0.039997507
210	0xbd937c71	-0.0720147
211	0x3e0d803b	0.13818447
212	0x3d9e3aae	0.07726036
213	0xbd387735	-0.04503556
214	0x3c9473cd	0.018121624
215	0xbeb5b059	-0.35486105
216	0xbe22f05e	-0.15912005
217	0xbde70bc0	-0.11281538
218	0xbe7f5b7d	-0.24937244
219	0x3c8489f3	0.01617906
220	0xbe693b01	-0.22776414
221	0x3e166e54	0.14690524
222	0x3c223e81	0.009902597
223	0x3d8d8915	0.06910912
224	0x3d86c149	0.06579835
225	0xbd879d9d	-0.06621859
226	0xbe690b26	-0.22758159
227	0x3c3835ce	0.011243297
228	0x3d66fa9d	0.056391347
229	0x3d1c1c14	0.038112715
230	0x3dc0e001	0.09417725
231	0x3c7c6f95	0.015407463
232	0xbd4d710e	-0.050156645
233	0x3e24fce9	0.16112103
234	0x3da9c176	0.08288853
235	0xbe342729	-0.17593063
236	0xbbd1d230	-0.00640323
237	0x3bbac09f	0.0056992318
238	0x3b87c68c	0.0041435417
239	0x3d2865b5	0.04111262
240	0x3bcc9a58	0.006243985
241	0xbe756f7b	-0.23968308
242	0xbc19019d	-0.009338764
243	0xbda97e3e	-0.08276032
244	0x3d467aef	0.048457082
245	0xbde8dfd8	-0.1137082
246	0x3c4523b8	0.012032442
247	0x3dfab275	0.12241069
248	0xbeb41440	-0.351717
249	0xbe321934	-0.17392427
250	0x3c4eff8a	0.012634167
251	0xbe958719	-0.29204634
252	0x3d1a3efb	0.03765772
253	0x3dd5b3fe	0.104347214
254	0xbe3f9741	-0.18710043
255	0x3d2e298a	0.042520083

fo2.bias f4 [15]
0	0xbdb5ef09	-0.08883483
1	0xbe1cdbb2	-0.15318182
2	0xbd5e724a	-0.054308213
3	0xbd2fb7a7	-0.042899754
4	0xbdb9bfb3	-0.09069767
5	0xbd929c10	-0.07158673
6	0x3d1491a4	0.036271706
7	0x3dc40972	0.09572114
8	0x3cd34cde	0.02579349
9	0x3dd1bed0	0.10241473
10	0xbdd8dd2b	-0.105890594
11	0x3d20883f	0.039192434
12	0x3dad42f2	0.084600344
13	0x3d3076c0	0.043082
14	0xbdc9d5cd	-0.098552324

fo3.weight f4 [10, 15]
0	0x3e8321f6	0.25611848
1	0x3b1c184e	0.0023818198
2	0xbe347a56	-0.17624792
3	0xbe904867	-0.2818024
4	0x3f0b1c57	0.5434012
5	0x3dd0d95f	0.1019771
6	0x3b1beb4a	0.0023791366
7	0xbe1935e5	-0.14961965
8	0xbed1d0b9	-0.40979555
9	0x3e69598f	0.2278807
10	0xbebb9a58	-0.36641192
11	0xbe8cb762	-0.2748366
12	0xbed3846b	-0.41311964
13	0x3ddc0616	0.10743348
14	0x3e92c182	0.2866326
15	0xbe0bc879	-0.13650693
16	0x3ddb08f7	0.10695069
17	0xbe046caa	-0.12932077
18	0xbe1c0a08	-0.15238202
19	0x3ecb0349	0.39650944
20	0xbe19a32b	-0.1500365
21	0xbc6bc1df	-0.014389484
22	0x3e220930	0.15823817
23	0x3d414965	0.047189135
24	0x3d0a194b	0.033715528
25	0x3d0be0a2	0.034149773
26	0xbd9b7792	-0.075911656
27	0x3d5a9232	0.05336208
28	0xbcb19506	-0.021677505
29	0xbd95c539	-0.07313008
30	0x3cdcbf44	0.026946671
31	0x3e0f517e	0.1399593
32	0x3cdde737	0.02708779
33	0xbe08d8f4	-0.13364011
34	0xbea3b5b7	-0.31974575
35	0xbe2b5f3a	-0.16735545
36	0xbdf5cb4f	-0.12001669
37	0xbe1c37a9	-0.15255608
38	0x3cb4e837	0.022083385
39	0xbd2224b7	-0.039585795
40	0xbe0b3fa6	-0.13598499
41	0x3c8b8c08	0.017034546
42	0xbdf58903	-0.119890235
43	0x3c957ae9	0.018247085
44	0xbd7cd26f	-0.061724123
45	0xbd80010b	-0.06250199
46	0x3de92bc2	0.11385299
47	0x3df0d701	0.11759759
48	0x3deea382	0.116522804
49	0x3df13d94	0.11779323
50	0x3e0fa6ef	0.14028524
51	0xbe11f0a3	-0.14251952
52	0x3c5c0a72	0.013430225
53	0x3e6e5dea	0.23278013
54	0xbd084ac4	-0.033274427
55	0x3d5ccc47	0.05390575
56	0xbe32986e	-0.1744096
57	0x3d0b9359	0.03407607
58	0xbb149da4	-0.002267697
59	0xbe28576b	-0.16439597
60	0x3ec017a2	0.3751803
61	0x3dd4cabb	0.1039023
62	0xbd5a777a	-0.053336598
63	0xbe0f3e34	-0.13988572
64	0x3e9ce99f	0.3064699
65	0x3dc44f76	0.095854685
66	0x3d646bf0	0.055767
67	0xbe27ecae	-0.1639888
68	0xbe40c505	-0.18825157
69	0x3e002d0f	0.12517188
70	0x3de49861	0.111618765
71	0xbee054dc	-0.43814743
72	0xbd7d3e26	-0.061826847
73	0xbdc6d7b9	-0.097091146
74	0x3e047ddf	0.12938641
75	0x3d8eedb9	0.06978936
76	0xbe3169a4	-0.17325455
77	0x3e02a19b	0.1275696
78	0xbd6edd2a	-0.058316387
79	0x3dcc76bc	0.09983584
80	0xbeb8b59b	-0.36076054
81	0x3dbe5340	0.092932224
82	0x3e78d104	0.24298483
83	0x3e08ab3c	0.1334657
84	0x3dfa86e8	0.122327626
85	0xbe92f949	-0.28705814
86	0x3c8d43f3	0.017244315
87	0xbe5dc1f9	-0.21656026
88	0x3e4a4e78	0.19756496
89	0xbd25f78c	-0.040519282
90	0x3e14db6e	0.14536831
91	0x3e1ec0ee	0.15503284
92	0xbd4326f2	-0.047644563
93	0xbe485064	-0.19561917
94	0xbe78d66f	-0.2430055
95	0xbcc546ee	-0.024081673
96	0x3dee4b46	0.11635451
97	0x3e438b4b	0.19096105
98	0x3dca7add	0.098867156
99	0x3e8b8ca6	0.27255744
100	0xbcd9a767	-0.026569081
101	0xbd683d78	-0.056699246
102	0xbd3dbfab	-0.046325367
103	0xbe40ce88	-0.18828785
104	0x3dcfb50f	0.10141956
105	0x3eadd52b	0.33951697
106	0xbe1b9d2e	-0.15196678
107	0xbc1be95a	-0.009516085
108	0x3dfb188e	0.12260543
109	0x3e23fdc2	0.1601477
110	0xbdaeaa53	-0.085285805
111	0x3c95fd5c	0.018309288
112	0x3e11cc14	0.14238006
113	0xbcf4e147	-0.029892577
114	0x3cea59e9	0.028607326
115	0x3d934215	0.071903385
116	0xbe3f4e3d	-0.1868219
117	0xbe1515c8	-0.1455909
118	0xbe393478	-0.18086421
119	0xbda33bad	-0.079703666
120	0xbe08429a	-0.13306656
121	0xbe13816c	-0.1440484
122	0xbe3d9f14	-0.18517715
123	0x3da7b556	0.08188884
124	0xbaa31a9c	-0.0012443843
125	0x3d3d5fb1	0.046233837
126	0xbc8e5af2	-0.01737735
127	0xbdcf1162	-0.101107374
128	0x3e30116f	0.1719415
129	0x3dec8a40	0.115498066
130	0xbdb38265	-0.08765105
131	0xbc4bb331	-0.012432859
132	0x3de5a8f0	0.11213863
133	0x3d8560af	0.065125816
134	0xbde9ba00	-0.1141243
135	0xbe4885fa	-0.19582358
136	0xbec4b794	-0.3842131
137	0xbe64fe9d	-0.22362752
138	0xbe6f8c6c	-0.2339341
139	0x3ef55561	0.479167
140	0xbdb4df58	-0.08831662
141	0xbe8c8190	-0.27442598
142	0xbc82d05d	-0.015968496
143	0x3bbb35cf	0.0057132016
144	0xbe689d3a	-0.22716227
145	0x3c5c57d0	0.0134486705
146	0xbf164328	-0.5869622
147	0xbec6a7d2	-0.38799912
148	0xbe476360	-0.19471502
149	0x3e835b20	0.2565546

fo3.bias f4 [10]
0	0x3e269aff	0.16270064
1	0xbd17ca4c	-0.03705816
2	0xbe3705b5	-0.17873271
3	0xbb31045e	-0.002701066
4	0x3e43357b	0.1906337
5	0xbe9cd287	-0.3062937
6	0xbe7728b2	-0.24136618
7	0xbe8619dd	-0.26191607
8	0xbe4d5d92	-0.20055225
9	0xbe803006	-0.2503664

fc1.weight f4 [30, 10]
0	0xbee3f444	-0.44522297
1	0xbe0d2734	-0.13784486
2	0x3e85bb25	0.26119342
3	0x3df90457	0.12159031
4	0xbe4f8d60	-0.20268774
5	0x3e491408	0.19636548
6	0x3e6eda9e	0.23325583
7	0x3d43ed13	0.047833513
8	0x3c77c4b0	0.015122578
9	0xbea44890	-0.3208661
10	0xbdc13d47	-0.09435516
11	0x3e87bf69	0.26513222
12	0xbe9a6e2f	-0.30162188
13	0xbd82ef10	-0.06393254
14	0xbba3970d	-0.004992372
15	0xbe69fa15	-0.22849305
16	0x3e275d59	0.16344203
17	0x3c62ba60	0.013838381
18	0x3dfa72a6	0.12228899
19	0xbd9c3545	-0.07627348
20	0x3d5abf46	0.05340507
21	0xbe43337b	-0.19062607
22	0xbda1c5cf	-0.07899057
23	0x3d4a8ced	0.049450804
24	0x3e842548	0.25809693
25	0xbe6c4006	-0.23071298
26	0xbe576e99	-0.21038283
27	0xbd4c7b02	-0.049921997
28	0x3e943d67	0.28953096
29	0x3e7a4fce	0.24444506
30	0xbdd52376	-0.10407154
31	0xbeca14da	-0.39469033
32	0xbd9408a8	-0.072282135
33	0x3e859f78	0.26098228
34	0xbdcebe09	-0.1009484
35	0xbe038b8d	-0.12846203
36	0xbcf89e0b	-0.030348798
37	0xbda4e9d5	-0.080524124
38	0xbe137c53	-0.14402895
39	0x3e36e62a	0.17861238
40	0xbd8bddd4	-0.0682942
41	0x3e4ccfea	0.20001188
42	0xbd669873	-0.05629773
43	0xbd990c4c	-0.074730486
44	0x3dd56e3c	0.10421416
45	0x3e20436e	0.15650722
46	0xbc18ba03	-0.009321692
47	0xbd484030	-0.04888934
48	0xbe293e31	-0.1652763
49	0x3ee40ffb	0.44543442
50	0xbe515d63	-0.2044578
51	0xbd526868	-0.0513691
52	0xbe8fe01f	-0.28100678
53	0x3c4a281f	0.012338667
54	0x3e8df6df	0.2772741
55	0x3d4a939d	0.04945718
56	0x3e1d0cb8	0.15336883
57	0x3d41f9ec	0.047357485
58	0x3cfb018b	0.030640384
59	0xbd1e598d	-0.03865962
60	0xbe793720	-0.24337435
61	0x3e0d5335	0.13801272
62	0x3d6e9a4b	0.058252614
63	0xbe0c83f2	-0.13722208
64	0x3e30eaf6	0.1727713
65	0x3d515135	0.051102836
66	0xbd55a7a6	-0.052161835
67	0xbe9fba82	-0.31196982
68	0x3dd8ad6c	0.105799526
69	0x3e113063	0.14178614
70	0xbe65b3ae	-0.22431824
71	0xbe9eb03c	-0.3099383
72	0xbc056b81	-0.008143307
73	0xbd5f31b0	-0.054490745
74	0xbe20f960	-0.15720129
75	0xbd43e68d	-0.047827292
76	0x3d2ea1da	0.042634822
77	0xbe15164c	-0.14559287
78	0xbd2cdccd	-0.04220276
79	0xbc551776	-0.013006082
80	0xbd84f5b3	-0.06492176
81	0x3e16668d	0.14687558
82	0xbe0a8409	-0.1352693
83	0xbd79a42d	-0.060947586
84	0x3e34b266	0.17646179
85	0x3ea3d8da	0.32001382
86	0x3e3b6459	0.18299998
87	0x3db92aa2	0.09041335
88	0xbda0e53f	-0.07856225
89	0xbe02701f	-0.12738083
90	0x3df32cef	0.11873805
91	0x3c4619d6	0.012091121
92	0xbd75b433	-0.059986304
93	0xbca6a0aa	-0.020340282
94	0x3d814b04	0.06313136
95	0xbe733344	-0.23750025
96	0x3da3b9fe	0.079944596
97	0xbe3baa26	-0.18326625
98	0xbdd4573a	-0.103682
99	0x3d0517c5	0.03249337
100	0x3e9472cf	0.28993842
101	0x3dbbd2e4	0.091710836
102	0xbe54f0bb	-0.20794956
103	0x3e3d3907	0.18478785
104	0xbe08824a	-0.13330951
105	0x3e37d572	0.17952517
106	0xbd8fbefb	-0.070188485
107	0xbe925900	-0.28583527
108	0x3e261398	0.16218412
109	0xbe846a21	-0.2586222
110	0xbe4574ea	-0.1928288
111	0xbd17946d	-0.037006784
112	0x3dbb202e	0.09136997
113	0x3de6efe6	0.11276226
114	0xbe8925a2	-0.26786524
115	0x3e04224d	0.1290371
116	0x3d9a1723	0.07523944
117	0x3d00d4a5	0.031452794
118	0x3d174b35	0.036936957
119	0xbe23b0cb	-0.1598541
120	0xbe6e2d41	-0.2325945
121	0x3e25496e	0.16141292
122	0xbe3c825b	-0.18409102
123	0xbdd4bcbf	-0.10387563
124	0xbca13ce4	-0.019682355
125	0x3ecbcb59	0.3980358
126	0xbdcd90e7	-0.100374036
127	0x3e1ce65f	0.15322255
128	0xbe9feeb1	-0.31236795
129	0x3e3dd3a3	0.18537764
130	0xbd430828	-0.0476152
131	0xbe4eb5b4	-0.20186502
132	0xbd7e3586	-0.062062763
133	0x3e3528ae	0.176913
134	0xbcd4f705	-0.025996694
135	0x3ec9cdd4	0.39414847
136	0xbe9c8c34	-0.30575716
137	0x3ea7d28a	0.32777816
138	0xbe70505d	-0.23468156
139	0x3db8f762	0.090315595
140	0xbda058b2	-0.07829417
141	0xbcee3de4	-0.029082246
142	0x3e4f8ee6	0.20269355
143	0xbd41f454	-0.04735215
144	0xbd9d85fe	-0.076915726
145	0x3e9d00f4	0.3066479
146	0x3e7204a1	0.23634578
147	0x3d8d8411	0.06909955
148	0xbc4785e7	-0.012177921
149	0xbd0589e5	-0.03260221
150	0xbdaeb3b1	-0.08530367
151	0xbe4382bd	-0.19092841
152	0x3e94856c	0.29008043
153	0xbda7764b	-0.081768595
154	0xbca79f62	-0.020461742
155	0xbe259876	-0.1617144
156	0xbde2c288	-0.1107226
157	0x3e05f450	0.13081479
158	0xbe5b02a8	-0.21387732
159	0x3b10bd8d	0.0022085637
160	0xbe21a58b	-0.15785806
161	0x3c8fef57	0.01757018
162	0xbda4f88f	-0.08055221
163	0xbcf0ca85	-0.029393444
164	0x3d2aecfc	0.041729912
165	0x3e8ff9f2	0.2812038
166	0xbe160c40	-0.1465311
167	0xbd767768	-0.06017247
168	0xbe571655	-0.21004613
169	0x3dc958f1	0.09831417
170	0xbe1659f1	-0.14682747
171	0xbe2eb3ac	-0.17060727
172	0xbe0846b5	-0.13308223
173	0xbde6abe8	-0.11263257
174	0x3e89dbbd	0.2692546
175	0x3b27411a	0.0025520981
176	0xbe300400	-0.17189026
177	0x3e255c17	0.1614841
178	0x3e8684e2	0.26273257
179	0x3bf9a162	0.0076181153
180	0x3eac12ea	0.3360818
181	0x3e16f3ff	0.14741515
182	0x3e1c3eac	0.15258282
183	0xbd6f5ffe	-0.058441155
184	0x3cb3cf85	0.021949539
185	0xbe780c21	-0.24223377
186	0xbe3722ec	-0.17884415
187	0xbdcfd5ec	-0.10148224
188	0xbbe9c282	-0.007133783
189	0x3d9de716	0.07710092
190	0x3ba127a3	0.004918055
191	0x3e35457c	0.17702287
192	0x3eb73900	0.35785675
193	0xbbbc5a5a	-0.0057480754
194	0xbe43d72e	-0.19125053
195	0x3e15fcdc	0.1464724
196	0xbdb08be6	-0.086204335
197	0xbe486fa8	-0.19573843
198	0xbe9bf820	-0.30462742
199	0xbdc045ad	-0.093882896
200	0xbe88c52d	-0.26712933
201	0x3e3939b2	0.18088415
202	0x3e887bd0	0.2665696
203	0x3e6d5983	0.23178677
204	0x3df79d47	0.12090545
205	0xbe1bbfd8	-0.15209901
206	0x3e12e11f	0.1434369
207	0x3bf083fd	0.007339953
208	0x3e6bed8a	0.23039833
209	0x3e474249	0.1945888
210	0xbe8891e5	-0.2667381
211	0x3e58db41	0.21177389
212	0xbd51628f	-0.051119383
213	0x3e23df62	0.16003183
214	0x3c21f5d2	0.009885268
215	0x3c071f71	0.008247242
216	0xbe756d1d	-0.23967405
217	0x3e7a348c	0.24434108
218	0xbe165f4f	-0.14684795
219	0x3db7a1bc	0.08966395
220	0x3e8ddf4b	0.27709422
221	0x3cb65c25	0.022260735
222	0xbe1a9bdf	-0.15098523
223	0xbd844c39	-0.06459851
224	0xbe88b60b	-0.26701388
225	0xbdc21200	-0.094760895
226	0xbe56b60c	-0.20967883
227	0x3d876009	0.06610114
228	0xbb5c4181	-0.003360838
229	0x3def4565	0.11683158
230	0xbe4a2692	-0.19741276
231	0xbeafe98c	-0.3435787
232	0x3e3f2adc	0.18668693
233	0x3dcbc598	0.099497974
234	0xbe916b47	-0.2840216
235	0x3c4ff110	0.012691751
236	0x3e5c511c	0.21515316
237	0xbe15060f	-0.14553092
238	0x3e06d992	0.13168934
239	0xbe01eb48	-0.12687409
240	0xbdc06bd9	-0.0939557
241	0x3e8834b7	0.26602718
242	0x3e40379a	0.1877121
243	0xbe24ece8	-0.16105998
244	0x3e499444	0.19685465
245	0x3b1588d2	0.0022817147
246	0x3d3cbd90	0.04607922
247	0xbe8e911e	-0.2784509
248	0x3e9c2bf5	0.30502287
249	0x3d0c43fa	0.034244515
250	0x3d881726	0.0664504
251	0x3e2314ba	0.15925875
252	0xbe6f06dd	-0.23342462
253	0xbcebec44	-0.028799184
254	0x3dcdfccb	0.10057982
255	0xbe6f6593	-0.23378591

fc1.bias f4 [30]
0	0xbe82a2c0	-0.25514793
1	0x3e53d804	0.20687872
2	0xbe2dee84	-0.16985518
3	0x3e89303b	0.2679461
4	0xbe509a26	-0.20371303
5	0xbd0bcae1	-0.034129027
6	0xbc7036ca	-0.0146615
7	0xbe6a5dbb	-0.22887318
8	0xbea6df75	-0.3259236
9	0xbe850382	-0.2597924
10	0x3e4bd077	0.19903742
11	0xbe34da19	-0.17661323
12	0xbe3434e0	-0.17598295
13	0xbeb9e6c1	-0.36308864
14	0xbe48ee11	-0.19622065
15	0x3e33dbe8	0.17564356
16	0xbd08e62f	-0.033422645
17	0xbbd60637	-0.0065315026
18	0x3d0e0cb0	0.03468007
19	0xbe8b71fc	-0.272354
20	0x3e4289eb	0.18997924
21	0xbc52c68c	-0.01286472
22	0xbe18a594	-0.14906913
23	0xbad363cc	-0.0016127764
24	0xbe1ad956	-0.1512197
25	0x3ec6e87d	0.3884925
26	0x3e8f0958	0.27936816
27	0xbe99534a	-0.29946357
28	0xbe632f65	-0.22186048
29	0x3e4954d0	0.1966126
