JEDInet/model_1/IN_kFold_150/IN_sumO_bestmodel_FinalTraining.params (torch, 194671 bytes, 18 tensors)

fr1.weight f4 [150, 32]
00000000: bbe0 be3b 3a82 b03d 16fd 58bc 6542 833c
00000010: 143d 99bc b7ed 9a3d 2ba3 e73b c8d7 e3bd
00000020: 1b11 313d 89ee 3abe 4b67 41be c2d3 9ebd
00000030: b574 e43f 5698 c9bd 34a3 bf3d 4d1f 61bc
00000040: cbc9 5bbd 260e 8e3d a2c7 56bd 136d aa3d
00000050: 9a0d 0fbd e612 01be 94f2 a13d 0c6f 1bbe
00000060: 136e e1bd 1430 88bc effb edbb 8b34 11bd
00000070: 374c e0be cf7b 47bf dbaa 193e 792a 4bbe
00000080: 14a6 723a ea0d 28bd 9530 2abd 5bb5 9b3c
00000090: 5d4c 4dbe e884 f53b d179 313e 4c8d 37bd
000000a0: a5ec 9bbc 3a27 273e a507 d63d 302c 123e
000000b0: 1f9d 9d3f 9d12 9d3f 47ed b83c d4ea fe3d
000000c0: 17f5 923d fcf1 903c 5599 e0bc dff2 c43d
000000d0: 461a fe3b 17f1 b63d eb63 af3c 6ca9 3cbd
000000e0: ae8e b03d e9fe adbd b3cc 21be a44c b93d
000000f0: 8a02 ecbe 20a3 e0bd 65b9 723d 7bb3 64be
00000100: 7951 2cbb 8a9f 0e3d 08b4 ed3d f228 d1bd
00000110: f57e 133d 1544 133d a9e9 bebd 8907 ed3c
00000120: c23d 0a3f 413a 95be 183a 533d 2c64 983d
00000130: e72d d9be b0de 683f 20cc d13d 8bfe 8ebe
00000140: 4e7d 7d3c 2d4b ecbd 4508 69bc 8aff b33d
00000150: 7600 39bd ba37 26be a3b7 d3bc a8d6 0ebe
00000160: 0242 0bbe 29b8 c7bc a13f b8bd 2fe8 17bd
00000170: e149 b8bd a35a c13e 5a5d b03d 0b38 56bd
00000180: c701 a63d 507a e63c 2ede 92bd f97b 0c3e
00000190: 9632 02be f767 62bd 8577 e93d 19a6 1fbe
000001a0: 27aa 89bd f383 0a3e 6c5d 9b3d 901a a4bd
000001b0: d1d9 9a3f b415 ca3f 76e3 353e 9176 f7bb
000001c0: 7fed 873c 1a25 0fbe 1489 b73d 45b7 503d
000001d0: cdc7 a23b 69dc 08be 8d0f 8f3d 0983 b53d
000001e0: 0246 cf3d fe60 73be b452 aa3d 812f 003e
000001f0: 6d4d 45be 0333 7f3d b36a 5bbd 2bb6 b1be
00000200: 5b03 c53c 3afb a4bc 605e 163e 3b24 f1bd
00000210: 45f0 abbc 124c 0fbd a85e 9dbe da2e 063d
00000220: 2a2a e43d 9b76 4cbd 61b3 683c e6b6 f53b
00000230: 5fcb 11bf 69e7 e5be 19ca ca3d 0453 8f3d
00000240: 3a30 113e b861 85bd 11da e93c 5298 37bd
00000250: ec60 1abe 27b5 203e aa47 75be 37f9 fcbc
00000260: eaf6 283d 4837 333e f2e6 b7bd dc36 0cbe
00000270: ebf2 3dbc aa3e 0bbf 43f0 3a3d 3724 553e
00000280: a36a e0bb 5458 043d 6bb0 423d bbd2 9e3d
00000290: 6a43 463d a9f4 a13c 40d3 a2bc 0444 103c
000002a0: 4c2c ec3d 43a5 a7bd 7645 c3bd ae12 92bc
000002b0: c49b 11bf 5431 be3f 6860 7dbd 8544 e8bd
000002c0: 05ef 493d 429b 6cbc eec9 51bd a77f 1bbe
000002d0: 0f3e 0dbe 93c7 09bd 2691 9f3c 4385 4ebe
000002e0: 0502 cc3c d7fc 06bd 6c2b de3d e8c2 7d3e
000002f0: c552 683f 938d b03e f560 2f3d 5f64 a63d
00000300: bfd7 08be 21ab 88bd 0991 e4bd d9df 7dbd
00000310: ddf6 b9bd 28eb 0dbe 3bc4 ca3c 5ee8 46be
00000320: 3aa2 98be 8ed1 57bd 531d 263d 3b49 803c
00000330: 0423 9e3e 73d7 233f ed1e 1bbe 1391 a3bd
00000340: b18d 8cbd 2ac0 cdbc eb03 a9bd 8349 1ebe
00000350: 3d93 8cbc a052 a0bd 67bc 6bbe 9408 413e
00000360: e004 66be 8316 8ebe 51b1 88bd 4fb1 42bd
00000370: 3846 3a3d 81bb 17bd 6a36 9c3c 02f1 b7be
00000380: f5b2 283e fcfd c93d 5def 89bb ebdb 28be
00000390: 3410 6abe 5b70 fdbd cbfb 48bd 1a87 8fbd
000003a0: 9d57 953d c559 c3bd b1f9 08be 20d0 6fbe
000003b0: dbea 2e3f 4694 973e 7819 3bbe 6325 2bbe
000003c0: 2951 86bd 449c 123c e89e 263e 29fd 733b
000003d0: f006 093d 988b 8ebd 7086 083e 8454 143e
000003e0: 3e8b 9fbe f442 00bd 9dd8 c3bc f647 bdbd
000003f0: 5c2a 0abe 1610 ccbe 9b05 bd3d 0670 62bc
0.00582513 0.08618589 -0.013243934 0.01602287 -0.018705882 0.07564872 0.0070690117 -0.111251414
0.043229204 -0.18255056 -0.1888706 -0.07755233 1.7848116 -0.09843509 0.093573004 -0.013740373
-0.05365924 0.06936292 -0.05243648 0.083215855 -0.03492508 -0.12604865 0.07907596 -0.1517908
-0.11007323 -0.016624488 -0.007262699 -0.0354505 -0.43808147 -0.7792329 0.15006582 -0.19840421
0.0009256315 -0.041028894 -0.041550238 0.019007375 -0.20048662 0.0074926503 0.17331626 -0.044812486
-0.01903374 0.16323557 0.10450677 0.14274669 1.2313575 1.2271305 0.02257408 0.12447134
0.071756534 0.017693512 -0.027416864 0.096166365 0.007754597 0.08932703 0.02140995 -0.04606001
0.08620964 -0.08495886 -0.15800743 0.09047821 -0.46095687 -0.109686136 0.059258837 -0.22334091
-0.0026293679 0.034820117 0.11606604 -0.10212888 0.036009748 0.0359536 -0.09321911 0.028934257
0.54000485 -0.29146007 0.051569074 0.07440981 -0.42417833 0.90964794 0.10244012 -0.27928576
0.0154717695 -0.11537776 -0.014223163 0.087889746 -0.045166455 -0.16232195 -0.0258444 -0.13949072
-0.13599399 -0.024379807 -0.08996511 -0.037086662 -0.08998466 0.37764463 0.086115554 -0.05229954
0.08105808 0.028134495 -0.07171284 0.13719167 -0.1271461 -0.05527493 0.1139975 -0.15590705
-0.06721907 0.13526897 0.07586178 -0.08012879 1.2097722 1.5787873 0.1776255 -0.007551976
0.01659274 -0.13978997 0.089616925 0.05095603 0.0049676658 -0.1336533 0.06985388 0.088628836
0.10120775 -0.23767468 0.083165556 0.12518121 -0.19267817 0.062304508 -0.053568553 -0.34709296
0.024049452 -0.020139325 0.14684439 -0.117744885 -0.020988593 -0.034984656 -0.3073628 0.032759525
0.11140855 -0.0499178 0.0142029235 0.00749861 -0.56950945 -0.44903114 0.09901828 0.06998256
0.14178553 -0.06512779 0.028546365 -0.044823 -0.15076035 0.15694104 -0.23953119 -0.030880554
0.0412511 0.17501557 -0.08979596 -0.13692802 -0.011593561 -0.5439249 0.045639288 0.20814596
-0.0068486496 0.0323108 0.047531527 0.077550374 0.048404135 0.019769983 -0.019876122 0.008805279
0.115318865 -0.08185818 -0.09534733 -0.017831173 -0.56878304 1.4858804 -0.06185952 -0.11341194
0.049300212 -0.014441313 -0.051217966 -0.15185414 -0.13793205 -0.033637594 0.019478392 -0.20168023
0.024903307 -0.03295597 0.10848126 0.24781382 0.90751296 0.34483013 0.042817075 0.08124613
-0.1336355 -0.06673265 -0.11160476 -0.061981056 -0.090802886 -0.13859236 0.024751773 -0.19424579
-0.2981127 -0.05269008 0.04055531 0.015659919 0.3088609 0.64000624 -0.15148516 -0.07986655
-0.06862963 -0.025116045 -0.082527004 -0.1545773 -0.017160052 -0.078282595 -0.23021089 0.18850929
-0.22462797 -0.2775155 -0.066744454 -0.047532376 0.045477122 -0.037044052 0.019068915 -0.35926062
0.16474517 0.09862897 -0.0042094425 -0.16490142 -0.22857744 -0.12374946 -0.049068253 -0.070081905
0.072921015 -0.095386066 -0.133765 -0.23419237 0.6832711 0.2960531 -0.18271434 -0.1671348
-0.06558449 0.008948389 0.16271555 0.0037229753 0.03345388 -0.06960219 0.13332534 0.14485365
-0.3116092 -0.03131385 -0.023907 -0.09242241 -0.13492721 -0.39856023 0.09229585 -0.013820654

fr1.bias f4 [150]
00000000: 4b86 09be c870 703d 9efb f6bd c4e2 1a3d
00000010: 3ccf f9bd ecb6 57be b169 2cbe d16b 743d
00000020: 0978 68be f67c 78be 1b79 813b d150 f7bd
00000030: a62b eabd 3ba0 503d a55e 603e 251a 093e
00000040: 9a5c aebb b879 4dbd 8be4 ecbd 2cfc 24be
00000050: 8dde 273d cdb9 febd a875 bc3d ec45 d7bd
00000060: 3947 79be fb3c 1e3e 62c0 36be ce50 58bd
00000070: 87dd 833e 94f4 5cbe 0809 e739 abcf eebd
00000080: 1c01 0ebc addb 59be c95c a33a 8d07 5dbd
00000090: b623 3abe 72e6 b63d 133c 44be 3dd0 273e
000000a0: 895a 75be 3d1b e0bd 65c2 2f3e 62f9 9b3d
000000b0: 2d6e c9bc cc79 fb39 86bd a8bd 6b70 90bd
000000c0: 941b ab3a 5fd3 5e3e 575b 6e3d 8b9d e63d
000000d0: 707e 093e a079 8d3d 0c72 e4bd 1760 963d
000000e0: af6a fa3a 89a7 edbc cca6 433e ebcd ca3d
000000f0: 6610 513e a652 f63d f1c5 f83d 159f 493e
00000100: e830 f23c 5d71 013e b448 2a3e d18e d03d
00000110: cc07 c03d f6b1 86bc d41f 103e e157 d43a
00000120: 91b9 ff3d aa67 ccbd ad0b afbc f81b 9d3d
00000130: 59b2 e2bd 7b51 203d 6896 de3d 4376 3d3e
00000140: 2fe1 233e e6b0 a7bd b25e 4e3d fe09 0e3e
00000150: 3ccb 3ebd e1ba 30be 8c0b c0bd e40e 49be
00000160: 4ae3 b43b c8cc ef39 4668 173e f4ed c839
00000170: a7ff 99bc 98bc ea3d 8e1a eebd c8a1 e5bd
00000180: 8740 ecbd b3e3 cf3c f6cb b63d e175 76be
00000190: f014 45be 261f 51be ea59 5cbd 2099 2abe
000001a0: 7324 2ebe 8ab2 2cbe 2afa 1b3b 1f34 f7bd
000001b0: 6422 cc39 6117 c53d ff95 6c3d e0f2 d53c
000001c0: b2f1 0e3d 81f8 993d 6633 ddbd 9374 0d3e
000001d0: 446a 53be 264b 2c3c c072 3d3a b55a 3abe
000001e0: 8eb9 663c eded 58bb e3ae 3bbe 01df 55be
000001f0: 583e 62be 0b70 cbbd 17d4 12be 527d 853d
00000200: 1a0e d33c dd58 913d 6320 31be 49f5 943c
00000210: 8586 3e3e cef6 0d3d 4ef5 0a3e 874c 83be
00000220: fcde c2bd 24d1 d0bd 5982 5dbe b56b 04be
00000230: 9f55 f3bd abdc 40bd 338f 763c 9145 58be
00000240: 206a f4bb 36d1 ef3d 9914 2c3d a000 79be
00000250: 1543 1f3e 916a 51be
-0.13430135 0.058701307 -0.12059711 0.037813917 -0.1219773 -0.21065873 -0.16837193 0.059673134
-0.2270204 -0.24266419 0.0039512045 -0.120759614 -0.114341065 0.050934058 0.21911104 0.1338888
-0.0053210976 -0.05016491 -0.115670286 -0.16111821 0.040983725 -0.124377824 0.09202129 -0.105113834
-0.24343576 0.1545295 -0.17846826 -0.052811436 0.2575495 -0.21577674 0.00044066482 -0.11660703
-0.008667257 -0.21275206 0.0012463565 -0.05396228 -0.18177685 0.08930673 -0.19163541 0.1638803
-0.23960318 -0.10942695 0.17164 0.07615925 -0.024588669 0.00047965196 -0.08239274 -0.07052692
0.0013054484 0.21760319 0.058192577 0.11260518 0.13427138 0.06907964 -0.11154565 0.073425464
0.001910528 -0.029010551 0.19106597 0.09902557 0.20416412 0.12027483 0.12147129 0.19689591
0.029564336 0.12640901 0.16629297 0.1018349 0.09376487 -0.01644228 0.14074641 0.0016200506
0.12486566 -0.0998071 -0.021367872 0.0767135 -0.11069173 0.039140206 0.108685315 0.18502145
0.1600387 -0.081880376 0.050383277 0.13870999 -0.04658054 -0.17258789 -0.093772024 -0.19634587
0.005520259 0.00045738206 0.14785871 0.00038324262 -0.018798662 0.11461753 -0.11626159 -0.11212498
-0.11535745 0.02537713 0.08925621 -0.24068405 -0.19246268 -0.20422038 -0.053796686 -0.16659975
-0.17006092 -0.16864982 0.0023800232 -0.12070488 0.00038935535 0.096236 0.057760235 0.026116788
0.034898467 0.075181015 -0.10800819 0.13814001 -0.20646006 0.010515964 0.0007226877 -0.18198664
0.014082326 -0.00331008 -0.18328433 -0.2088585 -0.22094095 -0.0993348 -0.14338718 0.065180436
0.02576356 0.070970275 -0.17297511 0.018183367 0.18606003 0.0346592 0.13570139 -0.25644323
-0.09515187 -0.101961404 -0.21631755 -0.12931712 -0.11881565 -0.047085445 0.01504879 -0.21120287
-0.00745894 0.11709826 0.04201183 -0.24316645 0.15552934 -0.20450808

fr2.weight f4 [75, 150]
00000000: 3630 06be eb42 4cbd 8258 5bbd f89a 96bc
00000010: ea1b 483c b6d6 0dbd 8484 e7bb 85cb 05bd
00000020: 27b7 b7bd 7d96 afbd a816 393d f402 10bd
00000030: d289 70bd 92e7 af3d 5ec8 02bd 21a8 2f3d
00000040: d7db 0bbd aeec d5bd c423 88bd 1759 91bd
00000050: 142d 7ebd 7d17 3b3d a122 c2bd 6e16 593d
00000060: 95f8 c6bc f715 563d ab76 f0bc 63ec 3ebd
00000070: 0033 333b ebff 59bd 3ca5 87bd 5246 49bd
00000080: 7d8c 7f3d b586 19bd f448 bf3c d8e2 a4bd
00000090: 7c47 f8bc de5f 1d3d 5c98 78bd 6dea f239
000000a0: 6d4f 87bd 1746 183d 8053 90bc 77a4 efbc
000000b0: 82f4 933d a67b a9bd 04a0 b9bd 1665 053d
000000c0: 7843 d63c 76a8 8fba 8d05 d43d 0599 cb3c
000000d0: 231e 06bd b8c4 b9bd 783b 4d3d a4a9 703d
000000e0: b114 f23c b1ca 26bd 258f 16bd fdba 00bd
000000f0: ddfb 853c e081 fbbd 32e5 8b3d 6a5c db3d
00000100: 7061 03bd ae51 a8bc c228 7a3d ab77 cd3c
00000110: fa9e c6bd de17 9dbd 5aa3 45bc 976b 5c3d
00000120: 3178 963d 2578 e6bd 6e79 193d c161 babc
00000130: 4736 103c e688 6d3d daec c0bc 5baa 413d
00000140: d3c1 953d 7012 91bd 8998 9ebd 72d8 22bc
00000150: f877 153d 514b c3bd 8ca1 b4bb 2a46 8d3c
00000160: 80cc 9b3c 61c5 bcbd febc 42bd b0eb 10bd
00000170: c8ab 19bd f942 593d 6350 8a3d f411 993c
00000180: f792 60bd 160a 923c 7f07 6e3c 5941 83bc
00000190: b301 b3bd 6279 df3c 0f35 e8bd 4c75 9abd
000001a0: 41b9 2bbd 6ea5 d03c e561 833d a3fa 6e3c
000001b0: a2e4 343d 69a2 df3c 2307 3b3c 1280 f3b7
000001c0: 677f 0abd e3cb 3cbd 5191 a8bd 5990 97bc
000001d0: 40eb a3bd 13f2 a3bc d660 e8bd 543d 1bbc
000001e0: b462 4dbb f541 7b3d 4011 6abd 026d 253c
000001f0: 3060 98bd 1069 83bd 61f7 083c 30c7 29bd
00000200: 4ee6 423d f3eb a13d 3bdf da3c a170 883c
00000210: 6d59 23bd f211 30bd 13f8 5fbd 1318 94bd
00000220: d0af 3d3d c363 a4bd 8970 97bd 9dd6 ffbd
00000230: 5750 20be 9f85 21bc 55c7 85bc cbe2 b0bc
00000240: e3ad 61bd 8b01 673d 7828 15bd c300 a9bd
00000250: d3c1 2dbe 6f45 41ba 7585 973d 2708 193d
00000260: 7de5 5dbd 6afe 993d 4eeb 933c 9703 30bd
00000270: 0cd3 86bc c1a2 003d 98f7 d43c 9788 f03c
00000280: aac6 b43a 26f4 a63c 4471 51bd e6d3 ab3c
00000290: a1e6 a43c 4c34 943d dc60 a8bd 422b 31bd
000002a0: d456 103d 6da4 993d b654 92bd b4ea e6bb
000002b0: ce76 923d f069 0c3d 99e9 59bc 106a 6fbd
000002c0: 2edd 893d 6e45 463c 6fb7 12bd fbfe 713d
000002d0: 8ca0 cbbd fc70 1abc 1777 0bbd 8ec2 523d
000002e0: 57cf c23d c12e 21bd 7702 3d3d 93d6 a6bd
000002f0: 22cd 39bd 89d1 c23c 3f73 4c3d 49e3 60bd
00000300: 5112 033d 88e8 81bd c6cc 833c 1a1c 5cbd
00000310: 9c96 333d 6bb6 c6bd 752b 05bd d42a 213c
00000320: f7e4 a0bd 6d5b 00bd 8417 3fbc 6a9f 4f3d
00000330: de31 683d a544 933c 45a5 0abc 6b2b b2bc
00000340: 1bdd 2cbd c49a b83c 45e1 b1bb 7d8c c13d
00000350: 4be7 dbbc 6da2 e93b 24b4 7bbd 103f b03c
00000360: e7fb 82bd 0aaa 8bbd 48d7 57bd d96e 95bc
00000370: 41fb b13d 118d 38ba d071 9f3d e870 f03c
00000380: 952b 44bd b831 153d 0a19 a4bd c906 b3bc
00000390: c079 8dbd d210 923d d76f 9cbd 36cf 45bd
000003a0: e8c6 6bbc e0f4 3c3d d372 0abc d116 30bd
000003b0: 2bcf c7bd 3450 9abc 8b77 6dbc 4f3f 493c
000003c0: 7bfd e0bc bdb1 2abd e5a6 2fbd 88b0 343d
000003d0: a00f 02bd cf10 6a3d 73d8 e5bc 49b8 873c
000003e0: 8f8b c93b e094 053d be24 0b3d 54d9 2fbd
000003f0: 71cf f73c dafc e63a 5734 973d 3717 ae3d
-0.13104329 -0.049868505 -0.053551205 -0.018384442 0.0122136865 -0.034628592 -0.0070653576 -0.032664794
-0.089704804 -0.08573625 0.045187622 -0.035159066 -0.058725186 0.085890904 -0.031929366 0.04288495
-0.034145202 -0.10445534 -0.06647447 -0.07097071 -0.06205471 0.045676697 -0.09479261 0.052999906
-0.024288455 0.05226704 -0.02935346 -0.046612155 0.002734363 -0.053222578 -0.06623313 -0.04913933
0.06238984 -0.037481982 0.023350216 -0.080510795 -0.030307524 0.038421504 -0.060692176 0.00046332498
-0.06606946 0.037176218 -0.01761794 -0.029253228 0.072243705 -0.08275537 -0.09063724 0.032567106
0.026155218 -0.001096024 0.10352621 0.024853239 -0.032743584 -0.09070724 0.050105542 0.058755532
0.029550882 -0.040720645 -0.036757607 -0.031428326 0.01635545 -0.12280631 0.06830825 0.10710986
-0.032075346 -0.02054676 0.061074026 0.025081476 -0.09698291 -0.07670568 -0.012062872 0.053813543
0.073471434 -0.112533845 0.03746932 -0.02275169 0.008802003 0.057991885 -0.02355044 0.047281604
0.0731236 -0.07083595 -0.077439375 -0.0099393 0.036491364 -0.0953585 -0.005512422 0.01724537
0.019018412 -0.092173345 -0.04754352 -0.03538102 -0.03751734 0.053042386 0.06753614 0.018685319
-0.054827657 0.017827075 0.014528154 -0.016022371 -0.087405585 0.02727956 -0.11338245 -0.07541904
-0.04192472 0.025469508 0.06415156 0.014586124 0.044163354 0.027299123 0.011415276 -2.9027495e-05
-0.033812907 -0.04609288 -0.08230842 -0.018501448 -0.08003855 -0.02001289 -0.11346595 -0.009475071
-0.003133935 0.0613422 -0.057145357 0.01009679 -0.07440221 -0.064165235 0.008359761 -0.041449726
0.047582917 0.07906332 0.026717773 0.016655268 -0.039880205 -0.042985864 -0.05467994 -0.07231154
0.046310246 -0.080268405 -0.07394511 -0.12492106 -0.15655647 -0.009858518 -0.0163304 -0.021592518
-0.055097472 0.056397956 -0.036415547 -0.082520984 -0.1696847 -0.0007372712 0.07398502 0.03736129
-0.054173935 0.07519229 0.018056538 -0.042972174 -0.016458057 0.031405214 0.025996968 0.029362006
0.0013792117 0.02038009 -0.05113341 0.020975064 0.020129504 0.07236537 -0.082215995 -0.043254144
0.035239056 0.07502065 -0.071450636 -0.0070470218 0.071515664 0.034280717 -0.013300323 -0.05845076
0.0673164 0.012101514 -0.035819467 0.05908106 -0.09942731 -0.009426352 -0.03404912 0.051455073
0.09512203 -0.03935123 0.04614493 -0.081463955 -0.045361646 0.023781555 0.049914595 -0.054904256
0.03199989 -0.0634318 0.016088855 -0.053737737 0.043844804 -0.09702762 -0.032512147 0.009836871
-0.078561716 -0.03133719 -0.011663321 0.05068914 0.056688182 0.017977068 -0.008462255 -0.021749219
-0.04220305 0.022534736 -0.0054284655 0.09450624 -0.026843688 0.0071299584 -0.061451092 0.021514446
-0.06395703 -0.06819542 -0.052695543 -0.018241333 0.08690501 -0.00070400635 0.0778538 0.029350713
-0.047893126 0.03642437 -0.08012588 -0.021853821 -0.069079876 0.071321145 -0.07638519 -0.048293315
-0.014390685 0.04613197 -0.008450228 -0.04299051 -0.09756311 -0.018837072 -0.014493833 0.01228316
-0.027464619 -0.04167341 -0.042883772 0.044113666 -0.031753182 0.057144936 -0.028057313 0.016567366
0.00615067 0.03261268 0.033970587 -0.04293187 0.030250283 0.0017622963 0.0738303 0.08500522

fr2.bias f4 [75]
00000000: 79ed 033e 75b4 873c 9657 dbbd 1589 b6bc
00000010: 4e5a 2e3d bd5d b3bd b11f 843d 3543 a13d
00000020: e4ca f8bd ca9c 7cbd dc64 a33d bf2a c93d
00000030: c14e 373d 639b eebb 8469 053b 9d14 273c
00000040: 7033 353b 732a a03d 6c4c 47bd 2f73 47bc
00000050: a7a6 ab3d 3f9d bd3c 08ed 853b f891 b7bc
00000060: 55c8 f0bb 065c e63b 0f74 c8bd fd0a a13d
00000070: ada3 913c 4c6c c9bd 39e2 21bb 64db 83bd
00000080: 08a8 ea3c eab4 1abe f2ba 42bd 52b8 e73d
00000090: 2d07 8e3d 1c92 89bd 05be 883a a277 17bd
000000a0: 03a6 b23d ce20 5bbd a5b2 083e b304 efbd
000000b0: 1a0b c4bd f306 7ebd b01e 9c3b 2996 c2bd
000000c0: 9537 61bb 7222 043d 04e9 f43d 31e1 bbbd
000000d0: dc77 0c3d 6036 2c3d 11bd 36be 87e0 8a3c
000000e0: dd3e bfbc 606c c9bd d27d 5dbd dbe7 cfbc
000000f0: 73d0 c2bc 3bda b4bd c892 93bd d226 8a3c
00000100: e702 58bd 3c2b 71bd 62bc 253d ce8d b23d
00000110: f0db a33c ee07 fd3d 5390 59bd 2c24 353d
00000120: c7a0 ab3b 9a7d fbbd e65a e8bd
0.12883557 0.01656554 -0.10710065 -0.022282163 0.04256659 -0.087581135 0.06451357 0.07874147
-0.12148073 -0.061672963 0.07978222 0.09822606 0.04475284 -0.007281707 0.0020357082 0.010197786
0.0027649067 0.078205965 -0.048656866 -0.012173458 0.08381396 0.02314627 0.004087094 -0.02240847
-0.0073481 0.007030013 -0.097877614 0.07863424 0.017778242 -0.09835109 -0.002470149 -0.0643833
0.028644577 -0.15108076 -0.047541566 0.11314453 0.069349624 -0.06717321 0.0010432607 -0.036979325
0.087230705 -0.053498082 0.13349397 -0.11670818 -0.0957243 -0.062018346 0.0047644004 -0.09501297
-0.0034365405 0.032259412 0.11958507 -0.09173811 0.034293994 0.042044044 -0.1784556 0.016952766
-0.023345405 -0.09835124 -0.05407507 -0.025379112 -0.023781037 -0.08830687 -0.07205731 0.016864214
-0.052737143 -0.058879122 0.04046286 0.08718453 0.020002335 0.12355028 -0.053116154 0.04422395
0.005237672 -0.12279816 -0.113454625

fr3.weight f4 [14, 75]
00000000: 6870 5a3d 8a1d 683d b7e1 013c bdc2 4c3c
00000010: 79e8 963d 10c5 a53d 563d 8cbc 7b68 3cbe
00000020: 1af9 a13d 23a4 053b 2c81 52bd 2c9a f0bd
00000030: fe83 913c 8157 a23d 2d85 a7bd 7b90 123e
00000040: 52f9 57bc e90c fcbd 7ebd 4abc 63f9 e4bb
00000050: 1e16 34bd c095 853c e4a9 ff3d f1cd 8e3c
00000060: a3a6 85bd dacf ebbd d545 b63d 814a 4cbd
00000070: 399d f43c fcc1 86bc 36d5 d6bc b85b 1b3c
00000080: 934b 4dbd 3c14 45bd 60ff 81bd 1f2a 81bd
00000090: e5ab d2bd 4bb8 813d bb1a af3b 8322 a03d
000000a0: fa78 84bd 3032 833c c241 81bd 096c 42bd
000000b0: b266 853d c7bc 2c3c 497b fcbc 117b ee3c
000000c0: 0b6d 2fbd acdc 3abd a878 c1bd 4286 74bd
000000d0: 3f53 babd fe45 4bbd 419a 223c 6622 1ebc
000000e0: 1af6 393d 6809 5f3c 06f1 953d b7be 303c
000000f0: c5a7 023d fcac babc 65c1 8dbb b31b d63d
00000100: 441e c6bd 5c3b c0bd 9c48 8c3d 0b4e 8abb
00000110: 0c30 7c3d 24ce a0bd 79db 903d 2ea2 5d3d
00000120: b9d7 313d 8d7f e13c 7ed8 d1bc 88e9 cf3d
00000130: 516e cabd d486 ffbd ea75 9f3d 2258 563d
00000140: 50ac 1b3d ff89 333d b0fb 1a3c 689c 03be
00000150: d4a1 213d 0b8d a23c d008 8a3c 767b b6bc
00000160: 9112 4f3d d84a af3d d087 4d3d bb39 ecbd
00000170: abfa 6ebc d3dc 99bd 86d9 99bd 6adf 8b3d
00000180: 57f6 953a 7d5f 34ba 2057 febb 9286 c4bd
00000190: 0eea 6f3d f988 0d3d 692e 52bd 6db1 85bd
000001a0: b57e 1f3d ad44 fcbd 61a2 6abd fb72 47bd
000001b0: dd44 e3bc 832d bc3b 41ba 8a3b ec15 a13d
000001c0: 9c6f 9bbd 72c9 18bd 4343 b6bd efb0 28bc
000001d0: 5e3e f5bc f1cb 8b3d 3a27 15be 1926 35bd
000001e0: 882a 0bbc f793 7a3d d789 1bbd b1ad 103d
000001f0: e75f 1d3d 8a6f 113d 40d5 b0bd d2b3 bbbd
00000200: 924a 50be c9ea 95bd 0879 90bc 996b a1bd
00000210: 4d1f acbd 457f ea39 6257 bb39 2c81 993d
00000220: c454 9bbb 8c51 823d 956b 3ebd 7287 d6bd
00000230: 29c7 e13a 9b9b 073e 9471 b1bb 069c ac3d
00000240: 6377 31bd e182 a53d 4d91 43bd c956 983c
00000250: 5001 64bd cd62 25bc 2249 8dbd 500f f03c
00000260: 47c1 2bbd 6030 963d f160 80bc 2741 233d
00000270: 9580 1dbd 196c 17be 8224 c83d eee5 b33c
00000280: e1a6 91bc 8b15 553b 3637 32bc 3574 7b3c
00000290: da63 bebd ed7f a6bc 96cd c53d 3095 3b3d
000002a0: 1163 c93c 4904 c5bc 7d07 5a3d c951 043b
000002b0: a83a 883d 814c 27bc 59f6 203c 4d29 9b3d
000002c0: dce6 f03d ed50 96ba 00b7 80bc 2263 223c
000002d0: 98bb 3b3d b79c 033d a960 85ba f436 b13c
000002e0: 11cd 9c3d 6822 c63c 3f2f 30bc 2cda b1bc
000002f0: 891d 5a3d ca31 493d 2e37 48bd 8d89 013d
00000300: a555 2abe c913 683d d3aa 823d f176 003d
00000310: 51f4 433e caa7 023d d779 dcbc 9fd0 8e3a
00000320: cf2b b5bd ef9b a23d 6859 94bc 9c38 91b9
00000330: 611a 103d d0fc fcbb 47c2 673d 28e6 a4bc
00000340: 3fa3 7e3d 65db e43c 7c3d 163d 89ac 60bd
00000350: 5e89 1f3d 16b4 9dbc 06c4 04bc d0e8 4d3e
00000360: 7870 46bd 7ced fbbc c5a7 cabc 6922 c33c
00000370: 66c9 dc3d d929 ff3d 1e43 6d3d 42b8 023d
00000380: 9c92 a73c fb72 213c 2d1e 84bc 1868 81bc
00000390: b8e6 593c ab7d 17be ad6f c33d bc70 9dbd
000003a0: 1cfb cd3c 57a6 eb3c ca15 89bd 24bf 4dbc
000003b0: 7a54 d33d 4804 c23b 9956 aebd 585a f0bd
000003c0: 642b 15be d05d ddbd 5559 b8bc 325b 0e3d
000003d0: 056b 76bd 8297 ba3c 8a9a 723b f0c2 33be
000003e0: e5c9 53bb 8f05 0ebd 1a9d 03bb 77c4 cebc
000003f0: c270 fd3d b66e 78bd 0b3d e53c 7029 e53d
0.053329855 0.056668796 0.00792735 0.012497601 0.073685594 0.08094227 -0.017119091 -0.18399231
0.079088405 0.0020392023 -0.05139272 -0.11748156 0.017763134 0.07926846 -0.08179698 0.14312927
-0.013182001 -0.1230715 -0.01237428 -0.006987737 -0.043966405 0.016306758 0.12483576 0.017432185
-0.06525924 -0.11514254 0.08900038 -0.04987574 0.029860126 -0.01644992 -0.026224714 0.009482317
-0.0501209 -0.048115 -0.06347537 -0.06306862 -0.102866925 0.06333979 0.0053437627 0.078190826
-0.06468387 0.016015142 -0.063113704 -0.04746631 0.06513728 0.010543055 -0.030820506 0.029111417
-0.0428286 -0.045620605 -0.094468415 -0.05969835 -0.09097909 -0.049627297 0.009924472 -0.009651756
0.045400716 0.0136130825 0.07321362 0.010787657 0.03189828 -0.022787564 -0.004326033 0.10454502
-0.096737415 -0.09386322 0.06849787 -0.004220729 0.06156926 -0.07851818 0.07073111 0.054109745
0.04341862 0.027526641 -0.025615927 0.101519644 -0.098843224 -0.12476888 0.07786162 0.052330144
0.038006127 0.043832775 0.009459421 -0.12852633 0.039460972 0.019842645 0.016849905 -0.022275668
0.050554816 0.08559197 0.05017835 -0.11534449 -0.014586131 -0.07512822 -0.075121924 0.06829722
0.0011441213 -0.0006880684 -0.007761851 -0.0959598 0.05857282 0.034554455 -0.05131379 -0.06527982
0.038939197 -0.12317786 -0.057283763 -0.04869364 -0.027742798 0.00574273 0.004233629 0.078655094
-0.07589647 -0.03730149 -0.08899548 -0.0102960905 -0.029936966 0.06826008 -0.14565745 -0.044225786
-0.008494027 0.061176267 -0.03797325 0.035321895 0.038421538 0.035506763 -0.08634424 -0.091651574
-0.20340946 -0.07320172 -0.017635837 -0.07881851 -0.08404408 0.0004472678 0.00035732525 0.07495341
-0.0047403295 0.0636321 -0.046489317 -0.10475053 0.0017225492 0.13242953 -0.005415151 0.084281966
-0.043326747 0.08081604 -0.04774599 0.01859607 -0.055665314 -0.010094357 -0.068987146 0.029304177
-0.04193237 0.073334455 -0.015671225 0.039857056 -0.038452704 -0.1478733 0.09772588 0.021960225
-0.01777977 0.0032514061 -0.010877421 0.01534753 -0.09296389 -0.020324672 0.09658353 0.045796573
0.024583371 -0.024049895 0.053229798 0.002019035 0.06651813 -0.010211111 0.009824359 0.07576237
0.11762783 -0.001146821 -0.015712261 0.00991133 0.0458332 0.032131877 -0.0010175902 0.021632649
0.07656301 0.024186328 -0.010753452 -0.021710478 0.053250823 0.04911975 -0.04888075 0.03162532
-0.16634233 0.056659494 0.063802384 0.03136343 0.19136168 0.031898297 -0.026913567 0.0010895914
-0.088462465 0.07939898 -0.018109038 -0.00027698732 0.035181407 -0.0077205673 0.05658176 -0.020129278
0.062167402 0.027936647 0.03667973 -0.054852042 0.038949363 -0.01925091 -0.008103376 0.20108342
-0.048447102 -0.03075289 -0.024738202 0.023820119 0.10780601 0.12459154 0.057925336 0.031914003
0.020455651 0.009854074 -0.01612767 -0.015796706 0.013299637 -0.14794032 0.09542785 -0.07687518
0.025144152 0.02876584 -0.06693609 -0.0125577785 0.10318847 0.0059209205 -0.08512611 -0.11735982
-0.14567333 -0.10808909 -0.022503534 0.03475494 -0.060160656 0.022777323 0.0037018382 -0.17554832
-0.0032316383 -0.03467327 -0.0020082654 -0.025240166 0.123750225 -0.060652457 0.02798321 0.11189544

fr3.bias f4 [14]
00000000: bfe7 1e3d 0f59 773d d619 a0bd 4d88 f23d
00000010: 9665 8f3d 4273 1bbd b7ad 43bd b298 43be
00000020: e3bc 033e 004e c1bd f611 863d bc33 e8bd
00000030: 470a f2bd 8b87 a1bd
0.03879523 0.060387667 -0.07817428 0.118424036 0.07001798 -0.037951715 -0.04777309 -0.19101217
0.12865023 -0.094387054 0.065463945 -0.113379925 -0.118183665 -0.07887181

fo1.weight f4 [150, 30]
00000000: 0cc4 9a3c 7e6c d0bc b1aa 62bd 9d90 113e
00000010: 1cc7 ce3d f90f 523e 7be1 2c3e b8b1 1e3e
00000020: a9f0 2ebd da53 7f3d 519f 5ebd 86fa 943d
00000030: 2f09 2e3e a626 413e 3d8f 813e dbab 9dbd
00000040: 8648 853d 04e9 8f3c 54ee 103e 3892 623e
00000050: 7746 0b3c 1690 b33d 8d7b 81bb 5672 00be
00000060: 82e8 11be 70ce c83d 88a9 5e3d 434b 03bd
00000070: 92fe f13a 3c65 b9bd 59d6 b7bc 66c9 b0bc
00000080: bfa4 71bd 35ad 483d 0077 db3d 3661 ffbd
00000090: efa5 cabd b13f b23b 83ce ee3e 6acb f4be
000000a0: 5b46 5cbe bf37 82be 49b1 883f 431e 64bf
000000b0: 602b 3a3c a963 87be 08d5 943b 8945 05be
000000c0: 999b 06bd 8d3b ebbc 7d80 67bd 0e5d d33d
000000d0: 6ee9 e03c 27b6 95bc a723 df3d a97c b5bc
000000e0: b28a af3d 13ed b4bc e0bd e13d e8a2 20be
000000f0: a9b4 4a3d 8d8d 25bd ec58 cdbc 0fb6 f9bc
00000100: eb95 11bc b179 6dbe 689e 723d e651 5cbd
00000110: 1102 203e 40f2 123e f92b 8f3c 3f2a 803e
00000120: 3682 5f3f 0477 d8bf 68b0 413e ed3a 4a3e
00000130: 8d25 bdbd 492e 233d 6514 70be 2c2d ee3d
00000140: be9a 1cbe 65bc 41bd cb37 1bbe 2a7e ccbc
00000150: 8cff 183d 5f81 e23d d1e1 8f3d fb2d dc3d
00000160: 1139 b13b 12a2 d83d 42db 6ebd 4f7c b73d
00000170: d339 1b3c ae7d e6bb d60d a8be df53 1ebe
00000180: 4e22 83be 8902 7cbd 5cc9 2a3e ec0f 28be
00000190: 89a6 bebd 2e6c 9bbe 26e2 68be 1de9 0b3c
000001a0: 4c01 8cbd d611 033e 7720 dabd 9f0c 86bd
000001b0: 6ec7 bc3d 6608 c23d 6496 07bc 250c 973d
000001c0: 7c90 4ebd dd0a e33d f908 893c 61ce 513e
000001d0: 6848 90bc c59e 093e 2f4f aebd dd03 033e
000001e0: 5c58 37bb f675 a03d a428 f63c 9597 83be
000001f0: d2a0 2dbd 72b0 b9be 648e 6ebe a084 cbbd
00000200: f420 7cbe d88c 20be 719e 33be fb78 053e
00000210: c7ce 2abf f5b1 dcbd 43e8 2ebe 73e1 ea3c
00000220: 61f0 10bd 1080 3bbd b913 26bc 84eb 703e
00000230: 8130 33be 2502 41be bb6b 52bc 08ca ad3d
00000240: d98a 063c 329b 90bb 1a81 043e 7641 3dbe
00000250: 8d45 363e 2a31 383d c025 513d 6959 4d3c
00000260: e1de 023e 76c0 63bd 524c 683e 06ac 253e
00000270: fb42 7e3e 6c4c 9e3d ff40 c03e 0bea 693d
00000280: 50e6 e0bd 3b6f d3bd 792b 013f 5873 5dbe
00000290: 88e0 163e bac8 8dbd a6b0 76bd 812f cd3d
000002a0: b4eb 153e 3ff9 16be c69e 5f3e fc49 20bd
000002b0: 33a7 91bd d599 2cbe b685 e0bd 66b8 b33c
000002c0: 8f25 383c ef7b ddbb c2ea 203e 22d3 26bc
000002d0: b98c b33c 691b dd3c 7587 d23c d107 debd
000002e0: 4997 73be 8aaa 91be 85de ac3c 7ff9 efbd
000002f0: d125 7abe 7efe 803e a751 233e 3bbc 563d
00000300: ded8 f13d cda9 9bbf e382 8bbd d424 383e
00000310: 2bf4 0ebd 2ce0 1ebe 927d dcbb 5583 983d
00000320: 6695 0abd 3506 fdbc c670 733d 1a8f 02bd
00000330: 9912 adbc 05eb 8a3e 6f30 edbd 544a 183e
00000340: 5090 8a3d 35ed b9bd d618 02bc 5d8c 9c3b
00000350: 0e6f 253c 5de0 01bd 5426 f0bd 39c6 4fbe
00000360: 17d2 c93b 5e63 193e 916f e2bd 670c 3b3c
00000370: eef7 053e 9666 5c3e 8ed2 4cbf 4545 bdbe
00000380: fd10 413e 8372 3ebc 5ce6 553d c785 37bd
00000390: c2fa f5ba d13c debc 33ac 463d db87 9a3c
000003a0: 2014 2bbc 6f7a e4bd 3ceb 30be 2528 0fbe
000003b0: 0502 323d a984 c9bd f246 783c 51f7 843d
000003c0: 6bc0 803e e8bf d43c 9120 47be e6c3 c03d
000003d0: 0540 85be 2545 4ebe 7df5 00be ec06 5e3d
000003e0: 06eb dfbc ae56 46be 5497 213e 046a 843e
000003f0: 0373 00bf 6fd0 663e 785b d9bc 757f 113d
0.01889231 -0.025442358 -0.055338565 0.14215322 0.10096571 0.20513906 0.16882889 0.15497482
-0.04270998 0.062335826 -0.054351155 0.07274346 0.16995691 0.188624 0.25304595 -0.076987945
0.065079734 0.017567165 0.14153415 0.2212609 0.008500687 0.087677166 -0.003951496 -0.12543616
-0.14248851 0.09805 0.054360896 -0.032054197 0.0018462709 -0.09052512 -0.022441076 -0.02158041
-0.058995005 0.048993308 0.10716057 -0.124697134 -0.098949306 0.0054397215 0.4664193 -0.47811443
-0.21511213 -0.25433156 1.0679103 -0.89108676 0.0113628805 -0.26443222 0.004541997 -0.13014807
-0.032863233 -0.02871492 -0.05651902 0.10320483 0.027455058 -0.018275334 0.10895472 -0.02215417
0.08571376 -0.022085702 0.11022544 -0.15687144 0.049488697 -0.040418196 -0.025066815 -0.03048232
-0.008885841 -0.23190953 0.0592331 -0.053789042 0.15625788 0.14350224 0.017477022 0.2503223
0.8730806 -1.6911321 0.1891495 0.19749041 -0.09235678 0.039839063 -0.2344528 0.116297096
-0.15293404 -0.047298808 -0.15158002 -0.024962503 0.037353083 0.11059832 0.07025493 0.107509576
0.005408414 0.105777875 -0.05831457 0.08959257 0.009474236 -0.007034025 -0.32823056 -0.15461682
-0.2561211 -0.061525855 0.16678375 -0.16412324 -0.09309108 -0.30355972 -0.22742519 0.008539465
-0.06836185 0.12799773 -0.106507234 -0.06545376 0.09217726 0.09474258 -0.008275602 0.07375363
-0.05043076 0.110860564 0.016727911 0.20488884 -0.017612651 0.13439472 -0.08511197 0.12794442
-0.002797625 0.07834999 0.030048676 -0.25701585 -0.0423897 -0.3626743 -0.23296505 -0.099374056
-0.24621946 -0.15678728 -0.1754091 0.13034432 -0.6672177 -0.1077613 -0.17080788 0.028671956
-0.035385493 -0.045776427 -0.010136538 0.23527342 -0.17498972 -0.18848474 -0.012843068 0.084858
0.008211815 -0.004413032 0.12939873 -0.18482003 0.17799969 0.04496876 0.05106139 0.012533524
0.12780334 -0.055603467 0.22685364 0.16178903 0.24830239 0.0772942 0.37549588 0.057107966
-0.109814286 -0.1032395 0.5045696 -0.21626031 0.1473409 -0.06923051 -0.06022706 0.10018826
0.14640695 -0.14743517 0.21837911 -0.039133057 -0.07111969 -0.16855557 -0.10963003 0.021938514
0.011239423 -0.006759159 0.15714553 -0.010182174 0.021917688 0.02699061 0.025699357 -0.108413346
-0.2378818 -0.28450423 0.0211022 -0.117175095 -0.24428488 0.25194162 0.15949117 0.052425604
0.11808942 -1.2161194 -0.06812074 0.17982799 -0.034900825 -0.15515202 -0.0067288363 0.074469246
-0.033833884 -0.030886749 0.05943372 -0.031874754 -0.021127032 0.2713243 -0.115815036 0.14872104
0.06765807 -0.09078447 -0.007940492 0.004777475 0.010097278 -0.03170811 -0.117260605 -0.2029046
0.006159078 0.14979312 -0.11056436 0.011416531 0.13082859 0.21523508 -0.8000878 -0.3696691
0.18854137 -0.011623981 0.05222164 -0.044805314 -0.0018766748 -0.027128609 0.048504066 0.018863609
-0.01044181 -0.11156165 -0.17277235 -0.13980158 0.043458957 -0.09839756 0.015153633 0.06492484
0.25146803 0.025970414 -0.19446017 0.09412365 -0.26025406 -0.20143564 -0.12593646 0.05420582
-0.027333748 -0.19369003 0.15780383 0.25862134 -0.50175494 0.22540449 -0.026532874 0.035521943

fo1.bias f4 [150]
00000000: e775 7ebe c226 71bc a189 113e 0df5 5fbe
00000010: 97bb d3bd d25f 1f3e f79d 52be 1f68 7c3d
00000020: 6454 e9bd 29d7 653d 40d3 5fbe 72be c83c
00000030: 07b6 b1bc e26d febd 3b35 40be b1ae bfbd
00000040: dbcc 1abe 6751 fc3c c061 083d 04f4 b1bd
00000050: 01dc aebe a898 f23d c035 ad3b c1ca 12be
00000060: 43e3 5ebe 6e19 84be e2f0 0c3e 335f 8ebe
00000070: 034a c0bd 8c9a 3ebe 133d 9bbd 1c2d 91be
00000080: e60b e6be 261c 1d3d 7238 f5bc 68ce be3d
00000090: 4826 dfbd 33b5 a13d d37a 80be 023d 193e
000000a0: 903f 07be ec38 5dbc 3cb2 12be 1f72 c0bd
000000b0: 1dbf 273d 946b 75be b6ea 66be 5f57 01be
000000c0: b6f8 30be 9d81 ecbd b48f 003e 24c6 5ebe
000000d0: d8b9 08be a3f1 0f3e 77ff 0ebe 2372 59be
000000e0: 27d6 90bd fff5 5e3a fa73 573d 5e9b e13d
000000f0: 9bbd 033e 36fc 323c dec2 d9bc 19e2 f3bd
00000100: 7e19 a23d 8054 553d ff79 fb3c 67d7 e8bc
00000110: 78e9 cbbe 4c1b b13c bf6e 303e 825e 783d
00000120: 4be9 81bd 2392 233b 5b39 f73d b386 08be
00000130: ccbb 17bc 7c8a 0f3e ee50 fb3d e312 8bbe
00000140: 749e cf3b 8722 03be abaf b8bd fc03 1abe
00000150: 29b1 d1bd 0a0e 023e a1ac 74be 8572 853d
00000160: fab4 2fbe eeb0 4bbe 7543 e23d e89a 93bd
00000170: 4ac6 56be c6fa e4bd a911 843c 8e95 85bc
00000180: 0c2f 5f3d 9184 da3a 8778 b63d ba26 893d
00000190: c6d2 01be ab79 38be 4b3f 25be 0895 68bd
000001a0: 3910 ddbd 603f b1bd 9eaa 073e 0b9d 173e
000001b0: a3b0 5ebe d8ab cb3d d436 66bc 342b 21bc
000001c0: fe83 d93d 5030 96be 47a0 823d 405c 253e
000001d0: 284c 15be 5e91 0c3e 50f8 57be 4b8f e63d
000001e0: 841f ebbc a139 223e a866 b53c 8ac3 73bd
000001f0: 0f77 23bc f04a c6bd 00aa 7bbe 72e1 02bd
00000200: 72c0 113e 5782 1a3e f087 f4bd 51d9 8fbe
00000210: 1de5 9e3c ab5b 87be b690 45bd daaa 6b3e
00000220: 0bee 18be 28a4 43be fe32 1abe 4ad8 a3be
00000230: d599 1abe 46f7 393d 2521 51bd 1cda 97bb
00000240: 0c40 debd fa19 a73d 1dcc 46be d258 11be
00000250: dd80 1cba 61f6 3dbe
-0.24849664 -0.014718713 0.14212658 -0.21870823 -0.10338514 0.15563896 -0.20568071 0.061622735
-0.11393049 0.056113396 -0.21857929 0.024504874 -0.021693243 -0.12423302 -0.18770306 -0.093594916
-0.15117209 0.030800534 0.033296347 -0.086891204 -0.34152225 0.11845523 0.0052859485 -0.14335157
-0.21766381 -0.2580065 0.13763765 -0.27807006 -0.093891166 -0.18613642 -0.07580008 -0.28354728
-0.44930953 0.038356923 -0.029934142 0.093167126 -0.108959734 0.07895889 -0.25093707 0.14964679
-0.13207841 -0.013502341 -0.14325804 -0.09396767 0.040953744 -0.23966819 -0.22550473 -0.12630986
-0.17282376 -0.11548159 0.12554818 -0.21755272 -0.13352144 0.14057021 -0.1396464 -0.21234946
-0.07072096 0.0008505284 0.05260084 0.11015962 0.12865297 0.01092439 -0.026582178 -0.11908359
0.079150185 0.05208254 0.03069782 -0.028423024 -0.3982656 0.021619461 0.17229746 0.060637005
-0.06343325 0.002495893 0.120714866 -0.13332634 -0.009261083 0.14017671 0.122712955 -0.27162847
0.0063360278 -0.1280614 -0.09017881 -0.15040582 -0.10238869 0.12700668 -0.23893978 0.065159835
-0.17158881 -0.19891712 0.11048023 -0.072072804 -0.20974079 -0.11180644 0.016121702 -0.016306665
0.054488227 0.0016671588 0.089097075 0.0669684 -0.1267806 -0.18015163 -0.16137426 -0.056782752
-0.1079411 -0.08654666 0.13248679 0.14806001 -0.21747069 0.09944886 -0.014051158 -0.009836961
0.10620879 -0.29333735 0.06378227 0.16148472 -0.14579833 0.13727328 -0.21090817 0.112578
-0.028701551 0.15842296 0.022143677 -0.059512652 -0.009977116 -0.09682262 -0.24576569 -0.031953283
0.14233568 0.15088783 -0.119399905 -0.28095487 0.01939636 -0.26437125 -0.04823371 0.23014393
-0.14934556 -0.1910559 -0.15058514 -0.32000953 -0.15097745 0.045401834 -0.051057 -0.004634155
-0.1085206 0.081592515 -0.194138 -0.14194039 -0.000597013 -0.18551017

fo2.weight f4 [75, 150]
00000000: 66d8 c23a ebb3 c33d f3b4 81bd 52f7 a3bc
00000010: e80a ad3c cd46 d33d 81e4 ecbb afb4 423d
00000020: f834 67bc 9b30 da3c a53a 3bbd d7a5 933c
00000030: 9306 81bd 4c19 eb3c e904 b63d 618b 8abc
00000040: a56c d0bd 793c 033d 1a3a b03c 0413 02be
00000050: 297a fb3d 3fcb a4bd 7274 8cbd 2843 14be
00000060: dbf0 8b3c 2bab b63d 0374 2f3d dfb1 bfbd
00000070: 87a8 a73d dbc5 913d 975a 693d 4ade 843c
00000080: ae3a b2bc 8bee 2b3c a6f5 a23d eefb 30be
00000090: adbb 88be c449 8abd 7746 153d e3ef 6e3d
000000a0: 16e8 143d 8c60 f03b aca7 c3bd eaef b3bc
000000b0: b02f 0d3d 9d79 893d ae90 6dbd 5f11 ec3c
000000c0: 6656 8f3c 46b9 073d ac66 273c 72b3 e2bd
000000d0: 2435 33bc 41e3 02bd 1d53 e0bc 898d 83bd
000000e0: adaf 8abd e5b8 bd3d 385b 23bd 5d65 57bd
000000f0: decf 563d e968 283d 6803 233d 897c 95bd
00000100: c171 1a3d 8887 6ebb c13e 173e 0f35 9f3b
00000110: ad9b ec3b 74fd 513c d519 0f3d cb09 7a3d
00000120: cb18 babd cef9 c33c 9f29 f03d 870c e33c
00000130: 81af 16bd 2037 31bd 6ac6 8cbd 3085 fe3c
00000140: 2edd e9bb 3eaa 6c3d aba9 aebd be4a 393d
00000150: 882d af3d 4caa ebbb 38d5 e33c 5c9d 74bc
00000160: 0cd1 48bd bf5b 8e3d 0365 083d d23a 413d
00000170: 8ff3 5c3d 1a4d fdbd 6344 9cbd c110 0cbe
00000180: 6417 c5bd edeb b23c f4a1 863d 3927 513d
00000190: 8cfa f53b d27d 543d be7f c9bc 424e aa3d
000001a0: 09c0 bebd a785 be3d 94fd 19bd 1613 31bd
000001b0: d202 ac3d 1fab dc3d c66d 933d d2a2 253d
000001c0: e3d3 0e3e 3ec7 c63d eb83 8cbd d54d 2dbd
000001d0: 313f 9fbd 9342 9ebd 135f 03bc 7ed7 453d
000001e0: e50b 0e3d 448d 5e3d d4b8 543d 66b1 6c3c
000001f0: f8e7 ae3c 3907 33bd 1e4e 19bd 2523 743d
00000200: f3c1 123e 2dfa a5bc 640d ab3d dbb9 0f3d
00000210: 5a51 ebbd 7c6a 8bbd d75a a2bc b622 323c
00000220: f71a 103c 5cc5 73bd a0a7 a4bd 883f ce3d
00000230: a706 563d 4e84 383d 812c c93c 19ae a33d
00000240: 5375 2e3d be63 8ebe 1dd1 69bc 7dc4 92bd
00000250: b2dd 6fbc dc43 d13c 352e 8b3b cd09 3dbd
00000260: c796 a3bb e41a e2bd 0a84 263d 474a 4d3c
00000270: a588 71bd c537 12bd e397 20bc 4f2d c53c
00000280: 2eb5 6a3d 6aab 38bd e14b 08bd fbc5 a8bd
00000290: 609c 1f3d a596 40bd 58a6 993a 0e6a 80bd
000002a0: 60b8 9bbd 17be 673c 0413 dabd 1699 423d
000002b0: b67e 61bd f4e0 bbbc 1a93 0fbd 49e7 703c
000002c0: ee7c 8d3d acc3 133c 43b5 15bd 555b dbbd
000002d0: 3d9d 003b 10e4 623c 0589 a03c ad3f 63bc
000002e0: d36b 853d 0f3a 543d 22bc e53c 52da 1ebd
000002f0: b7d9 1f3d e47a ecbc 29e6 96bb 3a17 edbb
00000300: 179a 01bc 7503 b0b9 945b ba3c f925 92bd
00000310: 4e3a e2bd dd7a 78bc 2519 adbd 33de c0bd
00000320: 4aac 553d e304 0c3c d60e d33d 534c 7ebd
00000330: 19e6 243c b337 8e3d 62c1 f83c 4331 1fbd
00000340: b721 c8bc d86f 0a3c 3365 babb 9d41 413d
00000350: a50f c7bc a12e 8dbd 4a05 853d f30f 483c
00000360: c747 6cbc 47bf 8abd 36ff 47bd b175 a9bc
00000370: 4844 e4bc 0dab be3d c65c da3d 810d 90bd
00000380: 8094 36bc e76f 77bc b55d aebd 22ee 44be
00000390: 1f8a 713d f2f7 c4bc f934 a5bd c44a 4a3d
000003a0: 3ed3 f5bd bfe5 003c 8c83 7cbd d071 82bc
000003b0: 9fd7 12bd 1710 b4bc cf65 183d ccb7 333d
000003c0: d365 8d3d 0d19 2dbd 8bda 94bb 6e37 a63d
000003d0: a018 0cbd 10a2 ed3d 1db6 7a3d fe6c 1fbd
000003e0: 38e3 b43c 955c 21bd 9f3f 7bbd 593d 03bd
000003f0: 64be 843d 602b a4bb 9ce8 26bc 4c42 8d3a
0.0014865517 0.09555801 -0.063333414 -0.020015392 0.021123365 0.103162386 -0.007229388 0.047535595
-0.01411175 0.026634505 -0.045710225 0.018023415 -0.06300082 0.028698586 0.08887655 -0.016912164
-0.10176972 0.032040093 0.02151208 -0.12702566 0.122791596 -0.080465786 -0.06858148 -0.14478743
0.017082622 0.089193664 0.042835247 -0.09360098 0.08186441 0.07117816 0.05697116 0.016219277
-0.021756496 0.010493885 0.0795701 -0.17283604 -0.26705685 -0.06752351 0.036444154 0.058334243
0.036354147 0.007335728 -0.09553465 -0.021964986 0.034469306 0.06712649 -0.057999305 0.028816877
0.017497253 0.033135675 0.01021735 -0.11069383 -0.010937963 -0.031955007 -0.027383382 -0.0642348
-0.06771789 0.092637815 -0.039881915 -0.052586902 0.05244433 0.041115675 0.03979817 -0.07299144
0.03770614 -0.00363967 0.14770032 0.00485862 0.0072207064 0.012816776 0.034936745 0.061044496
-0.0908676 0.023922827 0.117266886 0.027715934 -0.036788467 -0.043265462 -0.06873782 0.031069368
-0.0071369624 0.057779543 -0.08528455 0.045237295 0.08553606 -0.007191932 0.027811632 -0.0149300955
-0.049027488 0.06951093 0.033299457 0.047175236 0.053943213 -0.123682216 -0.07630231 -0.13678266
-0.09623602 0.021841014 0.06573859 0.051062796 0.007506674 0.051877804 -0.024597045 0.08315708
-0.093139715 0.09302836 -0.037595347 -0.043231092 0.083989754 0.10774826 0.07198672 0.04043848
0.13948016 0.09705971 -0.06861099 -0.042310555 -0.07775725 -0.07727542 -0.008018273 0.048301212
0.034679312 0.05433394 0.05193408 0.014446592 0.021350846 -0.04370806 -0.037428014 0.05960383
0.14331798 -0.020260895 0.083521634 0.035089355 -0.11490126 -0.0680742 -0.019818706 0.010872534
0.008795491 -0.05951439 -0.080397844 0.100707114 0.052252438 0.04504805 0.024557354 0.07992191
0.042592358 -0.27810472 -0.014271048 -0.071663834 -0.014640259 0.025545053 0.0042474517 -0.046151925
-0.0049923393 -0.11040285 0.040653266 0.012529916 -0.058968205 -0.035697717 -0.009801838 0.024069456
0.057301693 -0.04508535 -0.03327549 -0.08240887 0.03896749 -0.047018666 0.0011722548 -0.06270228
-0.07603526 0.014144442 -0.10648158 0.047509275 -0.05505248 -0.022934414 -0.035052396 0.01470358
0.06908594 0.00901882 -0.036549818 -0.107107796 0.0019624971 0.01384832 0.019596586 -0.013870162
0.065147065 0.05181318 0.02804381 -0.038782425 0.03902599 -0.028867193 -0.004605074 -0.007235435
-0.007910273 -0.00033571912 0.022748746 -0.07136149 -0.11046277 -0.015166012 -0.084520616 -0.09417381
0.05216626 0.008546087 0.10305564 -0.062084507 0.010064625 0.069442175 0.03036565 -0.03886534
-0.024430139 0.008449517 -0.0056883334 0.047181714 -0.024299452 -0.068936594 0.064951494 0.012210834
-0.01442141 -0.067747645 -0.048827372 -0.020686002 -0.02786459 0.09309969 0.106622264 -0.07033826
-0.011143804 -0.015102363 -0.08513967 -0.19231465 0.058969613 -0.02404401 -0.08066744 0.04938771
-0.12003182 0.007867276 -0.06164889 -0.01592341 -0.035850164 -0.021980328 0.037206467 0.043876454
0.06904187 -0.04226022 -0.004542654 0.08116041 -0.03420317 0.116031766 0.061208833 -0.038922302
0.022081003 -0.039394934 -0.06133997 -0.032040928 0.06481627 -0.0050100535 -0.010187294 0.0010777204

fo2.bias f4 [75]
00000000: dc79 f13c 140b b6bd f93e 25bb dc03 cebc
00000010: a9a2 f8bd 9d13 a0bd 3244 9abd ceae 71bd
00000020: 0eb6 e5bd a53c 07be 41d1 03bd 282e 89bc
00000030: 62a1 d5bd ea4a 2abd 6440 88bd 13f8 0a3d
00000040: c9bc 1cbd a15b 36be 594c fbbd 1378 debd
00000050: 4435 11be f526 b23c 2e6a 83bd 58d4 f1bd
00000060: 8f92 813d a936 bebd cc22 7cbd af50 b63d
00000070: c864 043d 3706 3dbd 7053 c7bc 30db 16be
00000080: ad51 c7bd 6e84 2d3d 55b5 033c ec2c 98bd
00000090: cdf1 3abb 2753 01bd dac1 87bd 45af 1e3a
000000a0: d3cf bc3d cd5b 9bbd 37af 42bc a2f6 2f3d
000000b0: 6b22 da3c e17c 6ebd 2219 4d3d 9eba 613c
000000c0: 35bd 7dbd e57d a0bd c430 68bc 694e 8dbd
000000d0: 38d8 e5bd 2276 f8bd 1121 c2bd b96e febd
000000e0: a9ce 57bd 0534 a3bc 84a7 cebd 3f83 0a3d
000000f0: c013 87be 0050 96bd 4a93 d1bd 4458 58bd
00000100: 6584 543c 2eef 61bd 7cf0 3cbe 6349 93bd
00000110: e3e1 cabd a1f4 e6bd ff4d ccbd 452d 8ebd
00000120: cf23 6fbd e07f 6f3c ae8f f4bd
0.029477052 -0.08888832 -0.0025214537 -0.025148325 -0.121404 -0.07816241 -0.075325385 -0.059004597
-0.11216365 -0.13206728 -0.032181982 -0.016745642 -0.10431172 -0.04157535 -0.066529065 0.03392799
-0.038265977 -0.17808391 -0.122704215 -0.10862746 -0.14180475 0.021747092 -0.064167365 -0.118080795
0.06326782 -0.09287769 -0.061556622 0.08902108 0.032322675 -0.046148505 -0.024331778 -0.14732051
-0.09732375 0.042362623 0.008038838 -0.07430443 -0.0028525472 -0.03157344 -0.06628771 0.0006053339
0.09219327 -0.07585869 -0.011882595 0.042959817 0.02662774 -0.058224563 0.050072797 0.013777403
-0.06194802 -0.078365125 -0.014171783 -0.06899721 -0.11222881 -0.12131907 -0.09478963 -0.124234624
-0.05268732 -0.019922266 -0.10090545 0.033816572 -0.26382256 -0.073394775 -0.10233171 -0.05281855
0.012971018 -0.05515974 -0.18451113 -0.07191732 -0.09906366 -0.11277128 -0.09975814 -0.06942228
-0.05838376 0.01461789 -0.11941467

fo3.weight f4 [10, 75]
00000000: eb48 8dbd 2b1b bcbc f34b b5bd e5fe 01bb
00000010: 311e bc3d 987c 9e3c eefa f2bc ecf0 aa3a
00000020: 98a4 fe3d fe68 a63b 0877 0a3c e417 68bd
00000030: a8a3 51bc 52ef a43c 04b7 8b3d d378 25ba
00000040: a54f 41bc 96df 003d d608 d3bd 83e5 323d
00000050: 53be 3bbd 5126 90bd 5e51 02be c952 4abc
00000060: 8495 90bd 5f88 8f3c aff5 cd3d 1794 85bd
00000070: 006d d9bc fa44 a73d 6cff 1e3c 770f dd3d
00000080: 890f a5bc c729 1c3d ebf8 843b 280b cbba
00000090: 9338 4ebc e6cc 0d3d 3fb2 473d 2a92 d3bc
000000a0: 785b 763a dbaf 9fbb c533 003b 042d 0b3d
000000b0: 1e08 033d a8b9 98bd 5f9c d8bd ee41 063d
000000c0: c7c5 8c3d 257b 58bd 6679 4fbc 48f4 5f3d
000000d0: 11c9 f63b 224f 0bbd 0eac 003e 22e2 c3bc
000000e0: 32e8 88bc 19d6 80bc be8e c1bc 741c df3c
000000f0: 8b13 0a3e 511e 753d 32ac 8abd caac dbbb
00000100: 90b4 e53c a947 83bd 16ae c0bb cbe9 163c
00000110: 76e0 30bd 3836 e83c f2c3 363d 9386 483d
00000120: 6c57 b83d 703f bcbd 3f40 483d 9409 853d
00000130: 8617 3f3c 76ba 38bd ef02 99bd ffee 473d
00000140: 2d2b 51bc 85fa 8e3c 191b c93b 0d02 22bd
00000150: 2e46 b93c 647c 88bc 9d47 263d 9d94 2abc
00000160: 1f6b 36bc 0819 7e3d 22ee edbb 19ac 0e3d
00000170: 50ae 19bc 2bef 993d 3c9c 4b3d fa08 f7bc
00000180: de4a b93d d9c2 c5bd ed30 a43d dd28 173d
00000190: 059d 1e3d d9eb fd3c 8c9f d6bd f75a 0ebc
000001a0: 37b4 e83a 6443 713d 1601 a7bc 674a e7bd
000001b0: 8974 1c3d f84a 863d 9550 f0bc db66 653c
000001c0: 9604 b5bd 4d51 843d f50c 5a3d 59c1 463c
000001d0: 9b2e 143d b972 c2bb 30a6 093d 6450 0a3d
000001e0: b73c 073d 9b45 7c3d 21cf 14bb 59a8 b5bd
000001f0: d321 68bb 132f b8bd 97d9 2bbd 3502 3abc
00000200: 4ce7 63bc c947 04bd b5fd adbd 197a 75bd
00000210: 8c5b bf3d 99ff 5dbc 3776 753d 002c cfbd
00000220: 1053 83bd f2bc febc 7d09 64bd c1c4 e03c
00000230: b5f5 7e3d e597 823d 8a8d be3c 6803 953d
00000240: e542 b6bb ebb1 953d d583 a73d 133d 17bb
00000250: 538a 10be 885d 36be c302 403c 70ba 653b
00000260: 1db7 4b3d 05fa f73c 8c3b 6bbd 5a70 56bd
00000270: 9d83 883d 5415 89bd b7b7 833c a9a5 9abd
00000280: 4f14 1e3c 56c1 ef3d 92a5 463d 8892 a53b
00000290: 63b3 89bd 297b 24bd f9d4 7fbd 5fc1 ca3d
000002a0: 5997 6fbb 2f0c bdbd df31 653d 0b86 153c
000002b0: f3d6 3dbd 7595 e7bd 1ad3 423d 3c13 b3bd
000002c0: d444 a13c e7ce 033d 60f9 e6bd 10a3 c2bd
000002d0: c439 553d 0607 663d 0ab0 c4bd ed79 b6ba
000002e0: 5a0c 55be 1f6f 043e 73ed 14bd 7a09 97bd
000002f0: a4ed 32bd df58 aabc 7808 acbd 0e95 dd3b
00000300: 3af0 4bbc b6dc b3bb d4f3 96bb d250 943c
00000310: a6ae 6c3c ef76 9cbe 26de 013d 4d4b a63d
00000320: 95de c73d 5a31 cb3b 228b eab9 6077 833c
00000330: 5969 143d 38d6 093d b6a5 273b b61c a1bd
00000340: 6164 403d 16f3 1cbd 33b4 17bc 1dc2 d4bb
00000350: d5dc f63d 821c a13d 4096 9ebd c6d0 0f3d
00000360: b532 e53c dd67 42be 82d7 9cbd f646 78bd
00000370: 221b 8a3d f1c3 af3d 3ae0 8f3d d480 e83b
00000380: dde1 3dba 8ca9 a4bd 6ec6 0bbd aa7d bbbc
00000390: ef15 ae3c 89bc ed3d b27a 94bc 025a 95bc
000003a0: 09d2 b43c 86e9 fd3c a90a 9f3b 6732 99bb
000003b0: 7713 513d 9e7e 25bc d8ba b7bd d055 8c3d
000003c0: 1b4a 1abc 928f c83b 1358 a4bb c64e b43d
000003d0: b4ea 143d 1277 9bbc eb08 8f3d ccc1 f8bc
000003e0: 4189 a8bc e52e 953d cb15 9c3d d3f6 0dbe
000003f0: 02ca cabd ce50 50bd 2d3c e53d d34e 4b3c
-0.068986736 -0.022962173 -0.08852377 -0.0019835767 0.09185446 0.01934652 -0.029660668 0.0013041771
0.124337375 0.005078434 0.008451231 -0.05666341 -0.012795366 0.020133648 0.06822017 -0.00063122547
-0.011798774 0.03146323 -0.1030442 0.04367591 -0.045835804 -0.07038558 -0.12726352 -0.012348839
-0.07059768 0.017521081 0.10056626 -0.065223865 -0.026541233 0.08167453 0.009704452 0.10793965
-0.02014901 0.03812578 0.0040579936 -0.0015490996 -0.0125867305 0.034619235 0.048753973 -0.025826532
0.0009397785 -0.0048732585 0.0019562107 0.033978477 0.031990163 -0.07457286 -0.105767004 0.03277772
0.068736605 -0.052851815 -0.012663221 0.054676324 0.007531293 -0.034011014 0.12565634 -0.02391154
-0.016712282 -0.01572709 -0.023627635 0.027235247 0.13484018 0.059843365 -0.06771125 -0.0067039477
0.0280402 -0.064101525 -0.0058801277 0.009211014 -0.043182813 0.028346166 0.04462046 0.048956465
0.090010494 -0.09191787 0.048889395 0.064959675 0.011663323 -0.045099698 -0.07471263 0.04881191
-0.012766642 0.017453441 0.0061372635 -0.039552737 0.022616472 -0.016660877 0.04059564 -0.010411409
-0.011133938 0.06203559 -0.0072610537 0.034832094 -0.009379938 0.07516321 0.049709544 -0.030155648
0.09047483 -0.09656305 0.08017144 0.036904205 0.038723964 0.03099625 -0.1047965 -0.00868868
0.0017753904 0.05890216 -0.02038626 -0.11293488 0.038197074 0.06557268 -0.0293353 0.014001573
-0.08838765 0.064608194 0.053235013 0.012131059 0.03617726 -0.005934086 0.033605754 0.033768073
0.033016887 0.06158982 -0.0022706466 -0.088700004 -0.0035420551 -0.08993354 -0.041955557 -0.011353065
-0.013910126 -0.032295022 -0.084956564 -0.059930895 0.09343633 -0.013549709 0.05992719 -0.10115814
-0.06412327 -0.031095956 -0.05567311 0.02743757 0.062246043 0.06376628 0.02326085 0.0727604
-0.0055621737 0.07309326 0.08179442 -0.0023077175 -0.14115267 -0.17809117 0.011719408 0.0035053752
0.049735177 0.030270586 -0.057429835 -0.05235324 0.06665728 -0.06693521 0.016078813 -0.075511284
0.009648397 0.11706798 0.048497744 0.0050528683 -0.067236684 -0.040156517 -0.062458966 0.09900164
-0.0036558716 -0.092308395 0.055955764 0.009126197 -0.04634757 -0.113078035 0.047564603 -0.08743903
0.01968614 0.03217974 -0.11278033 -0.09503758 0.052057043 0.05615904 -0.09603889 -0.0013921835
-0.20805493 0.12933014 -0.03635926 -0.073748544 -0.043683663 -0.02079433 -0.08400053 0.0067621535
-0.012447411 -0.0054889573 -0.0046067033 0.018104944 0.014445936 -0.3055949 0.031705998 0.08119831
0.09759251 0.0062009515 -0.0004473562 0.016048133 0.03623328 0.03365156 0.002558095 -0.07866804
0.04697073 -0.038317762 -0.009259271 -0.0064928667 0.12053839 0.078667656 -0.07743502 0.03511121
0.02797828 -0.18984933 -0.07658292 -0.06061455 0.067434564 0.08582295 0.0702519 0.0070954356
-0.0007243434 -0.08040151 -0.034124784 -0.02288707 0.021250693 0.11608226 -0.018124912 -0.018231396
0.022072809 0.030995142 0.0048535657 -0.004675198 0.051043954 -0.010100989 -0.089711845 0.06852305
-0.009417082 0.0061206305 -0.005015382 0.08804087 0.036356643 -0.018977676 0.06984123 -0.030365847
-0.02057326 0.07284335 0.07621344 -0.13863687 -0.09901811 -0.05085831 0.11193118 0.01240893

fo3.bias f4 [10]
00000000: 36bc bc3c 6e40 41bd 0930 04bb 0737 5f3d
00000010: a553 02be b00d acbd 58dd 5fbd 00ad 81bd
00000020: b92a bfbd 0c31 d63d
0.023038965 -0.047180586 -0.0020170233 0.054495838 -0.1272722 -0.08401048 -0.05465445 -0.06331825
-0.093343206 0.10458574
