JEDInet/model_1/IN_kFold_150/IN_sumO_bestmodel7.params (torch, 104727 bytes, 17 tensors)

fr1.weight f4 [50, 32]
0.02495335 0.05262509 -0.037779987 0.021102097 0.28329778 0.12368864 0.17175673 0.05061267
-0.009018452 0.18200402 0.007241339 -0.1442795 2.3029988 -2.3025725 -0.087000154 -0.049551107
0.017157946 -0.010111818 0.053592626 0.065412074 0.23382714 -0.13901292 -0.036568426 -0.08092243
-0.1661164 -0.013217476 0.18113036 -0.0876855 -1.0566381 -2.3029106 -0.24632059 0.005929414
-0.12015639 -0.3505937 -0.13679594 -1.9783093 -1.54079 -1.8801836 -1.3082736 -0.15855044
-0.11988313 -0.020045865 0.02713531 0.11270576 1.6313725 -2.2962344 0.18719949 0.012581521
-0.17085022 -0.10974267 -0.0064828023 -0.31633773 -0.023051903 -0.26164606 0.11327682 0.08006134
0.13509102 -0.14333193 -0.23221922 0.074117504 -0.96413106 -0.4642206 0.13031991 -0.042160798
-0.007827075 0.09224943 -0.0102117285 0.06193459 0.23338911 0.09733087 0.07525231 -0.0013936653
0.13498941 -0.0868293 -0.13803972 0.07944301 2.3024006 -2.3024695 0.16200075 -0.11621158
-0.03489042 0.038694326 0.0023908431 -0.104049996 -0.31860027 0.13447767 -0.38764793 -0.24985611
0.11932862 0.12913692 0.06587271 0.1301354 -1.366184 -2.2661145 -0.07241458 -0.1598177
0.00833806 -0.031618048 -0.006469421 0.016509939 -0.3901098 0.054739866 -0.25392577 0.14223872
0.09532335 -0.06534565 0.15102601 0.096085235 -2.3019876 2.3008702 0.03877752 -0.037722573
-0.07066343 -0.045525014 -0.13592003 -0.2568385 -0.34763628 -0.1487276 -0.07135355 0.240363
-0.19981778 0.1957596 -0.05242616 -0.2241567 0.2893705 -0.80891925 -0.07217852 0.21643744
0.130777 0.08298327 -0.07016735 -0.23563759 -0.5804818 -0.23482627 -0.6163655 0.17432402
0.37245414 -0.31467634 -0.14806774 0.022096997 0.18497092 -0.15222496 0.23180906 -0.16536425
-0.0482355 0.03795229 -0.023263464 -0.024138587 -0.6872731 0.30373675 -0.6502824 0.21788439
0.064369954 0.16709024 -0.24043435 0.13157745 0.7446752 0.8000193 0.048195403 0.0028357336
0.043589916 0.085922375 0.005534793 0.070220724 -0.3748439 0.044752568 -0.21646479 -0.016067786
-0.28900284 0.0909399 -0.15290384 0.010847833 -2.3026435 2.2999766 0.0025311126 -0.016220223
-0.03780382 -0.04140593 0.120070025 0.01664019 0.3261671 -0.05374429 0.25683567 0.09313861
-0.067095354 0.10865735 -0.27198258 -0.15267757 0.5943167 2.3012176 -0.031674918 0.09236288
-0.003942837 -0.03258895 0.0087778475 0.010921157 0.22499897 0.093393825 0.14279713 -0.14440262
0.34366158 -0.039245892 0.092964344 0.00011781896 2.3026607 -2.301403 -0.12852843 -0.046270285
0.003745959 0.0009924268 0.059874438 0.11750122 0.16289774 -0.17156132 0.4145595 -0.1180138
-0.21163835 0.039421547 -0.10058984 0.1747063 -0.7201745 -1.5049728 0.19785245 0.03048499
-0.006608831 0.0019735286 0.063675754 -0.089423805 0.23038352 0.13290484 0.23109262 -0.19280869
-0.8095393 -0.114069454 -0.020289468 0.06127658 2.3019593 -2.3009799 -0.19355875 -0.14820778
0.055417474 -0.013741628 -0.20853807 0.06472981 -0.15848392 -0.051466845 -0.08926982 0.44392726
0.09939828 0.09998422 -0.23540658 -0.032822292 -1.1218982 -2.2173908 0.23040184 0.12642115
00000000: f86a cc3c 688d 573d 30bf 1abd 4ede ac3c
00000010: 680c 913e 7850 fd3d ffe0 2f3e 3b4f 4f3d
00000020: 21c2 13bc 435f 3a3e c148 ed3b 01be 13be
00000030: 5564 1340 595d 13c0 232d b2bd 1af6 4abd
00000040: d28e 8c3c 0aac 25bc f183 5b3d c4f6 853d
00000050: 6270 6f3e 6759 0ebe c6c8 15bd a9ba a5bd
00000060: 6b1a 2abe 1d8e 58bc 3d7a 393e 7594 b3bd
00000070: eb3f 87bf e362 13c0 773b 7cbe 884b c23b
00000080: 8e14 f6bd 0481 b3be 3c14 0cbe 3d39 fdbf
00000090: 9b38 c5bf dba9 f0bf 8275 a7bf 0c5b 22be
000000a0: 4985 f5bd 3a37 a4bc df4a de3c 47d2 e63d
000000b0: d0d0 d03f 81f5 12c0 39b1 3f3e b922 4e3c
000000c0: 5cf3 2ebe c4c0 e0bd b06d d4bb 05f7 a1be
000000d0: 58d7 bcbc 79f6 85be adfd e73d 33f7 a33d
000000e0: 4d55 0a3e 9bc5 12be e0ca 6dbe ebca 973d
000000f0: 4bd1 76bf 53ae edbe 9572 053e cdb0 2cbd
00000100: 223d 00bc 45ed bc3d 184f 27bc 20af 7d3d
00000110: 8efd 6e3e 6855 c73d e21d 9a3d a6ab b6ba
00000120: aa3a 0a3e 8fd3 b1bd 495a 0dbe 04b3 a23d
00000130: 885a 1340 a95b 13c0 86e3 253e 5600 eebd
00000140: 42e9 0ebd f17d 1e3d b1af 1c3b 2a18 d5bd
00000150: 931f a3be 84b4 093e ca79 c6be 48da 7fbe
00000160: 9062 f43d 783c 043e 45e8 863d 3742 053e
00000170: 1edf aebf 0508 11c0 184e 94bd 40a7 23be
00000180: 5c9c 083c ed81 01bd 70fd d3bb da3f 873c
00000190: 79bc c7be e936 603d 8f02 82be 07a7 113e
000001a0: e338 c33d f1d3 85bd 90a6 1a3e 56c8 c43d
000001b0: c453 13c0 7541 1340 2dd5 1e3d fc82 1abd
000001c0: fdb7 90bd 7078 3abd 9f2e 0bbe 5680 83be
000001d0: 62fd b1be 0c4c 18be cf21 92bd b821 763e
000001e0: 089d 4cbe 3475 483e d0bc 56bd 5589 65be
000001f0: 5f28 943e 5515 4fbf 55d2 93bd c7a1 5d3e
00000200: 68ea 053e 22f3 a93d e6b3 8fbd fb4a 71be
00000210: 759a 14bf 4c76 70be 21ca 1dbf ff81 323e
00000220: 4fb2 be3e 421d a1be 129f 17be c304 b53c
00000230: 0469 3d3e dce0 1bbe 5b5f 6d3e 3f55 29be
00000240: 9692 45bd dc73 1b3d 0593 bebc 49be c5bc
00000250: 21f1 2fbf 6283 9b3e e878 26bf 161d 5f3e
00000260: 65d4 833d b419 2b3e 6c34 76be 3dbc 063e
00000270: 09a3 3e3f 11ce 4c3f 8b68 453d b7d7 393b
00000280: 578b 323d 12f8 af3d 355d b53b e2cf 8f3d
00000290: 8aeb bfbe 784e 373d f2a8 5dbe 97a0 83bc
000002a0: 2ef8 93be b33e ba3d d392 1cbe 1cbb 313c
000002b0: 835e 13c0 d132 1340 06e1 253b 46e0 84bc
000002c0: 2ed8 1abd 4499 29bd 46e7 f53d 0251 883c
000002d0: 60ff a63e f922 5cbd f77f 833e 75bf be3d
000002e0: 4a69 89bd bf87 de3d 4d41 8bbe 8257 1cbe
000002f0: 2425 183f 2647 1340 8fbd 01bd c028 bd3d
00000300: ea32 81bb fe7b 05bd f6d0 0f3c a7ee 323c
00000310: 2166 663e 4345 bf3d 6939 123e 48de 13be
00000320: 69f4 af3e 4dc0 20bd 1764 be3d 9315 f738
00000330: cb5e 1340 304a 13c0 f59c 03be e985 3dbd
00000340: c37e 753b 5114 823a e63e 753d 7ba4 f03d
00000350: aace 263e c5ad 2fbe 2541 d43e 38b1 f1bd
00000360: b9b7 58be 7d78 213d 0c02 cebd 35e6 323e
00000370: 5b5d 38bf f3a2 c0bf d599 4a3e a8bb f93c
00000380: e58e d8bb 5156 013b 6f68 823d d423 b7bd
00000390: a8e9 6b3e 3518 083e 8ba3 6c3e a46f 45be
000003a0: f83d 4fbf 3f9d e9bd 1936 a6bc 27fd 7a3d
000003b0: 4d53 1340 4143 13c0 4434 46be c8c3 17be
000003c0: 6ffd 623d 9124 61bc 018b 55be 1091 843d
000003d0: 9c49 22be e6ce 52bd 18d3 b6bd 6f4a e33e
000003e0: 5391 cb3d 87c4 cc3d 6c0e 71be ab70 06bd
000003f0: 5c9a 8fbf bbe9 0dc0 76ee 6b3e 8c74 013e

fr1.bias f4 [50]
-0.05966702 0.04139018 -0.29233283 0.15740423 -0.23445249 0.10957004 -0.061492372 -0.3189478
0.02548571 -0.04264369 0.12560272 0.03851251 0.05660131 0.017221984 0.42346114 0.045679286
0.4350504 -0.15114559 0.118275434 -0.27465567 0.03794383 -0.4600637 -0.42648017 0.10887132
0.12620711 0.07557699 -0.091205925 0.021754246 0.0025907971 -0.05051028 -0.19233346 0.38147402
-0.20295468 0.48547772 -0.45758876 0.0055557857 -0.16599569 -0.43260935 -0.041357353 0.0454339
0.39747468 -0.36885908 -0.2523782 0.029070193 -0.18069755 -0.14845331 -0.05201884 -0.002101568
-0.07548161 0.008904842
00000000: 6865 74bd c088 293d a6ac 95be 932e 213e
00000010: 5014 70be 4266 e03d 6ddf 7bbd 204d a3be
00000020: 68c7 d03c 26ab 2ebd 009e 003e 4bbf 1d3d
00000030: c6d6 673d 1e15 8d3c e6cf d83e 341a 3b3d
00000040: edbe de3e e9c5 1abe 643a f23d ab9f 8cbe
00000050: fd6a 1b3d 788d ebbe 9c5b dabe edf7 de3d
00000060: 703c 013e 1cc8 9a3d 2cca babd f635 b23c
00000070: 5dca 293b dee3 4ebd 10f3 44be 9050 c33e
00000080: 5ad3 4fbe 8990 f83e 1349 eabe 4f0d b63b
00000090: c6fa 29be f97e ddbe 5466 29bd e618 3a3d
000000a0: cd81 cb3e 19db bcbe b737 81be 9d24 ee3c
000000b0: c708 39be 2504 18be b511 55bd 76ba 09bb
000000c0: 1a96 9abd 9de5 113c

fr2.weight f4 [25, 50]
-0.09046837 0.34134153 0.08299041 0.007889755 0.26162627 -0.07768827 0.12468987 0.16145708
0.18376726 0.013045735 0.15580873 0.11537586 0.27256536 0.051499803 -0.017548798 0.07231042
0.19970942 0.08243424 -0.08727032 -0.14137638 0.14737771 -0.012443277 -0.17665938 0.052981425
-0.008825444 0.25447628 -0.1825038 -0.012100536 -0.12762047 -0.13378838 0.007739677 0.05062327
-0.10000113 0.12895513 -0.00018717781 0.02560986 0.019145008 -0.17442694 -0.12868002 -0.06973235
0.23094873 -0.21629079 -0.028544491 -0.021112934 -0.029147951 0.30223405 -0.026318938 0.2571573
0.18686661 0.07607455 -0.06626402 -0.24832165 -0.15834609 0.13356507 -0.093268864 -0.0707631
-0.23753847 -0.0981646 0.1655126 -0.12695312 0.068248175 -0.06611584 -0.07966339 0.07894224
0.0008968558 -0.13925174 -0.033326667 -0.16497658 -0.22705768 -0.13890328 0.051619474 -0.09920097
-0.13491969 0.05899048 -0.05330661 -0.095114835 -0.0162167 -0.16668119 -0.10379034 -0.24702094
-0.034187302 0.12547901 -0.038672894 0.03393693 -0.15939836 -0.056060065 0.045654804 -0.22416471
-0.17595518 -0.16761817 0.039024718 -0.057446443 0.04997455 -0.11573451 -0.059184864 -0.092543766
0.059860814 -0.1439857 -0.11312109 0.07312149 0.20176832 0.28392974 0.03054067 -0.043770958
0.091677696 -0.19746007 -0.002467109 0.24298166 0.13965788 -0.17628124 0.34587628 0.03631237
0.32238665 0.0633935 -0.034209937 -0.054666083 -0.13698465 -0.058107648 -0.28218332 0.007736554
-0.172708 0.07183418 -0.099513225 -0.1528622 -0.27061838 0.319109 -0.23772988 -0.21841703
0.24210244 -0.15624963 -0.3170698 0.024268594 -0.06940008 -0.0045132334 -0.0844345 -0.18145588
-0.070907265 -0.06844313 -0.01536334 -0.268507 0.07469564 -0.019936657 -0.026276466 -0.27951068
-0.1705439 0.3174059 -0.0077457344 0.040277723 0.19942929 -0.07587873 0.07251625 -0.31288654
0.11847446 -0.15960227 -0.1513221 -0.11935536 0.09503354 0.021069441 0.035330355 -0.041098654
-0.3200221 0.08741449 -0.27755335 -0.028749246 -0.007816728 -0.004606346 -0.042565007 0.0009836236
-0.1968105 0.046003114 0.013801015 0.046077065 0.026195534 -0.02632739 -0.0012771008 -0.31734172
-0.054276556 -0.0834163 -0.15684792 -0.12448117 -0.15308836 -0.11439062 -0.133236 -0.06256301
0.06827629 -0.08070673 0.10707473 0.0644465 -0.11412556 -0.033985995 0.09360733 0.029502772
0.0727858 -0.0681541 -0.0912095 -0.31666344 0.015079317 0.14718024 -0.246145 -0.22323707
-0.0052401433 0.24016479 -0.10214099 0.16981275 -0.31132635 0.092574075 -0.21068624 -0.18602504
0.022280658 0.04271132 -0.007070825 0.04798873 0.233342 -0.12764806 0.018442497 0.051990326
0.005678994 -0.066691145 -0.0025647532 -0.056558877 -0.1636244 -0.17204766 -0.3098927 -0.10339907
0.10227875 0.07130381 -0.08981958 0.16463573 0.14954162 -0.08826276 0.0024528378 0.19510496
0.026130877 -0.00554915 -0.18391705 -0.122352675 -0.15865938 -0.21767572 -0.2625693 0.13709135
0.056595925 -0.13573776 -0.10378408 -0.05427662 0.081826955 0.11406955 0.066485494 -0.16980724
-0.20718245 0.04825567 -0.04656639 0.18767066 -0.026092634 -0.23546538 -0.1426006 0.10536588
00000000: 7b47 b9bd 51c4 ae3e e0f6 a93d 0844 013c
00000010: e1f3 853e 071b 9fbd 675d ff3d 0155 253e
00000020: 7c2d 3c3e c7bd 553c 538c 1f3e 2e4a ec3d
00000030: b08d 8b3e 75f1 523d 7fc2 8fbc 7c17 943d
00000040: a080 4c3e 48d3 a83d c8ba b2bd f8c4 10be
00000050: 2fea 163e e3de 4bbc 32e6 34be 0d03 593d
00000060: 9898 10bc b74a 823e 47e2 3abe 5441 46bc
00000070: f1ae 02be d2ff 08be 1e9d fd3b 595a 4f3d
00000080: 64cd ccbd d00c 043e 2945 44b9 c5cb d13c
00000090: fed5 9c3c fa9c 32be b2c4 03be d6cf 8ebd
000000a0: d37d 6c3e 557b 5dbe 23d6 e9bc 08f5 acbc
000000b0: afc7 eebc 6cbe 9a3e d09a d7bc 1faa 833e
000000c0: f659 3f3e f9cc 9b3d 6eb5 87bd 0848 7ebe
000000d0: 7a25 22be 48c5 083e bf03 bfbd 3fec 90bd
000000e0: 493d 73be 860a c9bd 237c 293e 0000 02be
000000f0: b3c5 8b3d be67 87bd 8f26 a3bd 78ac a13d
00000100: f91a 6b3a 0298 0ebe 8b81 08bd 9fef 28be
00000110: cf81 68be a93c 0ebe f16e 533d e129 cbbd
00000120: 6328 0abe 00a0 713d 0858 5abd 91cb c2bd
00000130: e3d8 84bc 79ae 2abe 0890 d4bd 0ff3 7cbe
00000140: fc07 0cbd 927d 003e 7867 1ebd 7301 0b3d
00000150: 5339 23be 3d9f 65bd 8800 3b3d 6f8b 65be
00000160: 982d 34be 19a4 2bbe 62d8 1f3d f64c 6bbd
00000170: 1db2 4c3d 3706 edbd d46b 72bd 9687 bdbd
00000180: 9d30 753d fd70 13be 08ac e7bd b8c0 953d
00000190: 5b9c 4e3e 3d5f 913e 6d30 fa3c 2d49 33bd
000001a0: 84c1 bb3d f932 4abe 38af 21bb 2fd0 783e
000001b0: 7a02 0f3e 1283 34be b216 b13e 48bc 143d
000001c0: dd0f a53e 74d4 813d b81f 0cbd 8be9 5fbd
000001d0: b445 0cbe 4902 6ebd 557a 90be eb82 fd3b
000001e0: 5eda 30be cc1d 933d 97cd cbbd e987 1cbe
000001f0: 7e8e 8abe 4162 a33e 766f 73be b7a8 5fbe
00000200: b4e9 773e e7ff 1fbe f956 a2be eece c63c
00000210: a121 8ebd bfe3 93bb ffeb acbd 92cf 39be
00000220: d437 91bd e92b 8cbd 85b6 7bbc c079 89be
00000230: 07fa 983d 3352 a3bc be41 d7bc 061c 8fbe
00000240: 0fa3 2ebe 0783 a23e eecf fdbb 41fa 243d
00000250: 3137 4c3e 4f66 9bbd 6683 943d aa32 a0be
00000260: bda2 f23d c76e 23be 2ef4 1abe 9570 f4bd
00000270: f2a0 c23d d299 ac3c 90b6 103d 1057 28bd
00000280: f0d9 a3be 5e06 b33d 791b 8ebe 8a83 ebbc
00000290: bc11 00bc d5f0 96bb a558 2ebd eeec 803a
000002a0: b188 49be c36d 3c3d a71d 623c 4ebb 3c3d
000002b0: 0498 d63c 8aac d7bc 6464 a7ba 9d7a a2be
000002c0: 1851 5ebd 2ad6 aabd be9c 20be fcef febd
000002d0: 32c3 1cbe a145 eabd 056f 08be 0921 80bd
000002e0: 71d4 8b3d 9249 a5bd ff49 db3d 87fc 833d
000002f0: a9ba e9bd e634 0bbd 33b5 bf3d ccaf f13c
00000300: b910 953d 6094 8bbd 0ccc babd b621 a2be
00000310: 3d0f 773c 6bb6 163e 6f0d 7cbe 4298 64be
00000320: 82b5 abbb c2ed 753e 4c2f d1bd 65e3 2d3e
00000330: 2b66 9fbe 7a97 bd3d 22be 57be 597d 3ebe
00000340: ed85 b63c 11f2 2e3d 61b2 e7bb d58f 443d
00000350: 35f1 6e3e 2cb6 02be b814 973c cff3 543d
00000360: db16 ba3b 5e95 88bd 6b15 28bb 48aa 67bd
00000370: 288d 27be 432d 30be 42aa 9ebe e4c2 d3bd
00000380: 8577 d13d bb07 923d 54f3 b7bd 4596 283e
00000390: 7021 193e 1bc3 b4bd cabf 203b 98c9 473e
000003a0: 6c10 d63c a5d5 b5bb c054 3cbe 0a94 fabd
000003b0: 9b77 22be 62e6 5ebe 7c6f 86be ad61 0c3e
000003c0: 21d1 673d d7fe 0abe bf8c d4bd 2951 5ebd
000003d0: e494 a73d 4c9d e93d 8c29 883d f3e1 2dbe
000003e0: a327 54be bda7 453d 66bc 3ebd bd2c 403e
000003f0: 38c0 d5bc d61d 71be e405 12be 11ca d73d

fr2.bias f4 [25]
-0.006571605 0.16919467 -0.18425171 0.06867308 0.21111329 -0.050123554 0.3387391 0.08365471
-0.016949212 0.076098934 -0.2604263 0.33882815 -0.17518093 -0.2858111 0.09571643 -0.0064286464
0.04220614 -0.14218125 0.4725866 0.37953928 0.017323852 0.21927106 -0.03740114 -0.36165798
-0.12498893
00000000: 9e56 d7bb 5e41 2d3e 7bac 3cbe 79a4 8c3d
00000010: 152e 583e 5b4e 4dbd 366f ad3e 2953 ab3d
00000020: 13d9 8abc c2d9 9b3d 9956 85be e27a ad3e
00000030: a162 33be d555 92be fa06 c43d 65a7 d2bb
00000040: 58e0 2c3d f697 11be dff6 f13e f952 c23e
00000050: c0ea 8d3c 9888 603e f031 19bd 3c2b b9be
00000060: 32fa ffbd

fr3.weight f4 [14, 25]
-0.12996185 -0.19281676 0.078716934 0.044737663 0.18860264 -0.100516625 -0.0027574128 -0.058891207
0.030942425 -0.013729993 0.26245522 -0.008704891 0.037729386 0.2671614 0.1201504 -0.097111896
-0.09737713 -0.18975158 -0.053105615 -0.100423284 -0.10204561 -0.06244736 0.044014543 -0.022933356
-0.08219433 0.0009854072 0.1576779 0.3181148 -0.11147628 0.021784695 0.017860092 0.35899892
0.03546865 -0.017041966 0.1379818 -0.14031483 0.12203615 -0.12714803 -0.014981184 0.03865379
0.12699844 -0.21627821 0.16208081 -0.014327528 0.33292642 0.071069956 0.08765063 -0.08063071
-0.0941089 0.13557427 0.09935462 0.21925369 -0.051197574 -0.021698298 -0.07386358 -0.041307062
0.08187401 -0.12946866 -0.32188708 -0.26830608 -0.03795124 -0.056563195 0.20476109 0.11875532
-0.22025448 -0.40448812 0.025923053 -0.32813635 -0.08277958 0.027325287 0.0013457139 -0.14697652
-0.038996786 0.12580296 -0.019452194 -0.27142876 -0.07932071 -0.11601864 0.099014044 -0.2336106
-0.19507357 -0.08743161 -0.11573946 0.001453486 -0.13534853 -0.007575726 -0.16346216 0.363354
0.079906575 -0.13509543 -0.0063317283 -0.023497783 -0.25882384 -0.115807794 -0.22214217 0.20774592
-0.22370195 0.09808114 0.1393765 0.20973873 0.20364963 -0.102703795 0.20194052 -0.22675991
-0.054911565 -0.009378325 0.030083517 -0.24580178 0.043073338 0.010065252 0.17316979 -0.13436872
0.06930536 -0.05908708 -0.12511979 0.1692213 -0.011029784 0.20239215 -0.06759699 0.08346601
0.016210418 -0.062275518 -0.0284033 0.15680067 -0.15175666 0.09492617 -0.14743447 0.036442116
0.07281547 -0.139225 0.13546325 0.020409886 0.07880724 0.08360298 -0.19646071 0.08543108
-0.14653006 0.23172833 0.08886465 -0.19244245 -0.060030516 0.14849454 0.21688044 0.07562123
0.22027361 -0.14670108 0.09091282 -0.0015342864 0.09598916 0.25985152 0.022187889 -0.1654813
0.07694494 0.25200364 0.113933146 0.13616219 0.10931735 0.107583255 -0.4031503 -0.19739603
0.24334309 -0.11083658 0.11743175 0.14009622 -0.3948836 -0.40720654 0.10596153 0.15916935
-0.10469266 0.093662694 -0.24352616 -0.10400718 -0.04111724 0.21123897 -0.12663239 0.21885514
0.2614926 -0.11775723 0.04451924 0.08463538 -0.102469705 0.09397176 0.05783772 -0.2114062
-0.260282 0.15754713 0.18057936 0.17068012 0.11816526 -0.33082646 -0.12456983 -0.02514968
0.010375413 0.16479662 0.02770491 0.014415262 -0.021526447 0.18839575 0.17346457 0.28158626
-0.0947126 0.09086422 -0.15348092 0.028259125 0.12398362 0.034695685 0.21047306 -0.07194581
-0.18376641 0.18292002 -0.12585552 0.12357373 -0.005690407 -0.17811958 -0.040052194 0.07798645
0.11501236 -0.35660318 0.14761037 0.18419401 0.25724217 -0.13711554 -0.030918775 -0.18408114
0.17558876 -0.12804267 0.0600647 -0.18248738 0.14295702 -0.0059093637 -0.16037364 -0.09669604
0.039327547 -0.124931 -0.01002282 0.15537581 -0.044941325 0.10609178 0.19033667 0.11774142
-0.035018016 0.07849383 -0.0044731367 0.05609924 -0.08375478 0.11391313 -0.108336955 0.07746424
0.14671887 0.09111565 -0.057167985 -0.053267114 0.21204509 0.13278396 0.074334584 0.25217992
00000000: b814 05be c271 45be 5836 a13d d73e 373d
00000010: 0d21 413e a9db cdbd b6b5 34bb e837 71bd
00000020: f87a fd3c c4f3 60bc 8860 863e f69e 0ebc
00000030: 218a 1a3d 61c9 883e 6a11 f63d 9ae2 c6bd
00000040: a96d c7bd 3d4e 42be 4685 59bd b9aa cdbd
00000050: 4afd d0bd cec8 7fbd 9848 343d bcde bbbc
00000060: 8055 a8bd c728 813a 5176 213e f1df a23e
00000070: ad4d e4bd d175 b23c 544f 923c b5ce b73e
00000080: 9347 113d 989b 8bbc 1a4b 0d3e b1ae 0fbe
00000090: 17ee f93d 1833 02be a473 75bc 7053 1e3d
000000a0: e10b 023e 0978 5dbe 83f8 253e 02be 6abc
000000b0: 5575 aa3e 208d 913d 2c82 b33d b721 a5bd
000000c0: 2bbc c0bd fbd3 0a3e 6f7a cb3d 0a84 603e
000000d0: 8cb4 51bd a1c0 b1bc ca45 97bd 9831 29bd
000000e0: 90ad a73d 6f93 04be 62ce a4be 6a5f 89be
000000f0: c272 1bbd cfae 67bd e4ac 513e fd35 f33d
00000100: 648a 61be 1119 cfbe 955c d43c 7d01 a8be
00000110: 5788 a9bd 48d9 df3c aa62 b03a 0381 16be
00000120: 18bb 1fbd 7ed2 003e 355a 9fbc b6f8 8abe
00000130: e572 a2bd 2e9b edbd e0c7 ca3d 9e37 6fbe
00000140: 5ec1 47be 580f b3bd cf08 edbd e682 be3a
00000150: ce98 0abe cc3d f8bb a062 27be 8909 ba3e
00000160: 0fa6 a33d 7556 0abe 637a cfbb 6c7e c0bc
00000170: 8f84 84be a32c edbd 3d79 63be 59bb 543e
00000180: 2012 65be c4de c83d b7b8 0e3e c0c5 563e
00000190: 8789 503e 5e56 d2bd 7fc9 4e3e c033 68be
000001a0: f3ea 60bd 8ca7 19bc b571 f63c 76b3 7bbe
000001b0: ab6d 303d bae8 243c 6c53 313e f497 09be
000001c0: f8ef 8d3d 4b05 72bd 671f 00be 5948 2d3e
000001d0: 44b6 34bc e33f 4f3e 4a70 8abd 3af0 aa3d
000001e0: b6cb 843c 9d14 7fbd 0aae e8bc 5b90 203e
000001f0: 1966 1bbe a768 c23d 10f9 16be 5444 153d
00000200: 4720 953d 0091 0ebe e1b6 0a3e a232 a73c
00000210: b165 a13d 0a38 ab3d ff2c 49be 7df6 ae3d
00000220: fa0b 16be 314a 6d3e abfe b53d a20f 45be
00000230: 8fe2 75bd f40e 183e e815 5e3e 4edf 9a3d
00000240: 688f 613e cf38 16be 8030 ba3d 1c1a c9ba
00000250: f795 c43d 420b 853e 60c3 b53c ee73 29be
00000260: 4f95 9d3d 9f06 813e c855 e93d 1a6e 0b3e
00000270: c6e1 df3d 9c54 dc3d b769 cebe 2f22 4abe
00000280: ee2e 793e 4afe e2bd 0f80 f03d 6275 0f3e
00000290: 2f2e cabe 607d d0be 5c02 d93d 4afd 223e
000002a0: 1b69 d6bd 3ad2 bf3d ec5e 79be b701 d5bd
000002b0: 8d6a 28bd 074f 583e ecab 01be 901b 603e
000002c0: 5ce2 853e b42a f1bd ce59 363d 5055 ad3d
000002d0: a3db d1bd 4474 c03d 3fe7 6c3d de7a 58be
000002e0: af43 85be 0954 213e cce9 383e c5c6 2e3e
000002f0: a100 f23d 1662 a9be 781e ffbd b406 cebc
00000300: a3fd 293c 72c0 283e 68f5 e23c fe2d 6c3c
00000310: 3b58 b0bc d1ea 403e b2a0 313e 132c 903e
00000320: aef8 c1bd 0517 ba3d 1a2a 1dbe ae7f e73c
00000330: 20eb fd3d 101d 0e3d 4086 573e 5358 93bd
00000340: 432d 3cbe 634f 3b3e 45e0 00be 3914 fd3d
00000350: 9876 babb fb64 36be c50d 24bd 5cb7 9f3d
00000360: 9a8b eb3d b194 b6be 2c27 173e 5b9d 3c3e
00000370: 3fb5 833e 0468 0cbe 5f49 fdbc c47f 3cbe
00000380: 8acd 333e 9e1d 03be 6706 763d f9dd 3abe
00000390: 5363 123e 56a3 c1bb fd38 24be 9308 c6bd
000003a0: ec15 213d d3db ffbd c136 24bc d61a 1f3e
000003b0: 6514 38bd a646 d93d 9ee7 423e 6a22 f13d
000003c0: 0d6f 0fbd 60c1 a03d 6493 92bb 51c8 653d
000003d0: a087 abbd 494b e93d c4df ddbd 92a5 9e3d
000003e0: 793d 163e d89a ba3d fa28 6abd 9e2e 5abd
000003f0: 5922 593e 85f8 073e bb3c 983d ba1d 813e

fr3.bias f4 [14]
-0.09719543 0.073154934 -0.049043156 0.12127892 -0.3044075 -0.09764504 -0.15883522 0.1996594
0.20811228 -0.012296088 0.21771307 0.1899289 -0.17644191 -0.14842036
00000000: 660e c7bd 41d2 953d 7ae1 48bd 1561 f83d
00000010: 4ddb 9bbe 1ffa c7bd b3a5 22be 8473 4c3e
00000020: 631b 553e 8875 49bc 2df0 5e3e b97c 423e
00000030: 30ad 34be 82fb 17be

fo1.weight f4 [50, 30]
-0.051345356 0.023887694 -0.099859655 0.18345068 -0.29022607 0.19083259 -0.10199009 0.1270522
0.8296392 -0.0566478 0.16871752 0.21305971 0.8818707 -0.8835559 0.09139321 -0.17250392
0.19250526 0.19272996 -0.057952378 0.036547493 -0.1867118 -0.13597378 -0.13387303 0.12425021
0.03152174 -0.0153176915 -0.11234932 0.1693765 0.02801368 0.20335068 -0.0017499129 0.018180693
0.05796292 0.18719488 0.019760061 0.2324619 -0.02865788 0.092342496 0.3719232 -0.15269949
-0.015397735 0.055208076 0.88329625 -0.88280064 0.23502955 0.01203468 -0.021047788 0.1255424
0.10389333 0.052447442 -0.12018022 -0.014238805 -0.09566286 0.15153573 -0.042860042 0.08352739
0.08904378 0.23393369 0.082594454 0.12472347 0.007266907 0.019502142 -0.005901915 0.17294927
-0.2774324 0.32636634 -0.168514 0.036401432 -0.07026095 0.08917619 0.031977545 0.05987702
0.88399816 -0.88154066 0.15909892 -0.14243622 0.19463043 0.08450459 -0.005899403 -0.09841637
0.065135725 -0.15007141 -0.046458535 0.24923661 -0.16671187 -0.018958505 -0.01971912 0.16930199
0.077988274 0.18748765 -0.01827247 -0.0697187 0.032518722 0.1171012 0.35002834 0.12814268
0.10145713 -0.2550995 0.3195085 -0.05083269 -0.28088635 -0.24743068 0.88266164 -0.88349044
-0.10170853 -0.18912642 0.06799088 0.05012983 0.03755274 -0.17725897 -0.14221339 0.1735718
-0.05657857 0.04812752 0.07230413 -0.081131525 -0.10472606 0.21436404 0.009595097 0.023505824
-0.008965399 0.040754955 -0.0097756125 0.11954217 -0.8280676 0.26870748 -0.6363269 -0.0030648648
0.37059453 -0.27944046 0.06837382 -0.10162724 0.052284308 -0.8061155 0.19008416 -0.09534156
-0.0315636 -0.13600917 0.010185674 -0.010763432 0.1972847 0.117453985 -0.11627785 0.13560875
-0.027400872 0.11134178 -0.015011574 -0.07862847 0.08076364 -0.020316841 0.05296763 -0.020384286
0.020082096 0.013126846 -0.39832723 0.13078833 -0.3975279 0.05129037 -0.4141147 0.19011797
0.013071945 0.523492 -0.8826928 0.8828628 0.11788316 0.37936878 0.013997697 0.098462336
0.09240958 -0.1724712 0.01259453 0.074876726 0.22062133 -0.10084097 0.14593019 -0.22884971
0.049379315 -0.17422843 0.011079443 0.18063343 0.035945445 -0.048610758 -0.011824693 -0.3861574
0.4140466 -0.22458322 0.32138973 -0.2902558 0.14822112 0.21847479 -0.048411377 -0.036986414
0.8827519 -0.88214034 -0.2935777 -0.03337369 -0.049924623 0.10308561 -0.026290145 0.060885802
-0.30363625 -0.31647784 0.09414888 -0.03499289 0.12569968 -0.17934826 -0.11612869 -0.051104795
-0.051785357 -0.010876805 -0.033519875 -0.005721963 -0.03406386 0.28758073 0.050017495 0.3566222
-0.014112303 -0.17888501 0.08700696 -0.42101687 -0.09541626 -0.27305326 -0.8832492 0.8823878
0.07482999 -0.44301847 0.019418448 0.026812809 0.10897586 -0.14375106 0.038989846 -0.036564685
-0.18618163 0.1061202 -0.06666699 0.05672921 0.2613599 -0.0142482 0.1493827 0.03661622
-0.012798337 -0.023151506 0.005817728 0.10326293 -0.38120267 0.06051745 -0.53117174 -0.054391984
0.1981757 -0.35217527 0.098869 0.021040611 -0.8829546 0.40938532 -0.019544393 -0.21169022
00000000: 824f 52bd 20b0 c33c 3883 ccbd 7fda 3b3e
00000010: 8398 94be 9e69 433e 2ee0 d0bd f919 023e
00000020: 3c63 543f 8607 68bd 49c4 2c3e 532c 5a3e
00000030: 47c2 613f b830 62bf 5d2c bb3d dea4 30be
00000040: 1920 453e 015b 453e 795f 6dbd d3b2 153d
00000050: 6131 3fbe b63c 0bbe 0316 09be e576 fe3d
00000060: f11c 013d 0ef7 7abc 6617 e6bd 0971 2d3e
00000070: f27c e53c 293b 503e 555d e5ba adef 943c
00000080: 876a 6d3d 04b0 3f3e dadf a13c 7e0a 6e3e
00000090: eec3 eabc 101e bd3d b86c be3e 415d 1cbe
000000a0: c846 7cbc dd21 623d b41f 623f 39ff 61bf
000000b0: 96ab 703e 1b2d 453c 696c acbc 308e 003e
000000c0: 07c6 d43d 21d3 563d 0c21 f6bd e049 69bc
000000d0: e4ea c3bd 2f2c 1b3e 038e 2fbd 6910 ab3d
000000e0: 965c b63d 508c 6f3e 4827 a93d 056f ff3d
000000f0: 3c1f ee3b f5c2 9f3c da64 c1bb 9d19 313e
00000100: 9f0b 8ebe 7d19 a73e ef8e 2cbe ab19 153d
00000110: f9e4 8fbd 02a2 b63d e3fa 023d 9b41 753d
00000120: b44d 623f a6ac 61bf d4ea 223e cdda 11be
00000130: 334d 473e be10 ad3d c74f c1bb 868e c9bd
00000140: e165 853d 52ac 19be 4e4b 3ebd e237 7f3e
00000150: 84b6 2abe de4e 9bbc fe89 a1bc 805d 2d3e
00000160: 51b8 9f3d c3fc 3f3e 26b0 95bc aec8 8ebd
00000170: 5a32 053d c1d2 ef3d ea36 b33e d637 033e
00000180: c1c8 cf3d 679c 82be 9e96 a33e f035 50bd
00000190: 56d0 8fbe 785e 7dbe 1df6 613f 6e2c 62bf
000001a0: 904c d0bd 5baa 41be cd3e 8b3d f054 4d3d
000001b0: e7d0 193d 6083 35be 63a0 11be cebc 313e
000001c0: eebe 67bd 5d21 453d 3014 943d 4928 a6bd
000001d0: 9e7a d6bd 3f82 5b3e c134 1d3c 498f c03c
000001e0: 9ce3 12bc abee 263d e429 20bc 86d2 f43d
000001f0: 3dfc 53bf 0794 893e 52e6 22bf e6db 48bb
00000200: 91be bd3e d212 8fbe 9307 8c3d f121 d0bd
00000210: 1228 563d 965d 4ebf 6ca5 423e 7042 c3bd
00000220: d548 01bd fd45 0bbe d0e1 263c 1b59 30bc
00000230: 0005 4a3e b78b f03d 1523 eebd 05dd 0a3e
00000240: cb77 e0bc 2907 e43d 1bf3 75bc f707 a1bd
00000250: 6867 a53d 816f a6bc 96f4 583d f2fc a6bc
00000260: 3583 a43c fc11 573c 8cf1 cbbe 60ed 053e
00000270: c788 cbbe da15 523d d806 d4be 49ae 423e
00000280: b62b 563c 9203 063f 28f8 61bf 4c03 623f
00000290: ba6c f13d a03c c23e 9956 653c 9fa6 c93d
000002a0: 3c41 bd3d 4a9c 30be 4a59 4e3c f858 993d
000002b0: 8fea 613e b685 cebd b96e 153e 9457 6abe
000002c0: f741 4a3d f068 32be 8d86 353c f8f7 383e
000002d0: 883b 133d 131c 47bd 5bbc 41bc 6cb6 c5be
000002e0: eafd d33e 25f9 65be 328d a43e 699c 94be
000002f0: 47c7 173e dbb7 5f3e 024b 46bd 117f 17bd
00000300: 07fc 613f f3d3 61bf d14f 96be dab2 08bd
00000310: c37d 4cbd 8c1e d33d 6e5e d7bc 6463 793d
00000320: 3676 9bbe 6209 a2be 21d1 c03d b454 0fbd
00000330: 6bb7 003e 12a7 37be e1d4 edbd 4353 51bd
00000340: e21c 54bd a034 32bc 234c 09bd 4e7f bbbb
00000350: 8c86 0bbd c83d 933e 25df 4c3d 2f97 b63e
00000360: 4a37 67bc a22d 37be b430 b23d 868f d7be
00000370: 9a69 c3bd a3cd 8bbe 9f1c 62bf 2be4 613f
00000380: 7740 993d 51d3 e2be 7013 9f3c 89a6 db3c
00000390: bc2e df3d 7a33 13be d1b3 1f3d dac4 15bd
000003a0: 66a6 3ebe 8c55 d93d b488 88bd e35c 683d
000003b0: f7d0 853e 4871 69bc c7f7 183e e4fa 153d
000003c0: 1eb0 51bc 3aa8 bdbc a4a2 be3b 847b d33d
000003d0: ff2c c3be 25e1 773d dffa 07bf 21ca 5ebd
000003e0: 92ee 4a3e 5150 b4be d57b ca3d 5c5d ac3c
000003f0: 5009 62bf f49a d13e 901b a0bc 52c5 58be

fo1.bias f4 [50]
-0.10512389 -0.3016596 -0.2886114 -0.20799857 -0.014375497 -0.3956355 -0.18710221 0.2388533
-0.20232293 -0.008588751 -0.08515141 -0.2683049 -0.19293381 0.19269182 -0.16164623 0.026783206
-0.29525426 -0.26379955 -0.09348791 -0.038891107 -0.2698688 0.06756716 -0.026164873 -0.11934862
0.23836902 0.237776 0.24296366 -0.03497186 0.24876307 0.052948702 0.23885424 0.13777986
-0.3145571 -0.066231705 -0.33316794 -0.18225233 0.22936563 -0.14508343 -0.118383996 -0.13803336
-0.07357803 0.073720366 -0.25764185 -0.35528764 -0.09020066 -0.04781136 -0.1498073 0.07678405
0.06896797 -0.07158255
00000000: 324b d7bd 2173 9abe e0c4 93be 94fd 54be
00000010: 3487 6bbc bc90 cabe b997 3fbe f695 743e
00000020: be2d 4fbe d5b7 0cbc dd63 aebd 435f 89be
00000030: 7190 45be 0151 453e 9786 25be 7468 db3c
00000040: 912b 97be bc10 87be 9776 bfbd 484c 1fbd
00000050: 3e2c 8abe a760 8a3d b757 d6bc 0d6d f4bd
00000060: 0217 743e 8d7b 733e 77cb 783e a73e 0fbd
00000070: bfbb 7e3e bde0 583d 3596 743e 2a16 0d3e
00000080: a10d a1be 7da4 87bd fd94 aabe 5ba0 3abe
00000090: d3de 6a3e c090 14be 4f73 f2bd 9e58 0dbe
000000a0: 14b0 96bd b4fa 963d a2e9 83be 43e8 b5be
000000b0: 20bb b8bd d8d5 43bd 1667 19be f540 9d3d
000000c0: 143f 8d3d df99 92bd

fo2.weight f4 [25, 50]
0.059525233 -0.04825966 0.15549842 0.020159926 0.090928204 -0.008688039 -0.23993579 0.23444496
0.08925974 0.15353137 -0.077651024 0.04869593 0.1436324 -0.005849429 0.10248417 0.10797636
-0.06167996 -0.14801873 0.0020666884 0.095372096 0.06934591 0.18101792 -0.08980153 0.0024142538
-0.021964002 0.009323593 -0.16981775 0.12993714 -0.13542758 -0.01439 0.07901451 -0.05660692
0.13926695 -0.031384345 0.0064367503 -0.33365655 -0.09772526 -0.17603657 -0.13307555 -0.27195135
-0.13750945 -0.23242462 0.05890848 0.1562072 0.012457231 -0.17043047 0.11495619 0.037503663
0.037906177 0.08152496 -0.27566746 0.18327694 -0.09849275 -0.09296313 0.123777725 -0.21130061
-0.22062382 -0.18626726 0.13955855 0.056611612 -0.1310623 0.1435471 -0.05413606 -0.07973193
0.10400803 0.028687578 -0.26027593 -0.07895312 0.024071878 -0.09358554 0.027350938 0.15230487
-0.05912073 0.06706685 -0.02945705 -0.1432697 0.12074182 0.0990321 0.113686375 0.13479887
-0.038280386 -0.01689434 0.02913153 -0.13332446 0.21868369 -0.0005497175 -0.09278644 -0.08207023
0.010092724 -0.0781916 0.06834841 -0.066675544 -0.09284686 0.063793205 0.10386805 0.024762327
0.119995445 0.123176605 -0.18344276 0.04708248 -0.057809245 -0.09960956 0.053164996 0.01857355
-0.007258852 0.011000982 -0.11830132 0.05435714 0.032050572 0.08418337 0.12061811 -0.14995033
-0.013039229 0.049772803 -0.032369014 0.05762979 0.22342083 0.08817796 0.030820101 -0.032001566
-0.015492685 0.09529032 0.08279991 -0.12572917 0.1572015 0.11131672 0.07635867 -0.07473141
-0.06852223 0.07623825 -0.1156923 0.05526322 0.14428996 -0.04940334 0.13857386 0.0018767281
0.08343891 -0.00736119 0.120049044 0.10502513 0.005316839 0.0068445182 -0.07502583 0.03520111
0.15210824 0.008469518 -0.052842174 -0.048946112 0.027986081 -0.018784985 -0.26383176 0.12457865
-0.0801868 -0.08392554 -0.112037525 -0.14054129 0.0025578805 -0.22094092 -0.40992567 -0.39371
0.0807322 -0.15620185 0.042446055 0.014287491 0.076408684 -0.40923208 -0.071418904 -0.1047277
-0.12277635 0.13223365 0.078866035 0.034087427 -0.12150923 0.045215726 -0.116883814 -0.05481487
-0.023057716 0.08715216 -0.1671079 -0.048091337 0.15098614 -0.019834075 -0.1032742 -0.01609375
-0.16338398 -0.32459658 0.119901314 -0.036579624 0.06348319 -0.25043002 0.080225475 -0.091839455
-0.20721191 -0.273152 -0.21955836 -0.13683383 0.011806374 -0.0030750057 -0.09260447 -0.040552806
-0.07279414 -0.05265251 0.109391 0.012204239 -0.120557025 -0.012108429 -0.10692312 0.052223608
0.088133715 -0.27245885 -0.12291449 -0.05973305 -0.085784756 0.07926596 -0.3076631 -0.13349892
-0.11823936 0.2021748 -0.13677262 0.051727325 0.10703356 0.109867185 -0.019129353 0.0075842105
0.012888169 0.00029385445 0.03175061 -0.08133873 0.019753177 -0.05469054 -0.05812509 -0.38477004
-0.048652504 -0.079714045 -0.14141753 0.03674167 -0.0857208 0.14204967 0.057047915 -0.24015848
0.05146947 -0.01728951 0.06504804 -0.23797178 -0.10153805 -0.13788001 -0.025260486 0.13738358
-0.0023079722 0.13916959 0.038096145 0.085954055 -0.08112144 0.0018109777 0.13162492 0.054267384
00000000: bbd0 733d ecab 45bd fa3a 1f3e 6e26 a53c
00000010: 9138 ba3d 4758 0ebc bab1 75be 5712 703e
00000020: d0cd b63d 5437 1d3e 8007 9fbd 6275 473d
00000030: 5f14 133e 91ac bfbb 38e3 d13d b622 dd3d
00000040: 20a4 7cbd 3992 17be 4771 073b 7252 c33d
00000050: 3a05 8e3d c35c 393e dde9 b7bd 7538 1e3b
00000060: daed b3bc fcc1 183c b4e4 2dbe 3e0e 053e
00000070: 87ad 0abe 09c4 6bbc 5cd2 a13d a8dc 67bd
00000080: ff9b 0e3e df8c 00bd 60eb d23b 08d5 aabe
00000090: 2e24 c8bd ee42 34be f544 08be 353d 8bbe
000000a0: 47cf 0cbe b800 6ebe 054a 713d c8f4 1f3e
000000b0: 6a19 4c3c 5385 2ebe 276e eb3d 719d 193d
000000c0: 8243 1b3d 8ff6 a63d 4924 8dbe f3ac 3b3e
000000d0: 91b6 c9bd 7463 bebd 2d7f fd3d 305f 58be
000000e0: 36eb 61be d8bc 3ebe 70e8 0e3e 94e1 673d
000000f0: 3235 06be 03fe 123e c6bd 5dbd 7e4a a3bd
00000100: 2902 d53d 3602 eb3c e342 85be 2cb2 a1bd
00000110: 6332 c53c c7a9 bfbd 130f e03c cff5 1b3e
00000120: 9428 72bd 585a 893d e94f f1bc 4bb5 12be
00000130: 7d47 f73d 57d1 ca3d 67d4 e83d b708 0a3e
00000140: e5cb 1cbd 0066 8abc 3fa5 ee3c 3586 08be
00000150: 9eee 5f3e eb1a 10ba d106 bebd 7014 a8bd
00000160: f45b 253c eb22 a0bd 40fa 8b3d 308d 88bd
00000170: 7f26 bebd 03a6 823d c6b8 d43d 5dda ca3c
00000180: 2cc0 f53d 0444 fc3d 6bd8 3bbe 8fd9 403d
00000190: 63c9 6cbd 1900 ccbd 8ac3 593d 8f27 983c
000001a0: aadb edbb 763d 343c f647 f2bd 98a5 5e3d
000001b0: 7647 033d 5568 ac3d a106 f73d 948c 19be
000001c0: 7ea2 55bc 91de 4b3d 5f95 04bd 370d 6c3d
000001d0: 6ec8 643e a596 b43d 707a fc3c 1314 03bd
000001e0: 08d5 7dbc 9227 c33d 0093 a93d 26bf 00be
000001f0: 6ef9 203e 05fa e33d ef61 9c3d c80c 99bd
00000200: 6255 8cbd cd22 9c3d 16f0 ecbd b05b 623d
00000210: bfc0 133e 285b 4abd 4ee6 0d3e 8cfc f53a
00000220: 05e2 aa3d 2336 f1bb 46dc f53d 6a17 d73d
00000230: e138 ae3b fb47 e03b 24a7 99bd 0a2f 103d
00000240: 43c2 1b3e bcc3 0a3c 0971 58bd b87b 48bd
00000250: 1143 e53c f8e2 99bc f514 87be 1723 ff3d
00000260: fa38 a4bd 27e1 abbd ee73 e5bd 0eea 0fbe
00000270: 1da2 273b 563e 62be c7e1 d1be 5b94 c9be
00000280: ec56 a53d 61f3 1fbe eadb 2d3d 1516 6a3c
00000290: 287c 9c3d de86 d1be 1344 92bd 7a7b d6bd
000002a0: 2b72 fbbd 4268 073e 8484 a13d 429f 0b3d
000002b0: d5d9 f8bd 2034 393d c860 efbd 8f85 60bd
000002c0: 89e3 bcbc d57c b23d 551e 2bbe 6cfb 44bd
000002d0: 1c9c 1a3e 127b a2bc 6c81 d3bd 0ad7 83bc
000002e0: 214e 27be 8631 a6be d28e f53d 84d4 15bd
000002f0: 7a03 823d 5d38 80be 414d a43d 5316 bcbd
00000300: 5c2f 54be 94da 8bbe e8d3 60be 2b1e 0cbe
00000310: 866f 413c 0986 49bb 6aa7 bdbd b31a 26bd
00000320: 1815 95bd 29aa 57bd 6308 e03d 4af4 473c
00000330: 9ae6 f6bd 6f62 46bc 82fa dabd 6ce8 553d
00000340: 737f b43d ba7f 8bbe 98ba fbbd a5aa 74bd
00000350: ebaf afbd 3156 a23d 0586 9dbe f1b3 08be
00000360: 7a27 f2bd e906 4f3e 1f0e 0cbe 08e0 533d
00000370: 6934 db3d 0c02 e13d 29b5 9cbc f884 f83b
00000380: e628 533c 7a10 9a39 ed0c 023d ec94 a6bd
00000390: 6ad1 a13c 3003 60bd 9314 6ebd 9400 c5be
000003a0: d947 47bd 1e41 a3bd c2cf 10be 6f7e 163d
000003b0: 638e afbd 7875 113e 13ab 693d 1bec 75be
000003c0: a7d1 523d bba2 8dbc e837 853d e0ae 73be
000003d0: 2ef3 cfbd 6b30 0dbe 14ef cebc 48ae 0c3e
000003e0: 5941 17bb 7982 0e3e b40a 1c3d ae08 b03d
000003f0: ff22 a6bd 545e ed3a afc8 063e 7a47 5e3d

fo2.bias f4 [25]
0.28093132 0.14787671 -0.06698405 0.22819296 0.25260004 -0.03526103 0.11329761 0.078369476
0.34488466 0.26219827 -0.31568784 -0.12071347 -0.12659918 0.12197166 -0.017655402 0.22391011
0.061016705 0.2686438 0.023824345 -0.18790688 -0.10447309 0.12756972 0.0050668623 0.061550908
-0.1295946
00000000: 3bd6 8f3e fe6c 173e ef2e 89bd 6aab 693e
00000010: cb54 813e df6d 10bd 9408 e83d 2d80 a03d
00000020: b994 b03e da3e 863e d6a1 a1be a038 f7bd
00000030: 37a3 01be 47cc f93d 10a2 90bc b148 653e
00000040: a7ec 793d ae8b 893e 462b c33c a96a 40be
00000050: fdf5 d5bd a3a1 023e ec07 a63b ce1c 7c3d
00000060: 72b4 04be

fo3.weight f4 [10, 25]
0.14837427 -0.04148832 0.1361381 0.018147575 -0.1390034 0.09744573 -0.008940389 -0.0830788
-0.064155445 -0.051542036 0.04936003 -0.33827004 -0.016900212 0.07610645 -0.04819099 0.15398623
0.21554309 -0.12740818 0.26103944 -0.014645924 -0.20926714 0.07531624 -0.0160257 0.109940425
0.008409304 0.15171859 -0.1626427 -0.15555178 -0.0018353525 -0.08954423 -0.13907692 0.014280465
0.10435834 0.0022526984 0.13445666 0.3022092 0.0645274 0.3486125 0.046337485 -0.09008406
0.34282482 -0.111208245 0.0009829991 0.086828366 -0.29952845 -0.13152166 0.1408303 -0.24471925
0.3483985 -0.017178573 0.06502452 -0.040173445 0.0809327 -0.045194115 0.022976777 -0.24084918
0.086810924 0.27873147 -0.04481313 0.08760218 0.33838603 0.15549983 0.33787796 -0.094855964
-0.10498754 -0.062966585 -0.10263502 -0.017367607 0.005476438 -0.34940997 -0.12990798 -0.07258861
0.091819115 -0.048692167 -0.04006189 0.2727365 0.016753655 0.013283651 0.021227034 -0.3135284
-0.033945993 0.1731257 0.120322146 -0.06362241 -0.22747858 0.27307498 -0.12186502 -0.22895066
-0.34785086 -0.16699788 0.06012241 0.1485668 0.0024605938 0.07871607 -0.29629737 -0.07637646
-0.006120877 0.09125409 -0.15684967 -0.01919618 -0.3484766 0.0072727166 -0.00924492 -0.05701485
0.0057983594 0.21546264 -0.0071072127 0.12191648 0.024821818 -0.004151166 0.21354298 0.043711785
-0.122470014 -0.016449621 0.08464553 -0.026246566 -0.07356828 0.072383985 0.13543344 -0.0027912662
-0.09455453 0.22350523 -0.063027695 0.21291916 0.007677099 -0.041367218 -0.19115402 -0.24083449
0.07522079 -0.06384781 0.15116258 0.02575528 -0.0061619366 0.021216167 0.13318132 -0.0055336887
0.08030802 0.2940459 -0.14439523 -0.1363047 0.08032269 -0.010425456 0.059088625 0.24735956
-0.08629628 0.12398967 -0.34701914 -0.2397716 0.21810971 0.00076752977 0.05982541 -0.18269847
-0.04599302 0.02472447 -0.3101531 0.14813493 -0.16383845 -0.06744702 0.07595505 -0.34520173
0.24598883 0.047174513 0.19586635 0.014150719 0.07680997 -0.25870115 0.07412818 0.0029012642
0.13537098 -0.0008234386 0.06586332 0.03480381 0.021695776 -0.19947888 -0.12262324 0.047161397
0.05914552 -0.03318393 -0.056733407 0.053436477 -0.14710839 -0.10901377 0.18845159 -0.07612756
0.055730984 0.12651376 -0.06638986 0.159217 -0.17224446 -0.1910013 0.21633767 0.084072076
0.03392009 0.002129133 -0.08874336 0.024675192 0.056965373 -0.08167029 0.13019669 0.21710545
-0.17489345 0.23115505 0.043215815 -0.34920597 -0.0041769017 -0.25907692 -0.1446607 0.11736532
0.16794866 -0.08448421 -0.06975872 0.088046916 0.34893793 0.114930265 -0.15411554 0.2097375
0.12881444 -0.28311026 0.015587958 -0.16769712 0.030720513 -0.092989005 -0.06554703 -0.06670387
0.04943182 -0.18983167 0.01019369 0.051559616 -0.06783127 0.012016474 0.20793135 -0.016398748
0.15974438 -0.08002158 0.0067511234 0.100485206 0.18200281 0.16135004 -0.1719838 0.07009921
-0.0064493003 -0.031103954 -0.034766752 -0.013517891 0.051959228 0.0638081 0.29834023 0.029876264
0.24101521 -0.019152345
00000000: 6def 173e a8ef 29bd c967 0b3e 39aa 943c
00000010: e856 0ebe a091 c73d b67a 12bc 3825 aabd
00000020: ee63 83bd be1d 53bd be2d 4a3d bb31 adbe
00000030: 5072 8abc b3dd 9b3d ea63 45bd 91ae 1d3e
00000040: 54b7 5c3e 4a77 02be f6a6 853e 75f5 6fbc
00000050: 204a 56be 673f 9a3d 5448 83bc 7228 e13d
00000060: 2dc7 093c 1e5c 1b3e cf8b 26be f748 1fbe
00000070: 3690 f0ba f762 b7bd 2e6a 0ebe 9df8 693c
00000080: d3b9 d53d 02a2 133b 02af 093e 2abb 9a3e
00000090: f126 843d 567d b23e 60cc 3d3d fe7d b8bd
000000a0: bc86 af3e 26c1 e3bd fad7 803a 12d3 b13d
000000b0: cb5b 99be 9dad 06be d135 103e af97 7abe
000000c0: 4a61 b23e 14ba 8cbc 932b 853d e98c 24bd
000000d0: 0bc0 a53d 771d 39bd cb39 bc3c 2ba1 76be
000000e0: edc9 b13d e4b5 8e3e f98d 37bd c668 b33d
000000f0: ef40 ad3e 593b 1f3e 57fe ac3e d843 c2bd
00000100: b503 d7bd a0f4 80bd 4f32 d2bd 8346 8ebc
00000110: b173 b33b dde5 b2be 9906 05be 56a9 94bd
00000120: a90b bc3d 7071 47bd f017 24bd 1ea4 8b3e
00000130: f63e 893c aca3 593c 51e4 ad3c cb86 a0be
00000140: f40a 0bbd dd47 313e 756b f63d 774c 82bd
00000150: 25f0 68be 7cd0 8b3e 5e94 f9bd 0b72 6abe
00000160: 8219 b2be 7e01 2bbe eb42 763d e521 183e
00000170: ea41 213b e435 a13d 4ab4 97be 436b 9cbd
00000180: a391 c8bb 6de3 ba3d 339d 20be 4f41 9dbc
00000190: 866b b2be f84f ee3b 0178 17bc 6788 69bd
000001a0: 2a00 be3b 3da2 5c3e 9fe3 e8bb 59af f93d
000001b0: 2057 cb3c 8106 88bb 03ab 5a3e 210b 333d
000001c0: 8fd1 fabd 5bc1 86bc a35a ad3d 0a03 d7bc
000001d0: f7aa 96bd 0e3e 943d 10af 0a3e aded 36bb
000001e0: cea5 c1bd 8ede 643e aa14 81bd 7b07 5a3e
000001f0: 2d90 fb3b ac70 29bd e1bd 43be 519d 76be
00000200: 5c0d 9a3d a4c2 82bd 5dca 1a3e bdfc d23c
00000210: 12ea c9bb 87cd ad3c af60 083e f253 b5bb
00000220: 8878 a43d 2f8d 963e 58dc 13be 7693 0bbe
00000230: 3980 a43d 88cf 2abc ea06 723d d34b 7d3e
00000240: 1bbc b0bd 4cee fd3d 7eac b1be b086 75be
00000250: 2758 5f3e 0d34 493a 7d0b 753d 4f15 3bbe
00000260: 2d63 3cbd f98a ca3c 63cc 9ebe afb0 173e
00000270: 44c5 27be aa21 8abd 528e 9b3d 48be b0be
00000280: 7fe4 7b3e 103a 413d 3091 483e 6bd8 673c
00000290: 8c4e 9d3d 7a74 84be 84d0 973d 2323 3e3b
000002a0: b19e 0a3e 07dc 57ba 59e3 863d 718e 0e3d
000002b0: 57bb b13c 3144 4cbe e521 fbbd 4f2c 413d
000002c0: 9342 723d dfeb 07bd 4a61 68bd 35e0 5a3d
000002d0: 95a3 16be 9d42 dfbd 74f9 403e c4e8 9bbd
000002e0: 2c46 643d d38c 013e 68f7 87bd c809 233e
000002f0: da60 30be d895 43be 9f87 5d3e fb2d ac3d
00000300: cbef 0a3d ed88 0b3b 14bf b5bd a123 ca3c
00000310: 8654 693d c142 a7bd 4852 053e e450 5e3e
00000320: 4517 33be e9b3 6c3e 1103 313d 20cb b2be
00000330: 64de 88bb bba5 84be ef21 14be 3b5d f03d
00000340: bcfa 2b3e 0f06 adbd a9dd 8ebd f151 b43d
00000350: fea7 b23e 8f60 eb3d 77d0 1dbe 6dc5 563e
00000360: efe7 033e d4f3 90be a264 7f3c cbb8 2bbe
00000370: 96a9 fb3c 0571 bebd 853d 86bd 0a9c 88bd
00000380: 0579 4a3d 3c63 42be 6f03 273c 2d30 533d
00000390: 1feb 8abd bfe0 443c f5eb 543e ab56 86bc
000003a0: 0894 233e 5be2 a3bd 8738 dd3b 30cb cd3d
000003b0: f25e 3a3e f238 253e 851c 30be 2d90 8f3d
000003c0: a754 d3bb b8cd febc 9567 0ebd 257a 5dbc
000003d0: 33d3 543d d2ad 823d 0dc0 983e 11bf f43c
000003e0: b1cc 763e 61e5 9cbc

fo3.bias f4 [10]
-0.27505428 -0.0979911 0.09268314 0.058689095 -0.04476853 -0.2455091 0.066454746 0.059152197
-0.0807025 -0.059957765
00000000: ead3 8cbe 8faf c8bd a8d0 bd3d fa63 703d
00000010: 355f 37bd bd66 7bbe 6d19 883d 9349 723d
00000020: 5a47 a5bd 4696 75bd

fc1.weight f4 [50, 10]
0.2434865 0.16883403 0.034724273 -0.33017117 0.034520607 0.09554285 -0.33361906 -0.3695267
-0.28818253 -0.113155775 0.45164725 -0.021709977 -0.0069693816 -0.13388446 0.17441872 -0.057319716
0.080737524 0.27670538 0.23132741 -0.08212026 0.0064943065 0.09994687 0.47456527 0.081160724
0.018524153 -0.014083838 0.2555719 -0.01387845 0.096398935 0.028902777 -0.06402279 -0.0059863087
0.20071147 0.03701736 -0.08093946 0.39784867 0.06368707 0.24201944 0.048206273 0.22640976
-0.29510495 0.04944585 0.013909122 -0.055735428 -0.09256821 -0.11873043 0.16907284 -0.08393676
0.0547926 -0.08947599 0.14038579 0.2437622 0.33785754 -0.27488294 -0.10029921 -0.044669863
0.1398274 -0.3423187 0.10632131 0.063952036 0.06265101 -0.03885703 0.07122278 0.35553277
-0.010231718 -0.30221647 -0.133208 0.03479921 -0.053405456 -0.12927097 0.25097862 0.06700451
0.34295437 -0.14528999 0.0996178 -0.16484518 0.12708156 0.024773698 -0.13151073 -0.077000335
-0.14824077 -0.20326579 -0.03665335 -0.109421186 -0.124135755 -0.052618515 -0.1276824 0.18224141
0.010294112 0.13475862 -0.137326 0.20481443 0.117886096 -0.12208042 0.14280567 0.25119653
0.18993501 -0.17189376 -0.48158118 -0.13915834 -0.113496676 0.24105875 0.3539077 -0.1732043
-0.11831616 -0.12844023 0.37497288 0.13459244 0.19929823 0.037432116 0.13866588 0.21873286
0.15079251 0.4036595 -0.049854837 -0.067470096 -0.144789 -0.3852149 -0.29387048 -0.007976064
0.32451433 -0.16597137 0.016798865 0.06694906 0.09448911 -0.037689388 0.22852796 0.046186153
0.109064765 0.10117081 -0.032916717 0.030402405 -0.10003362 -0.013374265 0.10700711 -0.21589209
0.22641404 0.18226917 0.2934306 -0.006900626 0.18348904 -0.13075134 -0.24774563 0.13741025
0.06564334 -0.05193272 -0.3901104 0.38039458 0.25895667 0.14562313 0.28072414 -0.16192022
0.23896614 -0.19105682 -0.05509489 0.07594244 0.2061516 0.29888132 -0.15357594 -0.23934461
0.21552797 -0.21972421 -0.43320155 0.30341426 0.068715826 -0.037537433 -0.19372195 -0.25548518
-0.085029475 -0.14350414 -0.15638596 0.30743256 -0.00035705138 0.15097833 -0.04889757 0.015350779
0.11844192 0.26154307 -0.3117016 -0.10789416 -0.29033694 0.07054573 -0.12780769 0.12327796
-0.12580188 0.31285015 -0.08172512 0.26584846 0.18786334 -0.19745958 -0.13464022 0.0437374
0.07845452 0.27772143 0.044474307 0.046227157 0.20084135 -0.22455432 0.042188905 0.08712313
-0.38137728 0.07528098 0.027137939 -0.14484073 -0.15823337 -0.03120547 -0.17704202 -0.19417194
-0.1402394 -0.041916016 0.2023559 -0.044709664 0.22842915 -0.16739483 -0.0011981304 0.05342297
0.18997814 0.026369505 0.09752404 -0.14895019 0.054975923 0.1588962 0.0894926 0.04523176
-0.08185197 0.25372323 0.27080593 0.3349991 0.118264504 0.04418144 -0.3291255 0.22635062
-0.08592728 -0.15081847 0.01594766 -0.06042839 -0.3739571 -0.23813476 0.027085664 -0.17358097
-0.14119367 -0.027140466 -0.09427191 0.013991523 -0.018342638 0.027408006 -0.2902151 0.23793873
0.08078411 0.10748006 -0.19253278 -0.27801347 0.008426122 0.4802237 -0.039942686 0.23456283
00000000: 8654 793e d4e2 2c3e 0a3b 0e3d 320c a9be
00000010: 7b65 0d3d f8ab c33d 1ed0 aabe 9b32 bdbe
00000020: a98c 93be 37be e7bd 4f3e e73e 1fd9 b1bc
00000030: 695f e4bb 0219 09be d29a 323e 14c8 6abd
00000040: b759 a53d 54ac 8d3e 18e1 6c3e ab2e a8bd
00000050: 31ce d43b f2b0 cc3d 38fa f23e 9837 a63d
00000060: f7bf 973c e6bf 66bc 52da 823e 7062 63bc
00000070: ce6c c53d 84c5 ec3c 611e 83bd cc28 c4bb
00000080: 4f87 4d3e 849f 173d 96c3 a5bd d2b2 cb3e
00000090: 5e6e 823d f2d3 773e f173 453d f6d7 673e
000000a0: ff17 97be bb87 4a3d 16e3 633c d54a 64bd
000000b0: 6794 bdbd f128 f3bd 6e21 2d3e 09e7 abbd
000000c0: 356e 603d 303f b7bd 4bc1 0f3e cc9c 793e
000000d0: aafb ac3e 75bd 8cbe ac69 cdbd bff7 36bd
000000e0: ea2e 0f3e 6644 afbe fdbe d93d 49f9 823d
000000f0: 2c4f 803d 8d28 1fbd 40dd 913d 6408 b63e
00000100: f0a2 27bc 1ebc 9abe ae67 08be 9e89 0e3d
00000110: aebf 5abd 9c5f 04be 4580 803e a939 893d
00000120: b797 af3e e6c6 14be 6b04 cc3d 2dcd 28be
00000130: ab21 023e 36f2 ca3c c0aa 06be 5ab2 9dbd
00000140: 6ecc 17be e824 50be d321 16bd 3718 e0bd
00000150: e33a febd 8386 57bd 2dbf 02be 7e9d 3a3e
00000160: a3a8 283c 2afe 093e 309f 0cbe e0ba 513e
00000170: 446e f13d 4d05 fabd a63b 123e d59c 803e
00000180: 537e 423e eb04 30be cf91 f6be 867f 0ebe
00000190: f270 e8bd 1bd8 763e 6433 b53e 785c 31be
000001a0: be4f f2bd d685 03be 72fc bf3e 9ad2 093e
000001b0: d614 4c3e 6b52 193d 6efe 0d3e 82fb 5f3e
000001c0: 5a69 1a3e 75ac ce3e 9634 4cbd c32d 8abd
000001d0: 9143 14be e33a c5be 3176 96be 0aae 02bc
000001e0: be26 a63e 66f4 29be c69d 893c 971c 893d
000001f0: 8283 c13d 3060 1abd 3c03 6a3e b12d 3d3d
00000200: 595d df3d a432 cf3d aed3 06bd 770e f93c
00000210: 6dde ccbd bc1f 5bbc 8b26 db3d d112 5dbe
00000220: 15d9 673e c5a4 3a3e 893c 963e a51e e2bb
00000230: 8de4 3b3e aee3 05be 08b1 7dbe 46b5 0c3e
00000240: 0470 863d 67b7 54bd 8dbc c7be 14c3 c23e
00000250: f895 843e 3b1e 153e 13bb 8f3e 6ace 25be
00000260: 8ab3 743e 66a4 43be 2eab 61bd b687 9b3d
00000270: 6819 533e f906 993e 0343 1dbe c116 75be
00000280: 5db3 5c3e 62ff 60be 98cc ddbe 1d59 9b3e
00000290: e2ba 8c3d dac0 19bd 0c5f 46be f4ce 82be
000002a0: ef23 aebd c0f2 12be a423 20be cd67 9d3e
000002b0: a032 bbb9 109a 1a3e d248 48bd d581 7b3c
000002c0: ad91 f23d f9e8 853e 5a97 9fbe 9df7 dcbd
000002d0: 0ba7 94be 487a 903d 05e0 02be 2879 fc3d
000002e0: 35d2 00be e52d a03e 805f a7bd 4a1d 883e
000002f0: 3f5f 403e d832 4abe 20df 09be fd25 333d
00000300: c3ac a03d 8131 8e3e b12a 363d b058 3d3d
00000310: 5ba9 4d3e 91f1 65be 46ce 2c3d 9d6d b23d
00000320: e243 c3be ea2c 9a3d 6250 de3c 2151 14be
00000330: ee07 22be 9da2 ffbc 814a 35be 02d5 46be
00000340: eb9a 0fbe 21b0 2bbd 6336 4f3e 7b21 37bd
00000350: 55e9 693e 8d69 2bbe 960a 9dba 0bd2 5a3d
00000360: a189 423e dc04 d83c afba c73d 6686 18be
00000370: 6f2e 613d afb5 223e e547 b73d f044 393d
00000380: 01a2 a7bd 03e8 813e 13a7 8a3e 0185 ab3e
00000390: a934 f23d 99f7 343d 2383 a8be 75c8 673e
000003a0: a4fa afbd 2870 1abe aba4 823c c283 77bd
000003b0: 4e77 bfbe 99d9 73be c1e2 dd3c 36bf 31be
000003c0: 1395 10be af55 debc a211 c1bd b33c 653c
000003d0: 4d43 96bc c186 e03c 1397 94be 36a6 733e
000003e0: 2472 a53d 811e dc3d 5027 45be c857 8ebe
000003f0: b80d 0a3c e1df f53e f19a 23bd 3d31 703e

fc1.bias f4 [50]
-0.05054709 0.10957706 0.3945438 -0.078389056 0.12507546 0.2744809 -0.068011135 0.23745081
-0.042591453 0.059952043 -0.4636885 0.24611989 0.11800306 0.15422922 -0.3460093 0.18602678
0.214967 -0.14953817 0.15700133 -0.13746251 0.3391968 -0.25096583 -0.23592262 0.16811347
-0.0040939827 -0.16588934 0.2456716 0.08568125 0.06550065 -0.20628038 0.313535 -0.29785395
-0.289952 -0.1577742 0.28195977 0.2751437 0.20969462 -0.17072971 -0.20621566 0.32982457
-0.19814985 0.017329514 0.23503353 0.17794552 0.3597353 -0.23065335 0.05293245 0.11909143
-0.20924094 -0.3955646
00000000: 770a 4fbd f069 e03d a501 ca3e 718a a0bd
00000010: c813 003e c388 8c3e 6c49 8bbd 4e26 733e
00000020: 6074 2ebd 4690 753d 9468 edbe da06 7c3e
00000030: 97ab f13d 44ee 1d3e 2228 b1be ce7d 3e3e
00000040: 4f20 5c3e 8920 19be f5c4 203e f9c2 0cbe
00000050: 34ab ad3e 987e 80be b395 71be f025 2c3e
00000060: d126 86bb e5de 29be 5691 7b3e a779 af3d
00000070: 3425 863d 2a3b 53be a987 a03e 5080 98be
00000080: 9774 94be 8f8f 21be 085d 903e a3df 8c3e
00000090: 30ba 563e c5d3 2ebe 332a 53be c4de a83e
000000a0: cbe7 4abe a0f6 8d3c a1ac 703e 5a37 363e
000000b0: 3a2f b83e 6430 6cbe b2cf 583d 35e6 f33d
000000c0: 4243 56be 7187 cabe
