JEDInet/model_1/IN_kFold_150/IN_sumO_bestmodel3.params (torch, 21393 bytes, 18 tensors)

fr1.weight f4 [30, 32]
000000 0d 79 e2 3a 8c 44 87 bb c0 7a a2 bd c5 55 aa bd
       0.0017278508 -0.0041280445 -0.07933569 -0.083171405
000010 94 fe 0d 3e d6 12 cd 3b b8 62 b4 bd 9b a5 35 3d
       0.13866645 0.006258349 -0.088078916 0.044347387
000020 b5 4e 72 bd 72 23 0a 3d 2b 1c ae bc 19 bb 39 bd
       -0.059157092 0.03372521 -0.021253666 -0.045344446
000030 15 f7 3c 3f 0e d6 ea 3e 35 45 5c 3e ef 55 0c 3e
       0.7381452 0.45866436 0.21510775 0.13704656
000040 4a 19 92 3d cc 8a a3 bc 12 50 86 bc 68 3f b7 be
       0.0713373 -0.019963644 -0.016395602 -0.35790563
000050 42 87 26 3b 36 53 11 be cf 18 3a be 32 e6 b5 3e
       0.002541021 -0.14191899 -0.18173526 0.35527188
000060 91 62 8f be 02 cb 10 3d f8 24 3c bc 83 45 86 bc
       -0.28004888 0.035349853 -0.011483423 -0.016390568
000070 f9 2c 42 bf 3b 54 02 3f 0e 6b 9d 3e 47 83 85 bc
       -0.7584987 0.50909775 0.3074574 -0.01629795
000080 c4 6d 85 3d 91 74 70 bd 89 7f 53 bc 6e 1f 5f bc
       0.06515077 -0.058704916 -0.012908825 -0.013618333
000090 a8 70 f7 3c 29 ae 34 3e d6 5b 07 bc 8e e7 85 bd
       0.030205086 0.17644562 -0.0082616415 -0.06538306
0000a0 ce 79 0f 3c 03 4f 9e bc 4e e5 45 3d a3 b5 cc 3d
       0.008757068 -0.019324785 0.048314385 0.09995582
0000b0 e3 64 bf bf bf 32 73 40 59 44 d5 bd 8d f5 0c be
       -1.4952663 3.7999723 -0.10413427 -0.13765545
0000c0 b0 95 33 bd 26 0a 6a bd 82 30 59 3c d7 42 3e 3c
       -0.043843925 -0.057138585 0.013256194 0.011612616
0000d0 e8 4e ba bd 20 53 37 3d 27 64 d8 bd 67 02 3a bd
       -0.090970814 0.04475701 -0.105659775 -0.045412447
0000e0 d8 9a 7c 3d 15 eb 5e 3e 8c aa 88 3c 85 2f 8a 3c
       0.061671108 0.21769364 0.016682886 0.016868362
0000f0 a2 53 2a be 75 28 8c 3f cb 7f d7 3d 9a 3b 05 3e
       -0.16633466 1.0949847 0.105224214 0.13011017
000100 ff df c5 3b 34 24 01 3c 2c 7a 75 bd 44 d8 6b bd
       0.0060386653 0.007882167 -0.059930965 -0.057579294
000110 07 ee 2d be 91 51 02 bd f8 10 ca 3d ee 72 0f 3e
       -0.16985331 -0.03181607 0.09866518 0.14008686
000120 3f d3 e4 3d 13 5d 2d bc a7 25 44 bc ce 51 55 bd
       0.111731045 -0.010581273 -0.011971868 -0.05207997
000130 0a 69 72 bf 6c 7f 25 bf 25 00 03 3c 3c 11 70 3d
       -0.94691527 -0.64647555 0.00799564 0.058610186
000140 75 ad ac 3a 99 86 1a bc 49 31 a7 bc b9 e4 0f 3e
       0.0013174253 -0.009431505 -0.020409243 0.14052095
000150 09 bb 04 bd df 57 19 be 8b a8 52 be 70 f5 a0 bd
       -0.032404933 -0.14974926 -0.20572107 -0.078593135
000160 ab 13 53 3d c0 69 fc 3d 1d f2 af bc 3e 48 e0 bc
       0.05153243 0.12324858 -0.021477753 -0.027378198
000170 0b 1b 28 bf 04 df ca be da 08 8f 3c dd 4f c9 3d
       -0.65666264 -0.39623272 0.017460275 0.09829686
000180 ca d7 76 ba 81 1f 94 39 c2 aa 01 3d d2 33 b5 bc
       -0.00094163103 0.00028252232 0.031656988 -0.022119436
000190 af 50 40 bd 46 b7 1d 3c 7f 94 99 bd 94 a1 2e be
       -0.046951946 0.009626215 -0.074990265 -0.17053825
0001a0 58 69 87 3b de c9 0b be c3 66 9d 39 f1 37 e5 3c
       0.004132431 -0.13651225 0.00030021937 0.027980777
0001b0 4a 15 b7 3f 02 2a 8f be 46 4b bc bc 15 3c 18 be
       1.4303372 -0.27961737 -0.022985112 -0.1486667
0001c0 58 0e 8c 3d 93 3f ec bd e9 65 52 bc 76 61 a6 bc
       0.06838673 -0.11535563 -0.01284168 -0.020310145
0001d0 2e 8b 84 3c 3f da 58 3e 48 43 c8 3c b7 ef 47 be
       0.016179647 0.21177004 0.024446145 -0.19525038
0001e0 90 8f 1e 3e 17 46 23 bb 78 d3 0c bd 62 3a af bd
       0.15484452 -0.0024913603 -0.03438136 -0.085560575
0001f0 aa 42 a9 bf 47 e6 67 3f 1b ee df 3c 92 fe 78 3d
       -1.3223469 0.9058575 0.027335217 0.060789652
000200 ce 9c 09 bd 20 94 07 bd d8 a7 b7 ba c1 2a cf bb
       -0.033596806 -0.033100247 -0.0014011813 -0.0063222353
000210 40 3a 85 3c fa 58 33 3d df 7b 4c be b3 fd c8 3d
       0.016263127 0.043786027 -0.19969128 0.09814014
000220 f5 e9 38 3d f7 7f 66 bd 14 23 46 3d 9e 14 fe bc
       0.045144994 -0.05627438 0.048373297 -0.03101569
000230 e5 6a 40 bf 93 11 75 bf 40 62 44 bd 4d aa f3 3c
       -0.7516311 -0.9572994 -0.04794526 0.029744292
000240 5e 56 b8 3c 5c e0 91 3c 6f 0d b3 bd fd 58 44 3d
       0.02250212 0.017807178 -0.08742797 0.04793643
000250 28 bb d6 3c 69 e7 b1 bd 43 d4 07 3e 54 0c 9b 3d
       0.02621229 -0.08686716 0.13264565 0.07570711
000260 a1 bb 02 be bd f5 98 bc 1f fa 05 be cf 3a 12 bc
       -0.12766887 -0.018671865 -0.13083695 -0.008925154
000270 a8 ff 6a 3f 9b 11 b7 be 54 20 34 3e 98 f5 04 3e
       0.9179635 -0.3575562 0.17590457 0.12984312
000280 91 eb a8 3a fe 5b 2a ba 27 28 88 3a d6 29 89 3d
       0.0012887587 -0.0006498693 0.0010387943 0.06697433
000290 9d a9 e7 bc 29 2d 8c bd 3e e6 19 3d c9 f5 26 3e
       -0.02827912 -0.06844551 0.03757309 0.16304697
0002a0 0f 99 e6 3d 75 d3 89 3c f8 8d 61 3d dd 25 85 3d
       0.11259662 0.016824463 0.055067033 0.065013625
0002b0 7f 8a 12 c0 9c 6d 83 40 25 8a 80 bd 1a 7e da bb
       -2.2897031 4.10713 -0.06276349 -0.0066678645
0002c0 91 df 38 bc 7b 73 d0 3b b0 7e 35 bc 47 c6 21 3c
       -0.011283771 0.0063614226 -0.011077568 0.009873933
0002d0 31 b7 8e be 30 04 a8 bd 75 e7 89 be 9a 9c 1d 3e
       -0.2787414 -0.08203924 -0.269344 0.1539177
0002e0 3f 44 9c 3a 60 de d0 3d fb d3 3c 3c d8 5b f5 bd
       0.0011922194 0.10198665 0.011525149 -0.119804084
0002f0 60 3d 85 3d 30 0f 75 3f 22 2c 5c bd f5 0f f2 3c
       0.06505847 0.957263 -0.053753026 0.029548625
000300 78 e7 03 bb f8 3a a6 3a d3 39 6d 38 33 b4 63 bc
       -0.002012698 0.0012682369 5.6559056e-05 -0.013897943
000310 df 52 10 3e d3 f1 de 3c 7e 88 35 3e f4 1e 22 bd
       0.14094113 0.02721492 0.17727849 -0.0395803
000320 53 d9 00 be b9 3b f7 bd 90 2c 48 bc 58 92 3d bd
       -0.12582903 -0.12071938 -0.012217656 -0.046282142
000330 1a 70 c7 3f 4e 4f d9 3f 4e 3b f7 bd da 77 e3 3d
       1.5581086 1.6977327 -0.12071858 0.11106844
000340 fa fe 13 bb 14 b6 e0 bb 81 3b e4 3b 97 7a 4d 3d
       -0.0022582398 -0.006857643 0.006965101 0.05016574
000350 7a a4 c5 3c 2d 93 6a bd 89 ab da 3d d2 14 3c be
       0.02412628 -0.057269264 0.10677249 -0.18367317
000360 74 79 fe 3b f5 2a 3b 3d de f2 36 bd 96 f1 cb bd
       0.007765943 0.045695264 -0.04466521 -0.09958188
000370 5c 90 91 3e e5 68 36 3f 81 73 f7 bd 55 e6 3c bc
       0.2843045 0.71253806 -0.120825775 -0.011529525
000380 2a 69 ec 3c 84 87 f8 3c de d3 95 bd e8 4d 42 3d
       0.02885874 0.030338056 -0.07315801 0.04743758
000390 da 24 16 3e 22 7e 17 3e 13 92 35 3e 95 71 5b 3e
       0.14662495 0.1479421 0.17731504 0.21430047
0003a0 e5 46 e2 bd 2b 78 1e be 3b 54 32 be d0 d2 9d bb
       -0.11048678 -0.15475528 -0.17414944 -0.0048163906
0003b0 88 7f f4 3f 81 4d 67 c0 32 68 41 3e 5e b6 04 bd
       1.910142 -3.6141055 0.18887404 -0.03240048
0003c0 bc 9f 91 bb ac 68 6f 3c 62 5e 14 3d 51 90 2c 3e
       -0.0044440906 0.014612358 0.036222823 0.16851927
0003d0 d3 d9 47 3e 35 05 2e be 6c 01 ad 3d 2e 4f 2c 3d
       0.19516687 -0.16994174 0.08447537 0.0420677
0003e0 e0 06 ed bd 2e d0 2c bd 09 ee 76 bd 4f fc 1c be
       -0.11573577 -0.042190723 -0.0602856 -0.15330623
0003f0 34 34 16 3e cf bc 93 bf e1 a7 b8 3d a8 3f 48 3d
       0.14668351 -1.1541995 0.09016395 0.048888832

fr1.bias f4 [30]
000000 83 77 d9 3c fd e1 ac bb b5 b1 e8 3d 5f d7 ae b9
       0.026546245 -0.0052759633 0.1136202 -0.0003334833
000010 d8 65 ee bc 51 3c 13 3d a3 0e dd 3b d0 cb 75 3e
       -0.029101297 0.035946194 0.0067461296 0.2400353
000020 bf 28 2d be 54 e1 26 bd 44 47 fa bd 5f 30 e2 3a
       -0.16910075 -0.040742233 -0.12220624 0.0017256847
000030 09 07 49 bd a8 fb 02 3e ea af 99 be 19 88 0a bd
       -0.049078975 0.12791312 -0.30017024 -0.0338212
000040 b3 6e 5f bc 49 27 5e 3e 7e 59 ad 3a 8f 8e 02 be
       -0.013637233 0.21694674 0.0013225523 -0.12749694
000050 7d cb 38 3e 43 73 0f be 7b a8 2f 3e 05 44 1a 3e
       0.18046375 -0.14008813 0.17154114 0.1506501
000060 47 e7 b9 3d 35 8d 31 3e 6b d1 ab be d8 37 53 be
       0.09077316 0.17339022 -0.3355821 -0.20626771
000070 20 26 9b 39 79 e8 71 bc
       0.0002959231 -0.014764898

fr2.weight f4 [15, 30]
000000 4a 62 c3 bd 01 cf 43 bd 4f e8 44 3e f1 1c 3c bd
       -0.095402315 -0.047804836 0.19229244 -0.04592604
000010 20 33 ac 3d fe 4a 93 bd e6 04 bb be f9 45 84 39
       0.08408189 -0.07192038 -0.36527175 0.00025229136
000020 dd 90 3e 3e 8f ae 43 be da 56 ca 3d 1e 28 02 3e
       0.18609948 -0.19109558 0.09879847 0.12710616
000030 63 47 33 be 81 40 25 be b4 2a e0 bc 83 87 8a bb
       -0.175077 -0.16137888 -0.027364112 -0.00422758
000040 a1 bf 4a 3e 3a 55 3d 3e e5 87 32 3e d5 82 0f be
       0.19799663 0.18489543 0.17434652 -0.14014752
000050 1a 50 d2 3c 72 42 2c be 73 88 19 bd f0 36 0f bd
       0.025672961 -0.16822222 -0.037483644 -0.0349645
000060 19 b7 7c 3d bd e4 74 be b5 7f 09 3d 83 c8 d8 3d
       0.061698053 -0.23915382 0.033569057 0.105851196
000070 e7 68 42 3d cf 77 3f be 17 b0 f8 bc a5 b0 e5 bd
       0.047463324 -0.18698047 -0.030357404 -0.11215333
000080 7a 48 e4 3d 08 02 72 3d 4e 3b 98 bd 2d f3 36 bd
       0.11146636 0.05908397 -0.074331865 -0.044665504
000090 5d a2 a2 bd 4c 4b 6d 3e 70 8b 83 be 54 7c 2a 3e
       -0.079411246 0.23173255 -0.2569232 0.1664899
0000a0 33 6e 54 3c 27 c4 93 3d 8b 67 4e 3d 85 8b 44 bd
       0.012965727 0.072151475 0.050391715 -0.04798462
0000b0 18 ca 51 bd b7 c6 57 3b b9 70 08 be b2 5d 2b be
       -0.051218122 0.003292484 -0.1332425 -0.1673496
0000c0 a7 e3 0d 3d a8 ba ca bc d6 45 fb 3c 65 eb fe 3c
       0.034640934 -0.024747208 0.030672949 0.031118104
0000d0 0c 43 c2 bd 45 ea 69 be c3 ee c5 3d 0d 3b 22 3e
       -0.094854444 -0.22843273 0.09664681 0.15842839
0000e0 e5 87 ac bd 66 0e 4c 3d ca 50 05 bd b5 a2 88 be
       -0.08424357 0.04981842 -0.03254775 -0.26686636
0000f0 d9 7d 5e bd f4 08 87 3c 23 af 2c bd 21 0d 0e bd
       -0.054319236 0.016483761 -0.04215921 -0.03468049
000100 d5 06 1c 3d 7d e2 99 bb 3d a1 8f be eb 4d 9d 3d
       0.038092453 -0.004696189 -0.28052703 0.07680877
000110 9d 57 5b 3d 6a a2 18 be f1 9b 8a 3d c1 ba cc 3c
       0.05355035 -0.14905706 0.06768025 0.024991395
000120 e1 e6 bf bd cf fc de bd 4d 30 34 bd 3a 53 08 bd
       -0.093702085 -0.10888063 -0.043991376 -0.033282496
000130 00 55 55 3e 65 9f f4 3d 56 0f 0d 3d d2 10 cb bc
       0.20833206 0.119444646 0.034438454 -0.024788294
000140 de fd bf 3c ad 8e 29 be 55 cc 31 be 5b c5 a6 3d
       0.023436483 -0.16558333 -0.17363103 0.08143111
000150 7e 98 e9 bd 86 32 a4 bd 9b 92 c5 bc 46 44 7d bc
       -0.11406039 -0.08017449 -0.024117758 -0.015458172
000160 9f 84 f3 3d 18 10 54 be 41 2b 36 bc e5 71 4d bc
       0.1189053 -0.20709264 -0.011118711 -0.012539362
000170 c5 ef 28 bd 77 33 28 39 ba 57 af 3c 9c c4 fc 3d
       -0.041244287 0.000160409 0.021404136 0.12342188
000180 89 6f 6a 3e 02 44 af 3d af 67 ab bd 98 e9 88 3d
       0.2289411 0.08557893 -0.083693855 0.066851795
000190 c9 63 f8 bd 5b e5 ae bd f8 33 90 3e c5 c3 99 bd
       -0.121284075 -0.0853984 0.2816465 -0.07508043
0001a0 fd b8 a3 be 20 ec 96 3c 9a bb 2d bd ac 83 30 be
       -0.31977072 0.01842314 -0.04241524 -0.17237729
0001b0 52 03 88 bc ff 0e 64 3d 9d 6b cf bd 8f 14 ac bd
       -0.016603146 0.055678364 -0.101279475 -0.08402359
0001c0 17 c2 a0 bd 23 59 1f 3c 55 f1 52 bd 3a 6e 39 bb
       -0.0784952 0.009725842 -0.051499683 -0.002829446
0001d0 20 1c 79 be 89 5f 00 be 2c a0 4f be f8 96 2b 3e
       -0.24327135 -0.12536444 -0.20275944 0.16756809
0001e0 8c 9d 11 3d 12 46 e8 3d e7 72 15 3d c5 6d 8f 3d
       0.03555064 0.1134149 0.036486533 0.07003359
0001f0 06 4a 9c bd e4 b9 90 3e c3 80 78 bd 0d 6e 80 be
       -0.07631306 0.28266823 -0.06066967 -0.25083962
000200 7a 5f 55 3e 90 85 da bd 30 b7 23 3e be 10 1a 3d
       0.20837203 -0.10670006 0.15987849 0.037613623
000210 75 dd 4a 3d 63 8b 82 bc 29 6b 89 3c 16 08 17 bd
       0.049527604 -0.015935605 0.01677473 -0.036872946
000220 9c 9e fe bd 41 24 38 be 36 02 d3 3d da 34 15 3c
       -0.12432596 -0.1798258 0.10303156 0.009106839
000230 fb 5d 80 ba 2f be a7 3d 52 10 bb bd 91 7b f0 3d
       -0.0009793633 0.081905715 -0.09133972 0.117423184
000240 d9 a7 4c bd 9d c9 1c bd 5b 1e 82 3c ed 68 af 3b
       -0.04996476 -0.03827821 0.015883615 0.0053530843
000250 2a 2c 85 3b 45 5d 87 3e 37 9c b1 3d 5b 17 89 bd
       0.0040641027 0.26438347 0.08672374 -0.06693908
000260 3a 7b ec bd 60 60 8b 3d 3d e7 ad bd 02 00 33 be
       -0.11546941 0.068054914 -0.08491371 -0.17480472
000270 1b d1 df 3d 97 bb f1 3d 3d 87 10 be 4a 7c b8 3d
       0.109285556 0.11803358 -0.1411409 0.09008081
000280 ef 2e fc bc 12 4d cf bd 55 28 01 3e 9d 44 8e bc
       -0.030784098 -0.10122122 0.12613042 -0.017366702
000290 97 09 70 bc b7 dd 9d 3c 9d 3f b8 bd 26 e9 54 bc
       -0.014650724 0.019270761 -0.08996508 -0.01299504
0002a0 2b d0 83 3d fb 01 02 bd 83 f7 1e bc 01 bf 57 3d
       0.06436189 -0.03174017 -0.009702566 0.05267239
0002b0 b4 bd af bb 42 9f a5 be aa ab 6f be 2a 9f b3 3d
       -0.0053631905 -0.32348067 -0.23405328 0.087705925
0002c0 4a 90 66 3d 44 f7 b4 bd 09 8d 23 3c 7c 62 81 be
       0.05628995 -0.08836225 0.009982356 -0.2527045
0002d0 7c 2e 56 bd fb 64 fb 3d 8e 23 d5 bc 28 3a 44 bd
       -0.052290425 0.1227512 -0.02601793 -0.047907025
0002e0 6c 0a b4 bb b9 f3 b4 3d 7d fc b9 3e ad 18 19 bd
       -0.0054944064 0.08835549 0.36325446 -0.03737705
0002f0 28 b7 09 be 45 08 83 3d 5b e9 b0 bd 6f b3 d8 bd
       -0.13448775 0.06398062 -0.08638259 -0.10581099
000300 a8 74 0a 3e ba cd a3 3d 97 ab fa bc 19 21 43 3d
       0.13521063 0.079982236 -0.030599399 0.047638986
000310 b0 e1 e0 bd 6b 77 28 be 0c 2f 1c be 83 b5 c9 bc
       -0.109805465 -0.16451804 -0.15252322 -0.024622684
000320 87 36 87 3d 43 33 39 bd dd 38 0d 3e 8b f8 ef bd
       0.06602197 -0.045214903 0.13791223 -0.11717328
000330 64 97 2b 3e 98 ce 52 3e ce 47 ca bd 62 0c ef bc
       0.1675697 0.20586622 -0.09876977 -0.02918071
000340 5f 46 ca 3d 20 ac 5d 3e 52 37 90 3d 14 89 52 be
       0.098767035 0.21647692 0.070418015 -0.20560104
000350 c3 0f c9 3c bf 5b 09 3d 4e a9 e3 3a e7 2b ca be
       0.024543649 0.03353476 0.0017369182 -0.3948662
000360 b8 5c b7 bd f8 c8 ef 3d 05 31 35 be 92 d3 56 3d
       -0.089532316 0.117082536 -0.1769448 0.052447863
000370 58 d5 d1 bd 51 dc b9 bd 86 63 d5 3d 5e c0 89 bc
       -0.1024577 -0.09075225 0.10419373 -0.01681536
000380 c1 50 e5 3b ef fd b9 bd 15 1d 13 3e c2 61 6e 3e
       0.006998152 -0.09081637 0.14366563 0.23279479
000390 bd 9d 16 be 4c 13 ac bd 20 18 07 3e 99 ae 9a bd
       -0.1470861 -0.08402118 0.13192797 -0.07552833
0003a0 59 2a f7 bb e4 ba 14 bc 0f 5d e9 3a a2 43 98 b6
       -0.00754289 -0.009077761 0.0017804223 -4.5378265e-06
0003b0 2d d4 39 3e c6 51 3a bd 0b 12 9c 3d 0f 85 7d be
       0.18147345 -0.04548814 0.07620629 -0.24757789
0003c0 ee 7f 87 bd 76 d0 fe 3d 9a 27 65 be c9 27 8f 3c
       -0.066161975 0.124421045 -0.22378388 0.017475026
0003d0 5b 24 15 3e 66 4d 88 bd 16 44 4e 3d 17 6e 01 be
       0.1456465 -0.066553876 0.0503579 -0.12639652
0003e0 ef 98 05 3e 2c 15 a8 3c c0 88 69 bd 41 1f 71 3d
       0.13046621 0.020517908 -0.05701518 0.058867697
0003f0 be 6d b2 3c 68 43 14 be b0 2e 1c 3e ae 9f 93 3d
       0.021780845 -0.14478838 0.15252185 0.07208191

fr2.bias f4 [15]
000000 2d 11 27 bd ae 72 cc 3c 4b d5 04 be ed 18 b5 3d
       -0.040787864 0.024957027 -0.1297199 0.08842645
000010 d7 9e 48 be ac 33 4c bd e1 3b 1f be 0c 5f 7e bd
       -0.19591843 -0.049853966 -0.15550186 -0.062102363
000020 d6 a4 f0 bd 4a 59 a2 3d a3 ff 14 be 31 ba 21 3c
       -0.1175019 0.07927187 -0.14550643 0.009871052
000030 39 b2 b6 3c f8 ab 11 be 22 50 3d 3d
       0.02230178 -0.14225757 0.046219

fr3.weight f4 [10, 15]
000000 5b db 06 be 51 47 de 3d 37 1a d3 bd 8b e7 62 bd
       -0.13169615 0.10853446 -0.103077345 -0.055396598
000010 bb f9 5a 3e 3c 99 4b 3e 6b ca be 3d 92 80 71 be
       0.21384327 0.19882673 0.09315952 -0.23584202
000020 b6 3e 5f be 2e ab be bc 4b 6d 21 3e a4 f0 7c bd
       -0.21801266 -0.023274984 0.15764348 -0.06175293
000030 1f e0 5c 3e ba 0a 14 3e 90 fe 54 3e 31 93 99 3d
       0.2156987 0.14457217 0.20800233 0.07498778
000040 1a c4 58 be 5c fb c3 bd b3 b2 9e 3c 03 c5 b8 3e
       -0.21168557 -0.09569427 0.01937232 0.36087808
000050 d1 13 85 be d5 16 16 be 20 8d 15 be 20 5d 20 be
       -0.2599168 -0.14657147 -0.14604616 -0.15660524
000060 7d 60 fc 3d 3c 3b c2 3d 14 fe 56 3c 7f ce 16 bd
       0.12323091 0.09483954 0.0131221 -0.036818024
000070 c0 10 a0 be 96 ab d4 3d 5d bf 79 be 2f bc ee 3d
       -0.3126278 0.1038429 -0.24389406 0.11656987
000080 55 27 0f 3c f1 bb 4b 3e b2 85 44 3d d3 cb 5e 3e
       0.008737405 0.19895913 0.047979064 0.2175744
000090 df 42 b0 3e 4c 43 94 3d 07 06 1f 3e a6 92 80 be
       0.3442602 0.07239398 0.15529643 -0.25111884
0000a0 4a 11 6a 3e 27 ee 1c 3e ac 8a b7 bc 27 57 ed 3d
       0.22858158 0.15325223 -0.022404991 0.115888886
0000b0 80 ac 1f be ec 8e 87 3e df 07 35 3e bb 7f 83 3c
       -0.15593147 0.26476228 0.17678784 0.016052118
0000c0 49 72 17 be 59 a9 9b be 3f 5f 3b 3d 5d d4 78 be
       -0.1478969 -0.3040264 0.04574513 -0.2429976
0000d0 fc e9 68 3d f1 6b d0 bd 0d 94 67 3c 36 70 2f be
       0.05686377 -0.10176838 0.014134419 -0.17132649
0000e0 30 75 95 3d 3b d9 98 bd 81 93 23 3e a7 77 a9 bd
       0.07297742 -0.074633084 0.15974237 -0.08274775
0000f0 15 8c bd bd 9b e5 c6 bd 5d e0 5a 3c 75 3c cd bd
       -0.09255234 -0.097117625 0.013359156 -0.10021297
000100 93 3b bf 3d 1c 36 f8 bd 97 c1 07 be 8a 36 89 3e
       0.09337535 -0.121196955 -0.13257442 0.26799423
000110 bf 52 14 bc c0 44 8d bb 48 57 26 3e ba 78 e1 3c
       -0.009052931 -0.004311174 0.16244233 0.027523387
000120 e9 15 07 be b4 6d e3 bd 04 7f 45 3d 96 bc 9b 3e
       -0.13191952 -0.111049086 0.048216835 0.30417317
000130 b9 f3 bc bd d1 ce 2e 3e c2 78 99 bd 39 8b ae 3e
       -0.09226174 0.17071082 -0.07493736 0.34090593
000140 50 de b8 bd 07 fe 15 bb dc bf 71 3e 22 4b 4b 3e
       -0.09026778 -0.0022887008 0.23608345 0.1985288
000150 8e 78 0d be 06 b5 03 be 79 63 19 bd a0 0f 4a 3d
       -0.13815519 -0.12862024 -0.03744838 0.049331307
000160 71 2e 6b 3e 7a 81 23 be 47 3a 80 bd fa bd c4 3d
       0.22966935 -0.1596736 -0.062611155 0.09606548
000170 f7 82 42 bd 19 b9 b9 3d 55 36 bc be 8d c1 24 3d
       -0.04748818 0.09068508 -0.36760202 0.040223647
000180 2f ba 8b bd 66 17 46 be 25 d1 56 bd 3a de 07 be
       -0.06822621 -0.19344863 -0.05244555 -0.13268366
000190 19 9e 80 be f6 3e c6 3d e1 25 40 3e 07 22 8b bd
       -0.2512062 0.096799776 0.1876445 -0.067935996
0001a0 ae 44 50 3d 1f 30 c7 bd a0 fe 0a bd 25 21 b1 bd
       0.050846748 -0.09725975 -0.033934236 -0.086489
0001b0 4a 90 08 3e 92 d7 1b 3e c0 81 04 be a4 96 5b 3d
       0.13336292 0.15218952 -0.1294012 0.05361046
0001c0 5b 23 c3 bd b2 26 16 3d c7 91 23 3c 88 4e a5 3e
       -0.09528228 0.036657996 0.0099834865 0.32286477
0001d0 95 2d 29 3e b1 0f da 3c f8 00 54 bd 34 26 82 bc
       0.16521294 0.02661881 -0.051758736 -0.015887357
0001e0 35 c1 27 3e 83 b7 23 3e b6 c4 ba 3d 88 fb 27 3e
       0.16382296 0.15987973 0.09119551 0.16404545
0001f0 f3 32 86 3d 86 67 0f be 25 c3 8e be c0 af 5a 3e
       0.065526865 -0.14004335 -0.27883258 0.21356106
000200 c3 6a 8b be 1b 61 d1 3d 4b 69 20 be 6d 08 8e 3d
       -0.2722989 0.102235995 -0.15665166 0.06935201
000210 e8 a5 c2 3d 5f 29 bb bd 0e f1 76 bd 56 0a ce bd
       0.095043 -0.0913875 -0.06028848 -0.10060565
000220 d7 29 7c be bd 08 8c bc 17 f1 01 3e 7c e6 00 be
       -0.24625336 -0.01709401 0.12689625 -0.12587923
000230 71 d5 59 be 7b 81 22 bd 25 61 b2 bd a8 2f 15 be
       -0.21272828 -0.039674263 -0.08709935 -0.1456896
000240 f8 c2 46 bd 1f cb f4 3d b5 4c ea be d7 73 5e 3e
       -0.04852578 0.11952805 -0.45761648 0.21723877
000250 74 f8 c1 3d 29 d7 67 3d
       0.09471217 0.056601677

fr3.bias f4 [10]
000000 dc 34 6b be 91 c7 6e 3e 30 e9 81 bd ee cb 81 3e
       -0.22969383 0.23318316 -0.06343305 0.25350899
000010 c2 f8 6c be 40 35 da bd b8 de 20 3e ff 13 63 be
       -0.23141769 -0.10654688 0.1570996 -0.22175597
000020 0a 8f 9b bd 3d 91 ac 3c
       -0.07595642 0.021065349

fo1.weight f4 [30, 26]
000000 a7 88 a9 3d 77 06 3b bc 09 37 94 3c 28 df aa 3c
       0.082780175 -0.011415116 0.018092649 0.020858362
000010 ae 01 9d bd 96 31 f7 3d 7a 54 a3 3c 01 d7 b3 bd
       -0.07666336 0.12070005 0.019937743 -0.08781243
000020 07 9d 24 bf 18 17 6d be 03 ff 45 bd 8b c6 d5 3d
       -0.64302105 -0.23153341 -0.0483389 0.1043826
000030 9e 57 15 40 11 82 45 c0 0e a1 52 bd e9 ac 5b be
       2.3334727 -3.0860636 -0.051423125 -0.21452679
000040 9f fc a9 bd a4 96 30 be 66 3b cc 3c 4a d2 a4 3c
       -0.08300137 -0.17244965 0.024930667 0.020119805
000050 96 e8 99 3c 25 bb 14 3d 9b 9a 4f 3e 86 e5 46 3e
       0.018787663 0.036311287 0.20273821 0.19423494
000060 f7 e9 ab bd a8 1c ef bd b7 e5 f7 3b c5 0a bd 3b
       -0.08394235 -0.116753876 0.007565226 0.005769106
000070 cc c1 9b bc dd 94 92 bd ed 51 3c be 86 ec af 3c
       -0.019013308 -0.071573 -0.18390627 0.021475088
000080 2d 01 cd 3d 04 e1 98 be 1a 3a ef bd 21 09 e7 3e
       0.1000999 -0.29859173 -0.11681004 0.45124152
000090 d3 18 2a bd d0 1b a0 3e bb db 56 3f 6b e5 74 3f
       -0.04152758 0.3127122 0.8392903 0.95662564
0000a0 9c 4f 95 be 3d 6b 0c 3f 40 93 f7 3d 26 91 99 3d
       -0.291623 0.5485113 0.120886326 0.07498388
0000b0 fb 31 57 3d cf b6 ec 3d ba 04 b1 bd 47 a7 bc bd
       0.0525379 0.115583055 -0.0864348 -0.09211593
0000c0 23 22 b0 bd 82 45 7b 3d e8 40 31 bd ea 8b 15 bc
       -0.08600261 0.061345585 -0.04327479 -0.009127596
0000d0 3b 60 f3 3c b4 b1 c7 39 1b 45 35 bd 5d 9f d3 bd
       0.029708972 0.00038088637 -0.044255357 -0.103331305
0000e0 c2 ef 1f be be c3 16 bd 19 54 c0 bd 47 a3 c9 3d
       -0.15618804 -0.036807768 -0.0939104 0.09845596
0000f0 de f5 2d 3d 2b a1 2f 3e c6 21 fb bc b3 09 ce bc
       0.042470805 0.17151324 -0.030655753 -0.02515111
000100 3d 6d d7 bf 61 62 32 40 7e ed 1b be d5 20 33 3e
       -1.6830212 2.7872546 -0.15227315 0.17492993
000110 e2 0e e3 3d b8 a6 d9 bc 73 af 0e 3d 0e 3c 4c be
       0.11086823 -0.026568756 0.03483529 -0.19944784
000120 c8 d8 18 be 95 77 fd 3d 66 c6 85 3c be 48 50 3e
       -0.14926445 0.12376324 0.016329955 0.20340249
000130 b9 cf 6f bd 91 05 1a be 8b fd a9 ba b4 53 16 3d
       -0.05854771 -0.15041186 -0.0012969238 0.03670092
000140 3a 9e 1d bb 16 a1 47 bc 1b 5a 3d be f7 b8 e0 bd
       -0.002405061 -0.012184402 -0.18491404 -0.10972779
000150 4f 7f 72 bd e5 08 c0 bc 4a 00 27 3e 7e e5 f5 bd
       -0.059203442 -0.023441741 0.16308704 -0.12006663
000160 d9 e8 d2 3c 53 53 94 3e f5 ef 2c c0 7c 82 74 3f
       0.025745796 0.2896982 -2.7021458 0.95511603
000170 ca 20 68 bd 5f 17 07 be 32 a2 11 be 07 90 31 bd
       -0.056671895 -0.13192509 -0.14222029 -0.043350246
000180 e9 b7 a7 bc 4b d8 68 bb a0 8e 92 bd c5 0d 56 3d
       -0.020473437 -0.0035529311 -0.0715611 0.052259225
000190 86 13 40 3c ab b4 d2 3d 14 52 aa 3c 58 96 8f bd
       0.011723405 0.10288366 0.020791091 -0.07011098
0001a0 60 a3 34 3c b7 48 ce bc 34 32 43 ba a8 f9 89 bd
       0.01102528 -0.025181158 -0.00074461405 -0.06737071
0001b0 59 cb 38 bd ef b0 0d be d7 c8 13 3d c4 cb ec 3b
       -0.045115802 -0.13837026 0.036080208 0.007226439
0001c0 00 70 77 3e 15 23 04 bf 05 55 06 be 80 8d 40 be
       0.24163818 -0.5161603 -0.1311837 -0.18803978
0001d0 d1 76 b7 be c0 ff a1 3e 6f 6e 1e bd a3 75 8c be
       -0.35832837 0.31640434 -0.038679536 -0.274335
0001e0 9f 2d c6 3d 3e 71 1d 3d 6d 24 ab 3e 68 5a 5b be
       0.0967667 0.038438074 0.33426228 -0.21421206
0001f0 9f 24 90 3e ed 9c dd 3c 59 ad c6 be 9b df b4 3e
       0.2815294 0.027052367 -0.3880413 0.35326847
000200 23 a0 13 be 25 81 b9 bd 1b 67 1a 3d 59 54 cf bd
       -0.14416556 -0.090578355 0.037695985 -0.1012351
000210 a1 13 85 bd 0a d7 6a 3e 9e cc 9d bc 10 fc f4 3c
       -0.064978845 0.22933593 -0.019262608 0.029905349
000220 cf a6 2c bc 6c d3 83 be e4 de 23 3e 12 a0 3e bf
       -0.010537817 -0.2574724 0.16002995 -0.74463
000230 45 5e 65 3e b0 99 1e be 70 1f b9 3f ec cd 82 c0
       0.22399242 -0.15488315 1.4462719 -4.087637
000240 97 0b 1f be 39 65 14 bf a8 1e b1 bc 2c 44 a0 3d
       -0.15531765 -0.57966954 -0.021621063 0.07825503
000250 bf 0b 93 3d 49 91 f9 bc 0d 34 a3 3d 4b ed 27 3e
       0.07179975 -0.030464785 0.07968912 0.16399114
000260 07 fa 07 bd 85 8e d5 bd 57 24 a9 bd 7e f0 01 be
       -0.03319743 -0.10427574 -0.082588844 -0.12689397
000270 8c 5f 36 3a 87 9f 03 bd cc bb a2 bc 9d 11 18 3e
       0.00069569866 -0.03213456 -0.01986494 0.14850469
000280 05 b4 dc 3d e4 97 c9 bd 89 00 cf bd e7 39 89 be
       0.107765235 -0.09843424 -0.10107524 -0.26801988
000290 e9 c9 3c bd 61 7b 2a bf 7a 4c e6 3d 4c 96 55 be
       -0.046090994 -0.6659451 0.112450555 -0.20858115
0002a0 cf 06 3d bf 2a 55 08 c0 b1 6e fb be c2 0d 1f bf
       -0.73838514 -2.130198 -0.49107888 -0.6213037
0002b0 bd 27 8f be cc 58 f4 bd 54 7f 1e be 7c 88 e9 be
       -0.27960005 -0.11930999 -0.1547826 -0.45611942
0002c0 8b 4c 0c 3f 92 e1 5b bc 6d e7 18 bf 04 c1 04 3f
       0.54804295 -0.013420479 -0.5972813 0.5185702
0002d0 f1 a5 9f 3b d5 1d 8e be df 25 7e 3d b1 37 9e 3b
       0.0048720767 -0.27757135 0.062047835 0.0048284163
0002e0 14 41 87 3c c2 39 eb bd a5 bb 2f 3e 0d 92 03 3e
       0.016510524 -0.11485626 0.17161424 0.12848683
0002f0 c9 6e 0e 3e d2 a9 12 3e bf b0 d8 3e 5a 03 bc 3d
       0.13909449 0.14322594 0.42322347 0.09180327
000300 f8 86 31 3e 87 6d 2b 3d 91 a8 ef 3f 94 7d 18 3f
       0.17336643 0.0418525 1.8723317 0.59566617
000310 38 70 a1 3d 40 d1 32 3e 90 58 5e bd 0f 34 b2 bd
       0.07882732 0.17462635 -0.05428368 -0.08701336
000320 ee 5f ed 3d c1 bf 25 3e 0e 1e 3d 3e 2e ab 46 be
       0.11590563 0.1618643 0.18468496 -0.19401237
000330 1d a0 59 3e 7f aa 86 3e 36 ee d0 bb ed 11 2f be
       0.21252485 0.26301953 -0.006376053 -0.17096682
000340 35 c9 dc bc cc 55 78 3d 80 65 bb 3c 07 e2 7d be
       -0.026951412 0.060628697 0.022875547 -0.24793254
000350 27 0d 81 3d 4a 57 b6 3d 23 8d fc bd 5b e5 4b be
       0.06301337 0.08903368 -0.12331607 -0.19911711
000360 a0 4c e5 3a 82 26 07 bf be 99 fc bd ef 85 9d be
       0.001749415 -0.52793133 -0.123340115 -0.30766246
000370 36 a1 23 3f b5 5b df 3e 41 0f 7c be 15 6d f5 be
       0.63917863 0.43624654 -0.24615194 -0.47934785
000380 d8 b8 7c bd f8 0c 22 be c9 f6 d6 3c 72 64 8f bd
       -0.06169972 -0.1582526 0.026240723 -0.0700158
000390 fb f2 29 be cb 62 55 be a8 02 40 bd a0 0e 27 be
       -0.16596596 -0.20838468 -0.046877533 -0.16314173
0003a0 87 3d 04 3e 1c 95 48 3e eb 05 d4 bd 08 66 8f bc
       0.12914096 0.1958813 -0.10352691 -0.017504707
0003b0 5f 00 28 3c 9f 11 05 be 4d 86 44 bd e2 51 dd 3d
       0.010253995 -0.12995003 -0.04797964 0.108066335
0003c0 b9 04 a9 3e 1b 95 6a 3e 8a 64 51 bd a8 05 85 bd
       0.33011416 0.22908442 -0.051121272 -0.064952195
0003d0 ff 7a 8d 3d a8 f1 66 3d 0b ea 6a 3f 06 66 8a bf
       0.06908225 0.056382805 0.9176337 -1.0812385
0003e0 c9 92 29 3e ce 4f 27 be 28 4e 6c bd 42 3f c2 3c
       0.165599 -0.16339037 -0.057691723 0.023711804
0003f0 ac 28 ca bd 28 63 f5 bd 88 54 ec bd 85 75 78 be
       -0.09871039 -0.11981803 -0.115395606 -0.2426358

fo1.bias f4 [30]
000000 c4 bb 42 3d 84 00 c7 3c 89 d1 c6 3d a9 eb 8e bc
       0.04754235 0.024292238 0.097079344 -0.017446356
000010 ba c6 6a be ed 04 29 be a8 56 1f be 72 6c 8b 3b
       -0.2292737 -0.16505785 -0.155604 0.004254871
000020 17 4f 22 3e 7c 12 a7 3d bd fd d9 bd b6 4f bd bd
       0.15850483 0.081578225 -0.106441 -0.09243719
000030 95 b2 1e 3e 42 a6 77 3d a1 5e 82 bd 7b fa 5b 3c
       0.15497811 0.06046129 -0.06365705 0.013426418
000040 81 70 cf bd c1 f0 42 be af cc 58 3d cf c9 12 be
       -0.1012888 -0.19037153 0.052929576 -0.14334796
000050 50 28 7b 3d 28 d9 f2 3c 11 a5 e1 bc ea 39 06 3e
       0.061317742 0.029644564 -0.02754453 0.1310803
000060 78 92 97 bb d0 e7 20 3e 7f ce 90 be 28 4a 05 be
       -0.0046256147 0.1571343 -0.28282544 -0.1301657
000070 cf 76 49 be 10 70 6b bd
       -0.19674228 -0.057479918

fo2.weight f4 [15, 30]
000000 e7 87 23 bd 53 f8 0d 3e 24 87 c9 bd da 61 96 be
       -0.03992453 0.1386426 -0.09840229 -0.2937153
000010 b2 15 78 3e b6 a5 9c bd b1 fd 07 3e c6 db d4 3d
       0.24227026 -0.07648794 0.1328037 0.10393481
000020 62 82 17 3c c4 a5 0e 3e ff 99 7a 3e 53 f3 4a 3d
       0.009247394 0.13930422 0.24472807 0.04954846
000030 16 e7 97 bc 62 fe 40 3d 1c 53 a9 bd 7d 2a cf 3d
       -0.018542808 0.0471176 -0.08267805 0.10115526
000040 e1 fb b6 3e 5c ab 0b bf ae 86 0d be de 53 5e bc
       0.35739043 -0.5455835 -0.13820907 -0.0135698
000050 4e 46 00 be 6b d9 54 be 3b 02 86 be 8f fe 8c bd
       -0.12526819 -0.20786063 -0.26173577 -0.06884491
000060 a4 8a 4e 3e 60 cb 78 3d fa a6 e6 3d 2d 0a 4b 3d
       0.20170075 0.06074083 0.11262317 0.04957025
000070 b2 8b bb 3e 52 ee 05 3e e9 95 cc ba 11 4a 18 3d
       0.36630017 0.13079193 -0.0015608642 0.03718001
000080 1a df b6 bd 7b f6 24 3e 67 6a fb bd e6 46 2c bd
       -0.08929272 0.1610965 -0.12276154 -0.0420598
000090 cc 8e e0 bb 25 c7 a3 3c f8 59 8a bd e1 cf ab ba
       -0.00685296 0.01999242 -0.067554414 -0.0013108217
0000a0 7e c9 08 3d 22 f5 71 be b7 81 d3 3d 78 5a a0 bd
       0.033395283 -0.23628667 0.103274755 -0.078297555
0000b0 15 e7 83 3d 2f 09 a7 3d 7e 24 4a bd 4d 74 bb bd
       0.0644056 0.081560485 -0.049351208 -0.09153042
0000c0 34 5a 10 bc 40 83 1a be 96 7b 4a 3e 7d 25 0e be
       -0.008810569 -0.1508913 0.19773707 -0.13881488
0000d0 6b 22 9a 3d 8c de c6 3d cb 95 dc be c7 03 9c bd
       0.07526096 0.09710416 -0.43083033 -0.07617908
0000e0 8c 4d 0a 3e ae c3 10 be 77 57 ab be bb e0 7a bd
       0.13506144 -0.14137146 -0.33465168 -0.061249476
0000f0 1a 70 56 bc 05 df 80 3b 6e f5 11 3d a7 ed 75 3d
       -0.0130882505 0.003932836 0.03563445 0.060041096
000100 dd 40 37 3e 4e 18 17 bd 55 1f 47 3d ce 97 3a be
       0.17895837 -0.036888413 0.048613865 -0.18221971
000110 60 20 bc bd e1 1d a0 bd c8 ef ec 3d 41 4d 27 3c
       -0.091858625 -0.07818199 0.11569172 0.01021129
000120 96 eb 9f 3d 1c 12 5b 3d 37 7a 93 bd 01 de b2 3d
       0.07808606 0.053484067 -0.07201045 0.0873375
000130 1e af 59 bd f7 30 1d be 39 57 64 3d 8d 73 0c be
       -0.05314552 -0.1535071 0.055747245 -0.13715954
000140 ab 0f 9f bc ff 2f 01 be ff d7 f8 3d 2e 38 88 3d
       -0.01941665 -0.12615965 0.12150573 0.066513404
000150 a2 91 60 3c 5b 37 00 3e 31 77 8f 3d b0 79 9f 3d
       0.013706597 0.12521116 0.07005156 0.07786882
000160 57 a4 d5 bd 32 29 0e 3e 12 2f 0e 3d ed f3 87 3d
       -0.10431736 0.13882902 0.03471286 0.06638322
000170 6c d9 17 be 2c bf b8 3d da 48 38 3d 8c 2d 00 be
       -0.14829034 0.09020838 0.04499135 -0.12517375
000180 69 a7 8f bd 9f d8 56 bd da 98 ec bd d6 0b 05 be
       -0.07014353 -0.05245268 -0.115525916 -0.12992796
000190 0a e3 2c be 8e dc ed bc 38 15 11 bd a9 b8 85 3d
       -0.16883484 -0.029035833 -0.035420626 0.06529362
0001a0 31 3b 8f bc e9 6f da 3d 29 c6 15 3e 76 49 7c bd
       -0.01748428 0.106658764 0.14626373 -0.061593495
0001b0 30 e8 fb bd fa 51 3a 3d 39 f6 8b bd f0 04 0d bc
       -0.123001456 0.045488335 -0.068340726 -0.008607134
0001c0 5f 59 0b bd b0 73 99 bd 96 e8 7a bd e5 f9 b0 bd
       -0.034020778 -0.07492769 -0.061256967 -0.086414136
0001d0 05 67 a6 3d e3 01 9d bc 47 27 d7 bd 81 41 cc bd
       0.08125118 -0.019165939 -0.105055384 -0.099734314
0001e0 9e 80 ad 3d 6f 8d 70 bd ef 17 fb bd b8 16 2f be
       0.084717974 -0.05872863 -0.12260424 -0.1709851
0001f0 da c2 29 bf 32 23 a2 bc 1f f6 38 3d ea 1b f2 bd
       -0.66312945 -0.019792173 0.045156594 -0.118217304
000200 f6 95 ba bd 4f 34 73 3c ca 42 26 bc 3e 44 79 3f
       -0.09110634 0.014844014 -0.01014776 0.97369754
000210 c0 04 ee bc 74 f4 a2 3b bd fe 47 bb 64 8b fb 3c
       -0.029055 0.0049729887 -0.0030516826 0.030706115
000220 62 ee 8e 3e eb 48 06 3e 63 5b cb 3a de 70 b6 3d
       0.27916247 0.13113753 0.0015514906 0.089082465
000230 f4 09 ec 3d bf 27 5d bd 4a d3 37 3e 53 27 12 bf
       0.11525336 -0.053992983 0.17951694 -0.57091254
000240 a8 51 a7 3e 5e 03 e0 bd 69 10 b0 be 04 96 70 3d
       0.32679486 -0.10938142 -0.3438752 0.058736816
000250 08 bf 52 be f0 ba ba 3e c1 ed ff 3b 35 28 00 3e
       -0.20580685 0.36470747 0.007810325 0.12515338
000260 2d 4c 12 3e e2 bc 0d bc 0b e4 c7 3e 46 a3 a1 3d
       0.14286871 -0.00865099 0.3904117 0.0789247
000270 7e 59 2e 3e 91 9f 38 3c ac 7e fe 3d f2 7d 9a 3c
       0.17026326 0.011268512 0.124265045 0.018858884
000280 d2 f2 b8 3d 26 25 c7 3d 45 a0 26 bd fd f7 14 be
       0.09030689 0.097238824 -0.04068019 -0.14547725
000290 b5 2b e3 3d ad 12 7b be 4b 87 9a be e3 f3 e1 3d
       0.11092321 -0.24518843 -0.30181345 0.11032846
0002a0 dc ab 66 3e a0 77 05 3e 93 d1 fc 3d b2 54 a1 bd
       0.22526497 0.13033915 0.123446606 -0.078774825
0002b0 19 8a 2d 3e 7b af 5f 3d 36 d3 8d 3e e5 14 33 be
       0.16947211 0.05461071 0.27700204 -0.1748844
0002c0 22 28 a9 3e 04 7d 8b be 2d 04 02 3f ee 47 ad bb
       0.3303843 -0.27243817 0.5078762 -0.0052881157
0002d0 69 11 1f 3e 1a b1 2a 3d 96 ee db bc 08 0d 62 bd
       0.15533985 0.041672803 -0.026847165 -0.05518821
0002e0 87 91 dd be 4b f0 e9 3d 36 74 95 3d 0b 8f 20 bd
       -0.4327509 0.11422785 0.07297556 -0.039198916
0002f0 18 4e bc be e0 45 da 3d f9 40 76 bd 33 ee 3b be
       -0.3677833 0.10657859 -0.060120557 -0.18352585
000300 5f 5e b0 bc bb e7 6a 3e 1b c6 42 bc cd d8 5a 3e
       -0.021529375 0.2293996 -0.011888052 0.21371765
000310 ed 66 f8 3c 1f ca 85 3d 2d f9 56 3d e2 c8 11 be
       0.030322516 0.06532692 0.052483726 -0.14236787
000320 87 2a 7a bd dc e6 c2 3c 58 f8 bc be 33 65 4b bd
       -0.061075713 0.023791723 -0.3690822 -0.049657058
000330 cc 32 f7 3d 8d 42 08 be 7d 3c 58 be 0e d9 85 3e
       0.120702356 -0.13306637 -0.21116824 0.26142162
000340 12 c7 a7 bd 6b e7 11 3e a3 99 e3 bc b2 ae 8f bb
       -0.081922665 0.14248435 -0.02778322 -0.004384839
000350 b8 de 52 3d cb 4f a1 3d 6a 32 fe bc 42 24 bb 3d
       0.051481932 0.078765474 -0.031029899 0.09137775
000360 3f 28 fa 3e de 21 87 bc fd fc b6 3c 38 ee bd bd
       0.4885883 -0.016495641 0.022337431 -0.09273952
000370 5d 7e 7c 3c a0 4c c4 be 3e 93 ed 3c 95 ff 53 bd
       0.015410987 -0.3833971 0.029000875 -0.051757414
000380 3f 14 ac bc e4 2e 17 be d3 e7 21 3e 56 b6 36 3e
       -0.021005748 -0.14763981 0.1581109 0.17842993
000390 73 a2 83 3d 56 0e da bd f2 79 43 3e 9b c2 58 bd
       0.06427469 -0.106472656 0.19089487 -0.052919965
0003a0 d1 b9 f6 3d 38 56 9a bd cc 7a a2 bd 1a 43 7e bc
       0.120471604 -0.07535976 -0.07933578 -0.015518928
0003b0 fd 7c 09 3e 8f 8b 48 be 73 a0 77 3d 2b 20 a3 ba
       0.13426585 -0.19584487 0.06045575 -0.00124455
0003c0 53 4f b3 bd a1 f5 40 bd e0 23 19 3d 03 41 1f 3e
       -0.08755364 -0.04710925 0.03738773 0.15552144
0003d0 93 00 b3 bd ad 9c 56 bd 53 c0 95 3c a4 c3 e7 3d
       -0.08740344 -0.05239551 0.018280184 0.11316612
0003e0 83 f3 dc 3d 5f 6b 54 3e 30 92 26 3d 66 5f b7 bd
       0.10788634 0.20744084 0.04066676 -0.08953743
0003f0 80 a8 11 3d b1 0d 5c bd f6 be 81 3d d2 8f 0f 3e
       0.035561085 -0.053723995 0.06335251 0.14019707

fo2.bias f4 [15]
000000 81 c9 5a be 1a ef a7 3d 7d 22 3b 3e ae ae c8 bd
       -0.2136593 0.08199902 0.18274875 -0.097989425
000010 3b d1 db 3a c5 b9 2c be 26 ed 6a bc 5c cc d9 bd
       0.001677073 -0.1686774 -0.014338767 -0.106346816
000020 1f 3b 06 be 7a 68 e0 3d 69 2d 21 be 83 83 3f bd
       -0.1310849 0.10957427 -0.15739979 -0.04675628
000030 9d 3f 1a 3e 38 1c 33 3d c0 b8 08 bd
       0.15063329 0.043728083 -0.033379316

fo3.weight f4 [10, 15]
000000 30 28 21 bd 2e 11 9b bd c0 0f f1 bd 5c 60 0c 3e
       -0.039344966 -0.07571636 -0.11770582 0.13708633
000010 a8 3f 02 bc 7c 06 6d bd cc 87 fb 3d 5d b6 d3 3d
       -0.007949747 -0.057867512 0.122817606 0.103375174
000020 3f ca 2a 3e fa 9e 71 be 8d d3 33 be db fd 4b 3e
       0.16678713 -0.23595801 -0.17561169 0.19921057
000030 f7 46 31 be b0 ce a4 bc c0 3d fb 3d da f8 82 be
       -0.17312227 -0.020118088 0.12267637 -0.25580484
000040 85 95 39 be 7a 6b 0b 3e c2 96 12 3e 50 0e e4 3d
       -0.18123443 0.13615218 0.14315322 0.111355424
000050 a6 de a9 be 4d 06 51 be eb 01 01 3d 59 29 1b bc
       -0.3317768 -0.2041256 0.03149597 -0.009470307
000060 44 14 69 3c bf 7c 17 3e cd 1c 37 be 19 a9 14 3e
       0.014226023 0.1479368 -0.1788208 0.1451763
000070 53 a1 36 3e 15 6b 50 bc 91 4e ad be f5 7c 66 be
       0.17834978 -0.012720843 -0.33849004 -0.22508605
000080 d4 5a 91 be 0b 42 b7 3d 04 26 fe be 7a c2 48 3e
       -0.2838961 0.089481436 -0.4963838 0.19605437
000090 40 23 1d be de 47 8c 3e 55 41 34 3e 33 57 5b 3e
       -0.15345478 0.2739858 0.17603047 0.21419983
0000a0 57 88 ae 3e 14 df 7c 3e 90 4c 8f be ea 61 9e bd
       0.34088394 0.24694473 -0.279881 -0.077335194
0000b0 35 fe 8b bd cd 42 07 be 22 1d 41 bd 4c e9 42 3d
       -0.068355955 -0.13209076 -0.047146924 0.04758577
0000c0 50 7b 22 3e 00 d5 87 3d a0 3c 02 be 71 78 9a be
       0.15867352 0.066324234 -0.12718439 -0.30170015
0000d0 5d 04 44 3e e7 22 73 3d 10 a5 4c be 3d e1 6a bd
       0.1914229 0.059359457 -0.19984841 -0.05734371
0000e0 39 02 60 3d 80 63 79 3d 71 01 2b 3e fa d8 94 3d
       0.05468962 0.060885906 0.16699769 0.072679475
0000f0 f2 63 9b 3d 2b c7 13 be 20 47 59 3e c4 d0 6a 3d
       0.075874224 -0.14431445 0.21218538 0.057328
000100 95 c3 92 3d e5 c8 a2 bc 91 60 b8 bc 74 91 a5 bc
       0.071662106 -0.019871185 -0.022506984 -0.020210959
000110 86 4d 4c bd 8d 8e fa 3c c3 b4 36 3e e8 28 99 be
       -0.04987862 0.030585552 0.17842393 -0.29914021
000120 b5 4e 0b be 87 30 ac bd c8 5a d1 3d a4 17 26 3e
       -0.13604243 -0.08407693 0.10222393 0.16219956
000130 3a c4 c8 3d f4 50 31 be d3 42 39 3c 16 ba 62 be
       0.09803052 -0.17316037 0.011307436 -0.22141299
000140 b6 59 87 bc fa 94 92 bd 20 ad 93 3d d9 45 6d 3d
       -0.01652227 -0.07157321 0.07210755 0.05792794
000150 5f 24 14 3e 21 e2 68 be f8 4d a2 3d ef 01 c6 bc
       0.14467 -0.22742511 0.079250276 -0.024170844
000160 47 71 2c be e6 c1 bb 3d 7c 16 d3 3d 73 8a ef bc
       -0.16840087 0.091678426 0.10307023 -0.029240822
000170 ea b4 88 3d 5f ee 96 3e 73 ba da bc 1f 5d a4 3d
       0.066751316 0.29478738 -0.026700234 0.08025574
000180 25 cf 61 bd d5 f3 22 be 1f 0f b4 3d 98 5c 99 bd
       -0.05512919 -0.15913327 0.087919466 -0.07488364
000190 79 52 27 be 13 32 90 be cf 4f ce 3d 98 dc d4 3d
       -0.16340055 -0.28163204 0.10073816 0.103936374
0001a0 6a 03 06 be 09 4f 0c 3d 6e 70 60 be a7 64 ed bd
       -0.1308724 0.03425506 -0.21917889 -0.115914635
0001b0 6c 19 90 3e cd 5f f1 3d 9a 9f ff bd aa 07 86 3e
       0.28144395 0.11785851 -0.124816135 0.26177722
0001c0 62 cd c0 3d 03 6a 44 bd e3 57 fb bd d6 f3 64 3e
       0.09414174 -0.047952663 -0.122726224 0.22358641
0001d0 e6 04 bf ba 25 9f db bd 1e 9f 0f 3e 8f da 52 be
       -0.0014573603 -0.10723714 0.14025542 -0.20591186
0001e0 a6 3d a0 bd aa 7b 4b bd cd ae 2e be 74 04 0e be
       -0.078242585 -0.049678482 -0.17058869 -0.13868886
0001f0 52 4a 0c 3e c6 20 27 bd f2 ad 39 be 53 af 0f be
       0.13700226 -0.04080274 -0.18132761 -0.14031725
000200 0c 80 fc 3b 6f fb 0d be 93 d6 b3 3d ca 8c e9 bd
       0.007705694 -0.13865446 0.08781161 -0.114038065
000210 4c c7 e3 bd 28 67 50 bc c9 f7 8c 3d 90 6c d3 bd
       -0.11121997 -0.012719907 0.06883199 -0.10323441
000220 06 5a 95 bc 74 af 9b 3d 6c 54 c5 bd fc 16 9a bd
       -0.018231403 0.076018244 -0.09635243 -0.07523915
000230 5d a6 d9 bd fb 4c a1 3d e4 3a 24 3e 11 0b 8f bd
       -0.106274344 0.07876011 0.1603809 -0.069845326
000240 6b fe 7e 3e bb fc 3f be f6 1f ac 3d 66 dd 17 3d
       0.2490174 -0.18748753 0.084045336 0.037076376
000250 38 8a 26 3e 4a 40 66 bd
       0.16263664 -0.056213655

fo3.bias f4 [10]
000000 c0 6f a9 bd f8 5b 75 be dd 8c c8 bc 70 5b dc bd
       -0.08273268 -0.23960865 -0.024481231 -0.10759628
000010 aa b9 e3 3c 52 3a 15 3e 42 52 91 be 27 56 c2 bd
       0.027798492 0.14573029 -0.2838307 -0.094890885
000020 94 82 9f be 14 d9 1c be
       -0.3115431 -0.15317184

fc1.weight f4 [30, 10]
000000 f8 58 20 3e b7 2b 7d 3d 28 f7 61 bd c5 50 6f 3e
       0.15658939 0.061809268 -0.055167347 0.23370655
000010 64 9c 64 be 2f 14 2f 3e bc 8a 16 3e 90 fc ed bd
       -0.22325283 0.17097543 0.1470136 -0.11620438
000020 ec 5d 07 3e 01 a6 a2 be 89 05 27 3d c2 57 2a be
       0.13219422 -0.31767276 0.040776763 -0.1663504
000030 ce b7 33 be 4d 76 6f be 4b 61 00 3d 86 10 0e 3e
       -0.17550585 -0.23384972 0.031342786 0.1387349
000040 ec 4d 63 be bd 26 90 3d 5b 79 5b be de 5d 61 be
       -0.22197694 0.07038639 -0.21433012 -0.22008464
000050 aa 36 0a be db e4 56 3d 31 18 2f be a9 5f be be
       -0.13497415 0.052464347 -0.17099072 -0.37182358
000060 f3 a4 0e be 52 64 8a 3d 24 b1 2f be 76 07 0d be
       -0.1393011 0.06757416 -0.17157418 -0.13772377
000070 2b a0 09 be 78 75 91 3c 43 83 3e 3e d6 72 23 3d
       -0.13440005 0.017756209 0.1860476 0.039904438
000080 1f 2d f1 bc 6c 6c 86 bd 14 a9 d4 bd ec 9f 6f be
       -0.02944046 -0.065636486 -0.103838116 -0.23400849
000090 e4 43 9d be 84 ae 89 3e 71 59 40 3e 23 16 72 3d
       -0.3071586 0.26890957 0.18784119 0.059103142
0000a0 28 38 70 3e 66 c8 1a 3d 99 2c 3d 3d 61 c6 92 3d
       0.23458922 0.03778877 0.04618511 0.07166744
0000b0 90 d9 31 3e 3b 82 b2 3d f5 22 35 3e a7 85 13 3e
       0.1736815 0.08716246 0.17689116 0.14406453
0000c0 4f ea 8c be 6c d3 fe 3c cd 74 3a 3e 78 2b 8e 3b
       -0.27522513 0.031106673 0.18208618 0.004338678
0000d0 5e 3a 0e bd fa bc 40 3e aa 2d 5c 3d 1e 22 b8 3e
       -0.034723632 0.18822089 0.053754486 0.3596353
0000e0 34 2a 59 be ab ad a8 3e 54 60 46 be ef 3e 59 3d
       -0.21207505 0.32944998 -0.19372684 0.053038534
0000f0 47 5f 92 3b 51 84 d7 bd 60 2d d9 bd 10 e1 45 be
       0.0044669244 -0.10523284 -0.10604358 -0.19324136
000100 09 31 1e be a0 fd 46 be fe 58 0e 3e c9 5f 6b 3e
       -0.15448393 -0.19432688 0.13901135 0.22985758
000110 b3 28 12 be 39 19 a9 3b fd fa 40 3e b2 c4 27 3d
       -0.14273338 0.0051604775 0.18845744 0.040959068
000120 ff 09 4e be e3 b0 0b bd 9f 47 08 3d f3 e9 61 3e
       -0.20121 -0.03410424 0.03327143 0.22061901
000130 e5 bd e2 3c f2 d6 ab bd ab 90 d4 3d 89 87 82 3e
       0.02767844 -0.08390607 0.10379156 0.2549403
000140 9f 52 83 3e 18 03 84 3c e5 29 48 be 1c 83 85 bd
       0.25648972 0.016114756 -0.19547231 -0.06519148
000150 c3 aa e6 3d 48 de 63 be 67 93 52 3d 45 88 54 3e
       0.11263039 -0.22252762 0.051410105 0.20755108
000160 98 3a 30 3c e1 c5 3e be c6 4c 8d be c4 78 9e be
       0.010756157 -0.18630172 -0.27597636 -0.30951512
000170 5e 12 82 bc 3c fc 03 3e 4a 8e af bd 11 e8 36 be
       -0.015877899 0.12889189 -0.08572061 -0.17861964
000180 b4 81 35 3e 3f 60 a0 bc 64 c0 8a 3e 08 bb 2e 3e
       0.17725259 -0.019577144 0.27099907 0.17063534
000190 12 7e 81 3e dc bb 44 3e 76 52 83 3d c2 4c d3 bd
       0.25291497 0.19212288 0.064122126 -0.10317375
0001a0 68 ab 16 3e 7e 0a 61 bd 81 7c b6 be 25 03 e9 3b
       0.14713824 -0.054941647 -0.35641864 0.0071109706
0001b0 d8 5e 27 be ce 50 bb 3d 02 78 a9 bd 62 18 60 3e
       -0.16344774 0.09146272 -0.08274843 0.21884301
0001c0 04 d5 76 3d 83 83 15 be d7 51 a1 3d 27 11 5b bd
       0.06026174 -0.14600949 0.07876938 -0.053483155
0001d0 59 6a 5f 3e 8b 64 92 be db b9 07 3d 81 e0 6b bd
       0.21817912 -0.28592333 0.03313623 -0.05758715
0001e0 65 0b 74 3e b4 10 0d be bf 59 ab bd 7e e6 9a be
       0.23832472 -0.13775903 -0.08366727 -0.30253977
0001f0 27 0e d2 3d ad dc 5a 3a 3f 00 9b bd 60 3c a6 3e
       0.102566056 0.00083489233 -0.07568406 0.32467937
000200 dc 15 66 3e 32 14 cd bb d5 16 36 3e 54 9c 50 3d
       0.22469276 -0.006258511 0.17782147 0.050930336
000210 ee 38 a5 bd b4 fe 86 bd 18 30 04 3e ef d7 b5 bc
       -0.08067499 -0.065915495 0.12908971 -0.022197692
000220 93 11 45 3e 52 b6 80 be 5c 38 66 3e 55 a3 ee bc
       0.19244985 -0.251391 0.22482437 -0.029130617
000230 38 4f 1c 3d 82 bd 3e 3e d2 ed 6c 3d c3 13 bf 3c
       0.038161486 0.18626979 0.05784399 0.023324853
000240 1d 07 26 3e 5f 2d a6 bd 85 b7 88 bd b2 6b 94 3e
       0.16213651 -0.081141226 -0.066756286 0.28988415
000250 e8 5b 18 be b6 e4 aa be 3c 41 5e be da b0 3c 3d
       -0.1487881 -0.33377618 -0.21704572 0.046067096
000260 42 18 cf 3c 52 95 8c be 04 16 84 3e 03 5a 0e 3e
       0.025280122 -0.27457672 0.25798047 0.13901524
000270 d3 71 82 be 10 d6 48 3e 44 94 64 be f3 2d 66 3d
       -0.25477466 0.19612908 -0.22322184 0.056196164
000280 60 48 28 be 17 60 2a 3e 6c 72 d6 3e a3 cc b4 bd
       -0.16433859 0.16638218 0.41884172 -0.08828094
000290 ae 69 97 bb 5f 39 70 bd d0 8d 8e 3d 4b 61 14 be
       -0.0046207523 -0.058648463 0.06960642 -0.1449024
0002a0 c7 c5 41 be bc da 2c be bd c0 47 3c ec bc a5 3d
       -0.18923102 -0.16880316 0.0121919485 0.080926746
0002b0 8e 72 7f 3e e2 3c e8 bd 66 33 25 be 11 9b 42 be
       0.24946043 -0.113397375 -0.16132888 -0.19004466
0002c0 4d e2 51 be 0d 36 ce be 0e 01 f9 bb 2a 36 4b 3e
       -0.20496483 -0.40275612 -0.0075990027 0.1984488
0002d0 f1 99 43 3e b4 f8 6b bd e9 c8 bb be d3 1b 01 3c
       0.19101693 -0.05761023 -0.3667672 0.007880169
0002e0 29 3a 01 3d 17 1c 17 3e 14 5c c4 3d 36 b8 bf 3c
       0.031549606 0.14756809 0.09587875 0.023403268
0002f0 ec 4c 75 3e b1 f8 82 3e 43 f3 56 3b fd 95 b6 bd
       0.23955125 0.2558036 0.0032798804 -0.08915327
000300 be f8 d9 3d c5 54 27 be 18 15 3d bd 96 dc 8e 3e
       0.10643147 -0.16340931 -0.046162695 0.2790267
000310 bc 4d 7a be ad 07 a7 3d a4 fc 9f 3e 0b 99 be bd
       -0.24443716 0.08155761 0.31247437 -0.093065344
000320 5b e3 c5 3d 6a 45 87 3e 72 a7 45 3e f5 b8 75 3e
       0.09662505 0.26420146 0.19302157 0.23996337
000330 74 c6 e7 bd 2e 10 a4 3d f3 98 57 3e 62 e8 1e be
       -0.11317149 0.080108985 0.21054439 -0.15518335
000340 f6 91 65 be f5 df eb 3d 6b 35 7e be 3e 05 25 3e
       -0.22418961 0.11517326 -0.24825065 0.16115281
000350 b0 5b a6 bc 83 e6 36 be e1 98 85 3e 68 15 66 be
       -0.020307392 -0.1786137 0.260932 -0.22469103
000360 f7 96 e4 bd 48 1c 9f bc f4 94 e3 bd 81 1f 0f bd
       -0.11161607 -0.019422665 -0.11112395 -0.034942154
000370 b5 84 6f be f8 13 29 bd 0c af 47 bc 97 ca 5c 3e
       -0.23390467 -0.04127881 -0.0121877305 0.21561657
000380 60 8b 11 3e a9 48 65 3c bf 87 86 3e 35 74 85 3d
       0.14213324 0.013994374 0.2627544 0.06516305
000390 7d 1e d1 3d 4d 85 7c be 7a 46 19 3e 4e ed 72 3e
       0.10210893 -0.24660225 0.14968291 0.23723337
0003a0 20 01 9f bd 47 d3 25 be 76 2c 38 be 9c cc 01 3e
       -0.077638865 -0.16193877 -0.1798571 0.12675709
0003b0 61 07 e2 be fc 68 54 be 7b ef 02 3e 1c b7 0a 3e
       -0.44146255 -0.20743173 0.12786667 0.13546413
0003c0 af df 0b be a2 12 1c bc 69 93 c8 bd db 4d 6e be
       -0.13659547 -0.009525927 -0.09793741 -0.23271887
0003d0 a9 c6 6a 3e 93 23 e3 3c 56 59 68 be 2e eb 30 3e
       0.22927345 0.027726924 -0.22690329 0.17277214
0003e0 0d cb 8d bd ab a1 f5 3d bb 66 5c bd 96 c4 b9 bd
       -0.069234945 0.11993726 -0.05380891 -0.09070699
0003f0 d3 ba 9b be 80 db a4 3e 94 f1 ea bd 15 73 82 bd
       -0.30415973 0.32198715 -0.114718586 -0.063696064

fc1.bias f4 [30]
000000 e1 79 9b be 44 0f 73 bd 5f e6 be 3e b0 9f d9 3d
       -0.30366424 -0.05934073 0.37285134 0.10626161
000010 64 bb 98 3d 62 1b b9 3e 7d 4c 4b be 56 ca 32 be
       0.07457617 0.36153704 -0.19853397 -0.17459998
000020 c6 fa 31 3e ba c3 b6 bb 73 24 8f bd ef f9 95 3e
       0.17380819 -0.0055775316 -0.06989374 0.29292247
000030 db dc 04 3e b8 2c 3b 3e 15 6c 0f 3e 7a fe 0c 3e
       0.12974875 0.18278778 0.14006074 0.1376895
000040 f5 36 ec 3d 5c 0d 62 3c a6 b6 21 3d 1c 4b 16 be
       0.1153392 0.01379713 0.039480828 -0.1467709
000050 c1 d7 b1 39 6f e9 0c be c3 d6 77 be f2 65 2f be
       0.0003392082 -0.13760923 -0.24203019 -0.17128733
000060 13 e8 2f be 9d b9 07 be 24 6b ac 3d 3a 45 c7 3c
       -0.17178373 -0.132544 0.08418873 0.024325002
000070 6c d3 99 be 17 a8 75 bc
       -0.30044115 -0.014993689
