JEDInet_pytorch/IN_Top_Hyper_Old_100/IN_sumO_bestmodel.params (torch, 595729 bytes, 18 tensors)

fr1.weight f4 [256, 28]
0	0x3bd1efbe	0.0064067533
1	0xbcec6c65	-0.02886028
2	0xbc70adf5	-0.014689912
3	0x3d4f2665	0.050573725
4	0x3e57fd53	0.2109273
5	0xbd8a095d	-0.06740067
6	0x3ccfbd4b	0.025358817
7	0x3cfc6798	0.030811116
8	0xbe4f3c28	-0.20237792
9	0x3dd755de	0.10514425
10	0x3e182d3e	0.14861009
11	0x3e1beffd	0.15228267
12	0x3f84d3e8	1.0377169
13	0x3de3721d	0.1110575
14	0x3cc257e9	0.02372356
15	0x3c8b1f75	0.016982773
16	0xbc08c212	-0.008347051
17	0x3d9f8607	0.077892356
18	0x3e3dfb3d	0.18552871
19	0x3d6427fc	0.055702195
20	0xbd0ded24	-0.034649983
21	0x3db2f6e4	0.08738497
22	0xbb025014	-0.0019884156
23	0x3e00cfcc	0.12579268
24	0xbe26579d	-0.1624436
25	0xbe12578c	-0.14291209
26	0xbe9c1126	-0.30481833
27	0xbeb3a3b0	-0.3508582
28	0x3ce382e4	0.027772374
29	0x3e0e3e19	0.13890876
30	0x3c2b6bfd	0.010462758
31	0xbd65c412	-0.05609519
32	0xbd0940eb	-0.033509176
33	0xbc889a3b	-0.016675105
34	0xbbb864a4	-0.0056272317
35	0x3dd6a9eb	0.10481628
36	0xbe11f701	-0.14254381
37	0xbc84b166	-0.016197871
38	0xbcf9c652	-0.030490074
39	0x3d01c9f6	0.031686746
40	0x3f19a7c4	0.60021615
41	0x3f13309d	0.57496053
42	0xbd298091	-0.041382376
43	0x3cebb818	0.028774306
44	0xbc456461	-0.012047858
45	0xbbf09298	-0.007341694
46	0xbe919f83	-0.2844201
47	0x3de8a27d	0.11359117
48	0xbdc226fc	-0.09480092
49	0x3daefaff	0.085439675
50	0x3b523d3e	0.003207996
51	0xbe30c5e3	-0.17262988
52	0xbe563506	-0.20918664
53	0xbdd167df	-0.1022489
54	0xbe20b157	-0.1569265
55	0x3eeec1fd	0.46632376
56	0xbd5af623	-0.05345739
57	0x3dbfe5fb	0.09370037
58	0x3d85b93f	0.065294735
59	0xbdf8329e	-0.121190295
60	0xbe7ecb37	-0.24882208
61	0x3da6a622	0.08137156
62	0xbe8d0011	-0.27539113
63	0xbe07ba61	-0.13254692
64	0xbe323fbf	-0.1740713
65	0x3d0249d6	0.031808697
66	0xbd773e44	-0.060362116
67	0x3e6d0149	0.23145021
68	0xbf0dcbe8	-0.5538926
69	0x3d94d12c	0.07266459
70	0xbd9e02ef	-0.07715403
71	0xbdafea87	-0.085896544
72	0x3da80ca9	0.0820554
73	0x3e04ec39	0.12980737
74	0xbe244266	-0.16040954
75	0x3e72ffbe	0.2373037
76	0x3dbe8d20	0.09304261
77	0xbe6af7f6	-0.22946152
78	0xbe8c09a9	-0.2735112
79	0x3c16c859	0.00920304
80	0xbe395a86	-0.18100938
81	0xbb9997b7	-0.0046872753
82	0x3e90e10c	0.28296697
83	0x3ef64432	0.48098904
84	0xbd91238f	-0.070868604
85	0xbda2f97d	-0.07957742
86	0x3ce924aa	0.028459866
87	0xbe826cb0	-0.25473547
88	0xbecf16a4	-0.4044696
89	0xbea703c3	-0.32620057
90	0xbec2ff3c	-0.38085353
91	0x3e351774	0.17684728
92	0xbe4712d0	-0.1944077
93	0x3e0b084c	0.13577384
94	0x3d3d34c4	0.0461929
95	0xbb2d78db	-0.002646974
96	0xbe7cbfa9	-0.24682488
97	0xbe65e034	-0.22448808
98	0x3d9bb034	0.076019675
99	0xbdf0ce93	-0.11758151
100	0xbdaca2d9	-0.08429498
101	0x3e111044	0.14166361
102	0x3c8fa3bc	0.01753413
103	0xbe2033a3	-0.15644698
104	0xbc2c94ad	-0.010533494
105	0xbd8d3db6	-0.06896536
106	0xbddce5b6	-0.107860014
107	0x3e093230	0.13398051
108	0x3e0543f7	0.13014208
109	0x3cbe0b91	0.023198875
110	0x3dc5faee	0.09667002
111	0xbe264df2	-0.16240671
112	0xbe064f6e	-0.13116238
113	0xbd6bfe3d	-0.057615507
114	0x3dee37ed	0.11631761
115	0xbee777ed	-0.45208684
116	0xbf212537	-0.6294741
117	0xbeeac0ef	-0.45850322
118	0xbf00563d	-0.5013159
119	0xbe33604f	-0.17517208
120	0xbe5d0c01	-0.2158661
121	0x3e081a15	0.132912
122	0xbd340d4f	-0.043958005
123	0x3d123ae1	0.035700683
124	0x3ccf18a0	0.025280297
125	0xbe4b0d5c	-0.19829315
126	0x3df881db	0.12134143
127	0xb96f195a	-0.0002280226
128	0x3dbd4669	0.09241945
129	0xbca8fc91	-0.020628246
130	0xbe8750fd	-0.26428977
131	0xbd8d0143	-0.06885006
132	0xbe5c474c	-0.21511573
133	0xbe624f38	-0.22100532
134	0xbec05229	-0.37562683
135	0x3e53d82e	0.20687935
136	0x3dd3efc7	0.10348468
137	0x3e17d367	0.14826737
138	0x3e9b22ad	0.30299893
139	0x3ea01ae7	0.31270525
140	0x3b2a868e	0.0026020142
141	0xbb5e02b9	-0.0033876135
142	0xbb90aabc	-0.0044148844
143	0xbc14873d	-0.009065446
144	0xbd5982a4	-0.053103104
145	0x3ca24816	0.019809764
146	0x3e0a1a90	0.13486695
147	0xbd5f70f2	-0.054551072
148	0x3d2b264e	0.041784577
149	0xbe06b6b0	-0.13155627
150	0x3cd3ccb9	0.025854455
151	0x3e297bb6	0.16551098
152	0xbe931651	-0.28727964
153	0xbd68146c	-0.0566601
154	0xbd260344	-0.040530458
155	0xbcb5c7ff	-0.022190092
156	0xbb582f56	-0.0032987199
157	0x3d9f0607	0.077648215
158	0xbdc29100	-0.09500313
159	0xbde7eb20	-0.113241434
160	0xbe7bebf5	-0.24601729
161	0x3bde3492	0.006781169
162	0x3e4539cf	0.19260333
163	0xbe147225	-0.14496668
164	0x3c4c19c9	0.01245732
165	0xbda79423	-0.08182552
166	0x3d426bb9	0.047466014
167	0x3f0584d9	0.52155834
168	0x3b513b86	0.0031926348
169	0xbb7c364f	-0.003848452
170	0xbca00e57	-0.019538088
171	0xbd9ed15f	-0.07754778
172	0xbcb3f446	-0.021967065
173	0x3de0818d	0.1096221
174	0xbe3b44ee	-0.18288013
175	0x3e2552de	0.16144893
176	0xbc377f0a	-0.011199722
177	0x3e276292	0.16346195
178	0x3c132efa	0.008983368
179	0x3de8b076	0.11361782
180	0xbc46186a	-0.012090782
181	0x3ebcaaff	0.3684921
182	0x3dcc814e	0.099856004
183	0xbcc8b5e6	-0.024500798
184	0xbd98489b	-0.074357234
185	0xbe0c2143	-0.13684563
186	0xbd8b707c	-0.06808564
187	0xbea0ad2a	-0.31382114
188	0xbe31db1a	-0.17368737
189	0x3d807eb9	0.062741704
190	0x3e3fd9c1	0.1873541
191	0xbdd620f9	-0.10455508
192	0xbd2be51b	-0.04196654
193	0xbda35710	-0.0797559
194	0xbe9ad376	-0.30239457
195	0xbe94671f	-0.28984925
196	0xbda7bf4b	-0.08190783
197	0x3d76ee74	0.060286
198	0xbb330543	-0.0027316369
199	0xbc7ad1e4	-0.015308831
200	0xbe876598	-0.26444697
201	0x3e020f11	0.1270106
202	0xbe8e3b27	-0.27779505
203	0x3e3aa7f1	0.18228127
204	0xbe28ca23	-0.16483359
205	0x3c9c382f	0.01906976
206	0x3d0b2884	0.033974186
207	0x3e582fcd	0.21111985
208	0xbf7c9219	-0.9866043
209	0x3f23649f	0.6382541
210	0x3e743d7e	0.23851582
211	0xbe38a06e	-0.18029949
212	0xbc74bfef	-0.014938339
213	0xbe692519	-0.22768058
214	0xbd9bb851	-0.07603515
215	0xbe0f73dd	-0.14009042
216	0xbe9cc872	-0.30621678
217	0xbd472726	-0.04862132
218	0x3d12d7c3	0.035850298
219	0x3e92cb71	0.28670838
220	0xbdd1fc6c	-0.10253224
221	0x3e8daeb8	0.27672362
222	0x3e92f6ed	0.28704014
223	0xbe3116b2	-0.17293814
224	0x3d227885	0.039665718
225	0xbdcfe00f	-0.10150158
226	0xbb744d67	-0.003727758
227	0x3e040680	0.12893105
228	0xbe33da0f	-0.17563652
229	0xbe0394e1	-0.12849762
230	0xbe5b97ad	-0.21444578
231	0x3d583774	0.05278726
232	0x3ea26bbe	0.31722826
233	0xbe1312de	-0.14362666
234	0xbdd13101	-0.10214425
235	0xbd9ad584	-0.07560256
236	0xbf6fce11	-0.9367381
237	0x3f8aa312	1.0831015
238	0x3da1a131	0.07892073
239	0xbe04b7d3	-0.12960748
240	0x3d6bce6f	0.057569917
241	0x3dcfccea	0.10146506
242	0xbea53451	-0.32266477
243	0x3e6f425f	0.23365162
244	0x3d61c3d7	0.055118408
245	0xbbc9a378	-0.00615352
246	0x3e143ba0	0.1447587
247	0xbdbbe6eb	-0.091749035
248	0x3e088106	0.13330469
249	0x3e09dd83	0.13463406
250	0x3e33bdcf	0.17552875
251	0x3e5bd07c	0.21466249
252	0xbd3eac21	-0.046550874
253	0xbdacd01c	-0.08438131
254	0xbd67b100	-0.056565285
255	0xbcef62e1	-0.029221954

fr1.bias f4 [256]
0	0x3dcd4d3a	0.100244954
1	0xbd94b96a	-0.072619274
2	0xbe75b336	-0.23994145
3	0xbec25841	-0.37957957
4	0xbdfd98fc	-0.12382695
5	0xbd7d086e	-0.061775617
6	0x3e21e866	0.15811309
7	0xbe2cf37f	-0.16889761
8	0xbde9905d	-0.11404488
9	0xbc555357	-0.013020358
10	0x3da15036	0.07876627
11	0x3d9e0ae3	0.0771692
12	0x3e38d128	0.18048537
13	0xbe55761d	-0.20845838
14	0x3e735315	0.23762162
15	0xbea25633	-0.3170639
16	0xbbebfeab	-0.0072019896
17	0xbe210117	-0.15723072
18	0x3dd31e79	0.103085466
19	0xbd81e447	-0.063423686
20	0x3d7c9102	0.061661728
21	0x3d3c639b	0.04599343
22	0xbdbaa990	-0.09114373
23	0xbe7ee828	-0.24893248
24	0xbe515544	-0.20442683
25	0x3d5136e9	0.051077757
26	0x3c1df2b7	0.009640387
27	0x3c7b2256	0.015328011
28	0xbe63cfab	-0.22247188
29	0xbd30aebe	-0.043135397
30	0x3d2e9114	0.042618826
31	0x3da18650	0.07886946
32	0x3e84fc15	0.25973573
33	0x3e17d127	0.14825879
34	0x3e6c0680	0.23049355
35	0xbe1911da	-0.14948216
36	0xbe5c0677	-0.21486841
37	0x3eb55ad5	0.35420862
38	0xbec5f5e2	-0.38664156
39	0x3dfa7381	0.12229062
40	0xbb10aa1e	-0.0022074054
41	0xbe67d8bd	-0.22641273
42	0xbd80b195	-0.06283871
43	0xbead896f	-0.33893916
44	0x3ca95c2a	0.02067383
45	0xbdc9f7ed	-0.09861741
46	0xbe4a34ba	-0.19746676
47	0xbaa728f4	-0.0012753294
48	0x3e64ddd8	0.22350252
49	0x3eac971e	0.33709043
50	0xbe5d2c14	-0.21598846
51	0xbe83a239	-0.25709704
52	0xbe8ff624	-0.28117478
53	0xbc8b56ab	-0.0170091
54	0xbe818fc4	-0.25304997
55	0xbd8c5338	-0.0685181
56	0xbe4893c0	-0.19587612
57	0x3df5abd9	0.11995668
58	0x3b0808c6	0.0020757183
59	0xbe5e2a47	-0.21695815
60	0x3e4bf3d4	0.19917232
61	0xbe163b4e	-0.1467106
62	0xbe68203f	-0.22668551
63	0x3dfa1217	0.122104816
64	0x3dbcf2b2	0.09225978
65	0xbe811237	-0.2520921
66	0x3d73c027	0.059509423
67	0xbe8de283	-0.27711877
68	0xbe83498b	-0.25642046
69	0x3e444ff3	0.19171123
70	0x3e1b2617	0.15151249
71	0x3dd63c8c	0.10460767
72	0x3b537dfc	0.0032271137
73	0x3e18b62f	0.14913248
74	0xbeb01641	-0.34391978
75	0x3e27f785	0.16403015
76	0xbe420af2	-0.18949488
77	0xbce0908a	-0.027412672
78	0xbe3f6f29	-0.18694748
79	0xbda45d6a	-0.0802563
80	0x3d00c125	0.031434197
81	0xbe61734c	-0.22016639
82	0xbe82a667	-0.2551758
83	0xbde18edc	-0.110135764
84	0xbe389be9	-0.18028225
85	0x3c51dbf2	0.012808787
86	0xbe4e1a1e	-0.2012715
87	0xbe4378f2	-0.19089106
88	0x3c4a0d2f	0.012332245
89	0xbe8423a7	-0.2580845
90	0x3e315988	0.1731931
91	0x3d9b800b	0.07592782
92	0xbdb78451	-0.08960784
93	0x3e586cc1	0.21135236
94	0x3d99d78b	0.07511815
95	0xbdbd5ecb	-0.09246596
96	0xbbbe6ee1	-0.0058115576
97	0x3e334186	0.17505464
98	0xbe48b08a	-0.19598594
99	0xbc76f802	-0.015073778
100	0xbe575b88	-0.2103101
101	0xbde7adba	-0.113124326
102	0x3e849118	0.25891948
103	0xbe156178	-0.14587963
104	0xbd93d9fd	-0.07219312
105	0x3da22049	0.07916314
106	0x3e65a1c9	0.22424997
107	0xbe738e95	-0.2378486
108	0xbdd9fbde	-0.10643743
109	0x3e842121	0.25806525
110	0x3d74bb7d	0.059749115
111	0x3d3b9f9d	0.045806516
112	0x3e23f587	0.1601163
113	0xbe58a891	-0.21158053
114	0xbe968100	-0.29395294
115	0x3e8cce2d	0.2750105
116	0x3add99e2	0.0016906823
117	0x3eabbfe0	0.33544827
118	0xbe93db56	-0.28878278
119	0xbc3c10fa	-0.011478657
120	0x3d8e056f	0.0693463
121	0x3d8b29dd	0.06795094
122	0xbd780297	-0.060549345
123	0x3e6898a7	0.22714482
124	0x3e6d5c9c	0.23179859
125	0xbe3a9df6	-0.1822432
126	0x3e71a7b3	0.23599128
127	0x3d20683b	0.039161902
128	0x3ebb2063	0.36548147
129	0x3e91dcb5	0.284887
130	0x3d013d85	0.03155281
131	0x3cd0c049	0.025482314
132	0xbba7a8ba	-0.0051165493
133	0xbe9beab7	-0.3045251
134	0xbd2e569d	-0.04256307
135	0x3e74cfc8	0.23907387
136	0xbdb3b695	-0.08775059
137	0x3ead5361	0.33852676
138	0x3e8d9de3	0.2765952
139	0x3e4523ee	0.19251987
140	0xbde7ec73	-0.11324396
141	0xbccfff9d	-0.02539044
142	0xbd89790a	-0.067125395
143	0xbd48bf81	-0.049010757
144	0xbe1f9368	-0.15583575
145	0x3ec5cf70	0.38634825
146	0xbe0894ae	-0.13337967
147	0xbe1580af	-0.1459987
148	0xbdaf8d99	-0.085719295
149	0xbd4323af	-0.047641452
150	0xbe175a0e	-0.14780447
151	0xbeb6e407	-0.35720846
152	0xbe624a03	-0.22098546
153	0xbd9727cc	-0.073806375
154	0xbdab2751	-0.083571084
155	0xbc886cb3	-0.016653394
156	0xbde34ebb	-0.11099001
157	0xbe4984e4	-0.196796
158	0x3e0d06e9	0.13772167
159	0xbecdf94d	-0.40229264
160	0xbe1a4ded	-0.15068789
161	0xbe4a4855	-0.19754155
162	0xbe898f3f	-0.268671
163	0xbe90380b	-0.28167757
164	0x3e28bd71	0.16478516
165	0xbe327472	-0.17427233
166	0xbc1dfe3b	-0.009643133
167	0xbe3292f0	-0.17438865
168	0x3e1ff236	0.1561974
169	0xbd2d7040	-0.042343378
170	0x3cdbb5c9	0.02682008
171	0x3d414b60	0.047191024
172	0x3e0b08e6	0.13577613
173	0xbe544aba	-0.20731631
174	0xbdbb5ef1	-0.09148968
175	0xbe1e3c5a	-0.1545271
176	0x3ead48cf	0.3384461
177	0xbe9c6e0a	-0.30552703
178	0x3e666a64	0.22501522
179	0xbe952601	-0.29130557
180	0xbe714277	-0.2356051
181	0xbe20b7d1	-0.1569512
182	0x3dc4693d	0.09590385
183	0xbd4144fa	-0.04718492
184	0xbe290c7d	-0.1650867
185	0x3e011a39	0.1260766
186	0x3e83b4fa	0.25724012
187	0x3bb85400	0.005625248
188	0x3e200ad9	0.15629138
189	0xbe74570b	-0.2386133
190	0xbe990f93	-0.29894695
191	0x3dbd4f57	0.092436485
192	0x3e5fd640	0.21859074
193	0x3e8b982d	0.27264538
194	0x3e288645	0.1645747
195	0xbe391865	-0.18075712
196	0x3e4137a9	0.18868889
197	0x3da4dce5	0.08049945
198	0xbe558b5f	-0.20853947
199	0xbe8fecb0	-0.28110266
200	0x3e500c80	0.20317268
201	0x3e8630a4	0.26208985
202	0x3e1a28aa	0.15054575
203	0xbeb21d9d	-0.34788218
204	0x3d44fdd9	0.04809365
205	0xbd9c3bf4	-0.07628623
206	0xbe853a8f	-0.2602124
207	0x3da5108e	0.08059798
208	0xbda4e101	-0.080507286
209	0x3b30c21d	0.002697117
210	0x3e3f0416	0.18653902
211	0x3eb0524b	0.34437785
212	0xbd13f5f6	-0.03612324
213	0xbe9080d0	-0.28223276
214	0x3d63f531	0.055653755
215	0xbe31a807	-0.17349254
216	0xbe8a533a	-0.27016622
217	0xbdc6a22b	-0.096989
218	0xbea204c3	-0.31644258
219	0xbebf0d7c	-0.37314975
220	0xbe9a85e7	-0.30180284
221	0xbdbc9880	-0.092087746
222	0xbe8bdbc7	-0.27316114
223	0xbd8bcd57	-0.06826275
224	0xbe7e3604	-0.24825293
225	0x3dd0af75	0.10189716
226	0x3e8136ee	0.2523722
227	0xbec44f60	-0.38341808
228	0xbe981640	-0.29704475
229	0x3ea3e349	0.32009342
230	0x3e0468e7	0.12930642
231	0xbe359e6a	-0.17736211
232	0xbe7d00ab	-0.24707286
233	0x3c277bf8	0.010222428
234	0x3e01d5bc	0.1267919
235	0x39641a92	0.00021753673
236	0x3e2364b9	0.15956391
237	0x3cedf139	0.029045688
238	0x3ea0e60e	0.31425518
239	0xbea67669	-0.32512215
240	0xbe440ddb	-0.1914591
241	0xbd9d1cb1	-0.07671488
242	0xbe843b82	-0.2582665
243	0xbe828666	-0.25493163
244	0x3caad0b9	0.02085148
245	0xbe9fe0d9	-0.31226233
246	0xbe6c907a	-0.23101988
247	0xbde9f970	-0.114245296
248	0xbdbcf111	-0.09225667
249	0x3deed3db	0.11661502
250	0xbe190908	-0.14944851
251	0x3e1bd046	0.15216169
252	0x3e35fba1	0.1777177
253	0x3e7e5dc8	0.24840462
254	0x3b1c4acc	0.0023848293
255	0x3c74aed6	0.014934262

fr2.weight f4 [128, 256]
0	0xbbb77a4c	-0.0055992957
1	0xbc97235f	-0.018449483
2	0xbdf5f1f0	-0.120090365
3	0x3cc0387e	0.023464438
4	0x3c6812f9	0.01416468
5	0x3cac3d0b	0.021025201
6	0x3d2392bd	0.039934862
7	0x3d8d22be	0.06891392
8	0xbd6b3b7f	-0.057429787
9	0xbb109f6e	-0.0022067684
10	0x3d642aa8	0.055704743
11	0x3d66bf53	0.056334805
12	0xbda3b082	-0.079926506
13	0x3c28fd57	0.010314307
14	0x3cbf3840	0.023342252
15	0x3d829c86	0.06377511
16	0x3d4b0e86	0.049574398
17	0xbb92ada4	-0.004476266
18	0xbce888c7	-0.028385533
19	0xbd1a51f3	-0.03767581
20	0xbd201d69	-0.039090548
21	0x3dadce43	0.08486607
22	0xbccf25a1	-0.025286498
23	0xbb89c28a	-0.004204099
24	0x3ce1aca6	0.027548146
25	0x3d83f352	0.06442894
26	0x3d4c8a41	0.049936537
27	0xbddeea6c	-0.10884556
28	0xbdf9b615	-0.121929325
29	0xbde15ad2	-0.11003651
30	0x3ca64db5	0.020300725
31	0xbd6b0f60	-0.05738771
32	0x3cc3b1a6	0.02388842
33	0xbd79fc13	-0.061031412
34	0x3c445bd6	0.011984786
35	0xbd31d50b	-0.043416064
36	0xbcd5fb9b	-0.026120951
37	0xbca6e992	-0.020375047
38	0x3d5ac38a	0.053409137
39	0xbd6a54fd	-0.057209957
40	0x3d97b414	0.07407394
41	0x3c8e0f4f	0.017341284
42	0x3c8b3e1a	0.016997386
43	0xbce1dfc6	-0.027572524
44	0x3d1013c2	0.035175093
45	0x3d89772a	0.06712182
46	0xba3176f4	-0.00067697396
47	0x3d4427af	0.047889408
48	0xbc8004f8	-0.01562737
49	0x3df65ba5	0.120291986
50	0xbd470772	-0.048591085
51	0xbd57e685	-0.052710075
52	0xbd421454	-0.047382668
53	0x3dc3b4ce	0.0955597
54	0xbc9c250b	-0.019060632
55	0xbcf751fa	-0.030190457
56	0xb877cbdf	-5.907926e-05
57	0xbde042b8	-0.109502256
58	0xbcdf675b	-0.027270963
59	0xbc29b581	-0.010358215
60	0x3d1b6edd	0.037947524
61	0xbd0aae55	-0.033857662
62	0x3d42df06	0.047575973
63	0xbda8278c	-0.08210668
64	0x3dce0838	0.10060161
65	0x3d7ae178	0.06125018
66	0x3d0fdce4	0.035122767
67	0xbd7663f9	-0.060153935
68	0x3c895a12	0.016766582
69	0xbc8c4713	-0.017123735
70	0x3d1701dc	0.036867008
71	0xbd881cc3	-0.06646111
72	0xbd6f9745	-0.05849387
73	0x3b22eb8e	0.002485964
74	0x3caa8781	0.020816566
75	0x3d80b5c0	0.06284666
76	0x3cb50063	0.022094911
77	0xbd3ef19b	-0.04661713
78	0x3dc6deae	0.097104415
79	0x3d7bbfab	0.061462086
80	0xbc67f151	-0.014156655
81	0x3b76273a	0.0037560002
82	0x3d488cac	0.04896228
83	0xbd3a170c	-0.045432135
84	0xbd2c34e2	-0.04204262
85	0x3c4c7f5f	0.0124815395
86	0x3c264835	0.010149051
87	0xbccfa0ee	-0.025345292
88	0x3d0f4875	0.03498121
89	0x3cabd0c2	0.020973567
90	0x3cb83d0e	0.02249005
91	0x3d6479f6	0.055780374
92	0xbce10c1b	-0.027471593
93	0xbba1dd7f	-0.0049397345
94	0x3c8accb0	0.016943306
95	0xbc474b57	-0.0121639585
96	0xbd8089cd	-0.062762834
97	0xbdab8b8e	-0.08376227
98	0xbd423473	-0.0474133
99	0xbdb5b1e5	-0.08871821
100	0xbd47273f	-0.048621412
101	0xbbb8ae58	-0.005636018
102	0x3a3a8a10	0.000711591
103	0xbd014fc9	-0.03157023
104	0x3c3847fb	0.01124763
105	0xbd98963d	-0.07450531
106	0x3d86a9a3	0.065753244
107	0xbc705094	-0.014667649
108	0x3cc12d9a	0.023581315
109	0x3dcb9f93	0.09942546
110	0x3d5e3eb9	0.054259036
111	0x3c8a52f8	0.016885266
112	0xbd010222	-0.031496175
113	0xbc4972a0	-0.012295395
114	0xbd99f3e9	-0.07517225
115	0x3ce0daac	0.02744802
116	0xbd07111a	-0.032975294
117	0x3d456eb1	0.048201267
118	0xbc6c7826	-0.0144329425
119	0xbd034bba	-0.03205464
120	0xbde0fe79	-0.10986037
121	0xbc69063a	-0.014222676
122	0x3cfd2b55	0.030904451
123	0xbda48f9e	-0.08035205
124	0xbce544af	-0.027986852
125	0xbb4c8d3c	-0.0031212112
126	0x3d02d7ef	0.03194421
127	0xbd4db8c1	-0.050225023
128	0xbd145c46	-0.03622081
129	0xbd8a2472	-0.06745233
130	0x3c1538aa	0.009107748
131	0x3c821147	0.01587738
132	0x3d42642d	0.047458816
133	0x3bdd25ee	0.0067489063
134	0xbca40e73	-0.020026421
135	0xbcd2fa60	-0.025754154
136	0x3cbbc5f0	0.022921532
137	0xbd7ebde2	-0.062192805
138	0xbcf4c9e1	-0.02988142
139	0x3cf41c9d	0.0297988
140	0xbd90012f	-0.07031476
141	0xbc3c8288	-0.01150573
142	0xbb8aa756	-0.004231374
143	0xbd34c20e	-0.044130377
144	0x3d8a4647	0.067516856
145	0x3dcc0a79	0.09962935
146	0xbd1ded1e	-0.03855621
147	0x3b3dda26	0.0028969138
148	0xbca0fe42	-0.01965249
149	0xbd830ba9	-0.063987084
150	0x3d018db7	0.03162929
151	0xbc8d1a4a	-0.01722445
152	0x3d43f0d2	0.047837086
153	0x3d10b946	0.03533294
154	0x3d3918a8	0.04518953
155	0xbcc33a46	-0.023831498
156	0x3cb852bc	0.022500388
157	0x3ad0ab83	0.0015920255
158	0x3d4bbdea	0.049741663
159	0xba684395	-0.0008860168
160	0xba7102dc	-0.00091938465
161	0x3bb9a50d	0.0056654275
162	0x3c791bd0	0.015204385
163	0x3d13a411	0.036045138
164	0xbd320330	-0.04346007
165	0x3e2ed594	0.17073661
166	0x3d69844c	0.057010934
167	0xbd003742	-0.031302698
168	0x3d221312	0.039568968
169	0x3d1d05a1	0.038335446
170	0xbdc622b0	-0.09674585
171	0xbdbe71c0	-0.0929904
172	0x3d8ceb42	0.06880809
173	0x3ce8620e	0.028367069
174	0xbc717416	-0.01473715
175	0xbd829671	-0.06376351
176	0x3c595514	0.013264913
177	0xbdeccc77	-0.11562436
178	0xbd9fa1bb	-0.077945195
179	0xbd0bd4c0	-0.03413844
180	0x3b23d9e8	0.0025001708
181	0xbda3e380	-0.080023766
182	0x3d0bc042	0.0341189
183	0xbd99aca1	-0.075036295
184	0xbc37e4b0	-0.011223957
185	0xbda64b31	-0.081198104
186	0x3c3c3242	0.011486592
187	0x3d4b60df	0.04965293
188	0xbcd60fbb	-0.026130548
189	0xbc3a9400	-0.011387825
190	0x3db4fe0e	0.088375196
191	0xbd0ba507	-0.03409293
192	0xbdcc3823	-0.09971645
193	0xbd73b811	-0.05950171
194	0xbcebff5d	-0.02880829
195	0x3c8f5850	0.017498165
196	0x3cc58297	0.024110122
197	0x3d191304	0.03737165
198	0xbc85a7a5	-0.01631529
199	0x3c877941	0.01653731
200	0x3d080415	0.033207018
201	0x3c8e2a46	0.017354142
202	0x3c81ecfb	0.015860071
203	0xbd7960bb	-0.060883265
204	0x3d21cd60	0.0395025
205	0xbcecc076	-0.028900366
206	0xbc211ff8	-0.009834282
207	0xbccd9966	-0.02509756
208	0x3d06f036	0.032943927
209	0xbd6e52f2	-0.05818457
210	0x3d82f912	0.06395163
211	0x3d1ccf2f	0.038283523
212	0xbd376f24	-0.044783726
213	0x3a9f90a2	0.0012173841
214	0x3c98f549	0.018671649
215	0x3da8959f	0.08231663
216	0xbdb34c14	-0.08754745
217	0xbd3854fa	-0.045002915
218	0xbd54ff18	-0.05200109
219	0xbcd1589a	-0.025554944
220	0xbdd362a0	-0.103215456
221	0xbb96a467	-0.004597235
222	0x3c0d5ace	0.008627607
223	0xbe05f182	-0.13080409
224	0xbc1b0bb6	-0.009463241
225	0x3ce7d69b	0.028300574
226	0xbce0340e	-0.027368572
227	0x3c4363f4	0.011925686
228	0xbdcda59d	-0.10041354
229	0x3d1f2ce2	0.038861163
230	0x3dccd3e5	0.10001353
231	0x3d7c6f30	0.061629474
232	0xbc0287bc	-0.007966932
233	0x3c3d8383	0.011566999
234	0xbd2c2dab	-0.04203574
235	0x3c531e3f	0.012885629
236	0xbd2ff32f	-0.042956527
237	0xbc58ead6	-0.013239583
238	0x3d9bb4e1	0.07602859
239	0xbc9377b2	-0.018001411
240	0xbd8d48b1	-0.068986304
241	0x3d53fc52	0.051754303
242	0x3df8dd79	0.121516176
243	0xbda61e38	-0.081112325
244	0x3da180bc	0.07885882
245	0xbd47b363	-0.04875506
246	0x3d0ba3c6	0.034091733
247	0x3dd0f123	0.10202243
248	0xbd2c7565	-0.042104144
249	0x3d206d96	0.03916701
250	0x3d1fb642	0.038992174
251	0xbb7cf8d0	-0.0038600452
252	0xbc9934a0	-0.018701851
253	0x3cf7eb4d	0.030263567
254	0xbb9b00fa	-0.004730341
255	0x3cbfe53d	0.023424739

fr2.bias f4 [128]
0	0xbd9aa3ef	-0.07550799
1	0x3db32bf5	0.087486185
2	0x3df6fe64	0.1206024
3	0x3df7f85c	0.12107918
4	0xbde70f9e	-0.112822756
5	0x3e119ec1	0.14220716
6	0xbd16a756	-0.036780678
7	0xbd7e889b	-0.062141996
8	0x3c8ca407	0.017168058
9	0x3d259183	0.040421974
10	0xbd0a6588	-0.033788234
11	0x3d0d133f	0.034442183
12	0xbdb9ea0e	-0.090778455
13	0xba5f7c2e	-0.0008525279
14	0x3d103a37	0.035211768
15	0xbdd67429	-0.104713745
16	0xbe225136	-0.15851292
17	0xbdd8433c	-0.10559699
18	0xbc2dca4d	-0.010607314
19	0xbd8f0e2e	-0.069851264
20	0xbe27c7bc	-0.16384786
21	0x3dc2e16f	0.09515654
22	0xbd6db814	-0.05803688
23	0xbde09281	-0.109654434
24	0x3e4229a7	0.18961202
25	0xbcb524f5	-0.022112349
26	0x3db61b66	0.088919446
27	0x3c8b2c44	0.016988881
28	0x3d2bbe8f	0.041929778
29	0xbc5ba592	-0.013406174
30	0x3dbeff78	0.093260705
31	0xbd9118c7	-0.07084804
32	0xbcd3d063	-0.025856202
33	0x3bf0bb24	0.0073465277
34	0x3da9063d	0.08253143
35	0xbd940acd	-0.072286226
36	0xbd5e65fb	-0.054296475
37	0xbe197974	-0.14987737
38	0x3d981be9	0.074271984
39	0xbdb9d855	-0.09074465
40	0xbdb5ba64	-0.08873442
41	0x3e61b262	0.22040704
42	0xbce391b0	-0.02777943
43	0x3d34ccd2	0.044140644
44	0x3e3a76b5	0.18209346
45	0xbd800aa1	-0.06252027
46	0x3d17f4a6	0.03709855
47	0x3e1a0efd	0.1504478
48	0x3d9999af	0.07500016
49	0xbd878e12	-0.06618895
50	0xbdbab114	-0.09115806
51	0x3c62c63e	0.01384121
52	0xbe0974eb	-0.13423507
53	0xbe44a719	-0.19204368
54	0xbe1dbef3	-0.15404873
55	0x3d845bbd	0.0646281
56	0x3e2bf6ac	0.16793317
57	0x3de25556	0.11051433
58	0x3d274f55	0.04084714
59	0x3d97a893	0.074052
60	0xbd9f51b8	-0.077792585
61	0x3d89758c	0.067118734
62	0xbde0ab1e	-0.10970138
63	0xbbabdbc0	-0.005244702
64	0xbe1c72d2	-0.15278175
65	0xbd5a020c	-0.05322461
66	0xbde4cd81	-0.11172009
67	0xbd9c6912	-0.07637228
68	0xbc82bb14	-0.015958346
69	0xbbb21904	-0.005435111
70	0xbdc3f002	-0.09567262
71	0xbdb375e6	-0.08762722
72	0xbda349a6	-0.07973032
73	0xbdff08fc	-0.124528855
74	0x3c88bede	0.016692575
75	0x3d09ed9a	0.03367386
76	0x3d0079c8	0.03136614
77	0xbabd2a5f	-0.0014432183
78	0x3dbdf89f	0.09275936
79	0x3d6d248d	0.057896186
80	0x3d5eae62	0.054365523
81	0x3d882fb3	0.06649723
82	0xbd88ec19	-0.06685657
83	0x3def0781	0.11671353
84	0x3da52388	0.08063418
85	0x3d449e44	0.048002496
86	0xbe05bd55	-0.13060506
87	0xbd5f2b0e	-0.05448442
88	0x3d58b5e7	0.05290785
89	0xbabf5383	-0.0014597032
90	0xbe45b583	-0.19307522
91	0xbd0c7ab5	-0.03429671
92	0xbddce93d	-0.10786674
93	0xbd0b98fa	-0.034081437
94	0x3cc2d6e7	0.023784114
95	0x3b849038	0.0040455125
96	0xbdc5d592	-0.09659876
97	0x3e20d2d6	0.15705428
98	0xbd4d732d	-0.05015867
99	0xbdfc4249	-0.123173304
100	0xbe125da4	-0.14293534
101	0x3c146ab7	0.009058646
102	0x3e1b4713	0.15163831
103	0x3e008792	0.12551716
104	0x3c2c2aed	0.010508281
105	0xbc60920b	-0.013706694
106	0xbdccf851	-0.100083
107	0xbd5b53f5	-0.053546865
108	0x3d73e034	0.05953999
109	0xbd97c100	-0.07409859
110	0x3c28f84f	0.010313108
111	0xbe283b45	-0.1642886
112	0xbd31e3df	-0.043430205
113	0xbd643496	-0.055714212
114	0x3b9b15fa	0.0047328444
115	0xbdc3a26c	-0.09552464
116	0xbd3d714a	-0.04625062
117	0xbd4bd68a	-0.049765147
118	0xbd9a1527	-0.07523566
119	0x3c38ad04	0.011271719
120	0x3e05c729	0.13064255
121	0x3c70a133	0.01468687
122	0xbddfd4f7	-0.10929292
123	0xbdb8f353	-0.090307854
124	0x3ddacc76	0.10683529
125	0xbd86b2e4	-0.065770894
126	0x3e1c90e2	0.15289643
127	0x3db657d7	0.08903473

fr3.weight f4 [64, 128]
0	0xbcf42679	-0.029803501
1	0xbc998b7f	-0.018743275
2	0xbbac4589	-0.0052573127
3	0xbd611e23	-0.05496038
4	0x3ca41368	0.020028785
5	0x3d6dd76e	0.058066778
6	0x3d0154c8	0.031574994
7	0xbd541934	-0.051781848
8	0x3d16e0ad	0.03683536
9	0x3c43df72	0.011955129
10	0xbddbe78c	-0.107375234
11	0xbd0c2030	-0.034210384
12	0xbd445cbc	-0.04794
13	0xbcc31283	-0.023812538
14	0xbdaa74b8	-0.083230436
15	0x3cc0c780	0.023532629
16	0xbe05dabd	-0.13071723
17	0x3c6b1708	0.014348753
18	0xbc69fa0f	-0.01428081
19	0x3c0ab0e5	0.0084650265
20	0x3cd08653	0.025454676
21	0xbb31c569	-0.0027125722
22	0xbcee7620	-0.02910906
23	0x3d84ec81	0.06490422
24	0x3d531398	0.051532358
25	0xbc5c9da2	-0.013465317
26	0xbda51c61	-0.080620535
27	0xbd08c169	-0.033387575
28	0x3c66f147	0.014095611
29	0x3d0eeaae	0.034891777
30	0x3d49ac5f	0.04923665
31	0xbd9c2583	-0.07624342
32	0x3cfbff0e	0.030761268
33	0xbcdbded6	-0.026839655
34	0x3c91b96e	0.017788615
35	0xbcea026f	-0.028565614
36	0xbdde18b4	-0.108445555
37	0xbdb0c3fc	-0.08631131
38	0x3c4297b4	0.011876989
39	0xbd106889	-0.035255942
40	0xbdaa8077	-0.08325284
41	0xbd386bf4	-0.045024827
42	0xbe3a1e72	-0.18175676
43	0x3c7d5d61	0.015464158
44	0x3d2edea0	0.04269278
45	0xbd55d017	-0.052200403
46	0xbc623506	-0.013806587
47	0x3d01f87e	0.03173112
48	0x3d5c5777	0.05379435
49	0xbd292d4f	-0.041302975
50	0xbc42d69f	-0.01189199
51	0xbd0599bd	-0.03261732
52	0x3cbf48af	0.023350088
53	0xbceb9bec	-0.028760873
54	0xbce10bd6	-0.027471464
55	0x3c8ea991	0.01741484
56	0xbc35a490	-0.011086598
57	0x3cde2928	0.027119234
58	0x3cffcea0	0.031226456
59	0x3ce5ddf0	0.02805993
60	0xbd05b9d6	-0.03264793
61	0xbce08dc5	-0.027411351
62	0xbcceb645	-0.025233397
63	0xbc07be84	-0.008285169
64	0xbdeffae2	-0.11717774
65	0xbdf52c75	-0.1197137
66	0x3d7ec1b8	0.062196463
67	0x3ce5cfca	0.028053183
68	0x3d1b920b	0.037981074
69	0x3c10a236	0.008827737
70	0x3c5a2d6a	0.013316492
71	0xbda4814c	-0.08032474
72	0xbcd1aae3	-0.02559418
73	0xbabc0d88	-0.0014347294
74	0xbd8bbcd0	-0.068231225
75	0xbc38cf53	-0.011279899
76	0xbd28cec8	-0.041212827
77	0x3c7db464	0.015484903
78	0xbd08a93c	-0.03336452
79	0xbd1933ef	-0.037403043
80	0x3d9b82f3	0.07593336
81	0x3d03dc62	0.032192595
82	0x3c6076e6	0.013700223
83	0x3d0a850e	0.033818297
84	0x3d0eeca4	0.034893647
85	0xbd81edb1	-0.06344164
86	0x3d94033a	0.07227178
87	0x3da9315a	0.08261366
88	0xbcf01135	-0.02930508
89	0xbd7153d1	-0.058917824
90	0xbd34019f	-0.04394686
91	0xbd205b2a	-0.03914944
92	0xbd66d745	-0.05635764
93	0xbce60afd	-0.028081411
94	0xbced31eb	-0.028954467
95	0xbcd4f781	-0.025996925
96	0x3d18202e	0.037140064
97	0xbcd6994b	-0.026196143
98	0x3a75389f	0.00093544455
99	0x3c28fe64	0.010314558
100	0xbd2cd396	-0.04219397
101	0x3d1b0576	0.037847005
102	0xbc1c1aa5	-0.009527837
103	0xbd344332	-0.044009395
104	0x3cd791cd	0.02631464
105	0xbd6cfc98	-0.05785808
106	0x3d3ccf7f	0.04609632
107	0xbcf759a4	-0.030194111
108	0x3d460f5b	0.048354488
109	0xbd220c91	-0.039562766
110	0xbd3c77af	-0.046012577
111	0x3cb9b2d6	0.022668283
112	0x3a190352	0.00058369816
113	0xbd8775b9	-0.06614251
114	0x3b012f86	0.0019712164
115	0x3ad36897	0.0016129193
116	0xbc94ebe8	-0.018178895
117	0x3da90941	0.08253718
118	0xbc96be17	-0.018401189
119	0xbda1ff44	-0.07910016
120	0xbd4f3824	-0.05059065
121	0x3ca11691	0.01966408
122	0xbe00e5eb	-0.12587707
123	0xbcd27df1	-0.02569482
124	0xbce571d1	-0.028008373
125	0x3d3f600d	0.04672246
126	0x3de78cc1	0.113061436
127	0xbce27c63	-0.027647203
128	0xbd86fd01	-0.065912254
129	0xbb28be2d	-0.002574812
130	0xbd68dcce	-0.0568512
131	0xbd2d8308	-0.04236129
132	0x3e2efec7	0.17089377
133	0xbd21a71e	-0.039466016
134	0xbd469689	-0.048483405
135	0xbd59d437	-0.0531809
136	0xbdaa5f95	-0.08319012
137	0x3d0c62b5	0.03427382
138	0xbd9b437c	-0.07581231
139	0x3d2ff37b	0.04295681
140	0x3d14833e	0.036257975
141	0x3d599397	0.05311927
142	0xbcd75589	-0.026285904
143	0x3d3492f6	0.044085465
144	0xbd00e0f6	-0.03146454
145	0xbc9470fa	-0.018120278
146	0x3d99142b	0.0747455
147	0x3caffd8b	0.021483203
148	0x3caa563b	0.020793071
149	0x3d99eb4a	0.07515581
150	0xbd9b7351	-0.07590354
151	0x3d7e94f5	0.062153775
152	0xbe0881e1	-0.13330795
153	0x3b7f0fb5	0.0038919274
154	0xbd719220	-0.058977246
155	0x3d5aac45	0.053386945
156	0xbd1d1bc7	-0.03835657
157	0xbdef4512	-0.11683096
158	0xbd4f9077	-0.05067488
159	0xbbebc22c	-0.007194778
160	0xbcc40701	-0.023929121
161	0xbd63c3f9	-0.055606816
162	0xbc8fad10	-0.017538577
163	0x3cc0227c	0.023453943
164	0x3d604199	0.05475006
165	0x3d9a8b27	0.075460725
166	0x3d836169	0.06415064
167	0x3d7e97fe	0.06215667
168	0xbc543d1d	-0.012954024
169	0xbd288a90	-0.04114777
170	0x3da18008	0.07885748
171	0xbc8dfef3	-0.017333483
172	0xbe6c3c42	-0.23069862
173	0x3bea4e61	0.007150457
174	0xbd85023b	-0.06494566
175	0xbc0b9247	-0.008518762
176	0xbc965936	-0.018353086
177	0xbdcaf3fd	-0.09909818
178	0x3cc1dc85	0.023664722
179	0xbcd1ce68	-0.025611117
180	0x3d27b3d1	0.04094297
181	0x3dbc69d2	0.09199871
182	0x3b035c5d	0.0020044066
183	0x3da07961	0.07835651
184	0xbe177396	-0.14790186
185	0x3d574b61	0.05256212
186	0xbca3937c	-0.019967787
187	0x3d0a2d21	0.033734445
188	0xbd76bea0	-0.060240388
189	0x3da06446	0.07831626
190	0x3be611e2	0.0070211748
191	0xbd48e6e9	-0.049048338
192	0xbc83f7b3	-0.016109323
193	0xbc77b299	-0.015118265
194	0xbd4140e1	-0.047181014
195	0x3c094b32	0.008379744
196	0xbd76c282	-0.06024409
197	0xbb96f18d	-0.004606432
198	0x3d507757	0.05089506
199	0x3da9eea1	0.08297468
200	0xbd804e71	-0.062649615
201	0xbd0cb6bc	-0.034353957
202	0xbdd0b5fb	-0.1019096
203	0xbd94f664	-0.07273558
204	0x3d9b6253	0.07587113
205	0xbd05b272	-0.03264088
206	0xbde9657d	-0.113963105
207	0x3b5b85de	0.003349654
208	0x3bdf1eb6	0.006809081
209	0xbd9f4e16	-0.077785656
210	0x3cd7d6ec	0.0263476
211	0xbdaa0612	-0.08301939
212	0x3dad3979	0.08458228
213	0x3d7154cc	0.05891876
214	0xbae70c91	-0.0017627646
215	0x3d8fba80	0.07017994
216	0x3d110f65	0.035415072
217	0x3b80729e	0.0039199134
218	0x3d85bc14	0.06530014
219	0x3dd3c3fc	0.103401154
220	0x3d8da720	0.06916642
221	0xbc4d1850	-0.012518004
222	0x3cc704f0	0.024294347
223	0x3dba4c9b	0.090966426
224	0xbbdb7fb5	-0.0066985735
225	0x3c39b179	0.011333817
226	0x3d9ece14	0.0775415
227	0x3d7ef66a	0.062246718
228	0x3e243c51	0.16038634
229	0xbbdc1011	-0.0067157825
230	0x3dd1984c	0.102341264
231	0x3cf5595f	0.029949842
232	0xbd0d13cd	-0.03444271
233	0xbd6db64a	-0.058035173
234	0x3c36c423	0.011155161
235	0xbd2c1282	-0.042009838
236	0xbd128c4b	-0.035778325
237	0xba9a44f6	-0.001176982
238	0xbd826838	-0.063675344
239	0x3d26ef55	0.04075559
240	0xbd518a54	-0.05115731
241	0xbd3fe0c2	-0.046845205
242	0x3d6bc9e0	0.05756557
243	0x3dbc1381	0.091834076
244	0xbd2f37cb	-0.042777818
245	0x3d0f0300	0.03491497
246	0x3cd561e3	0.026047653
247	0x3d87ea33	0.06636467
248	0xbdcc9791	-0.099898465
249	0x3b283fcd	0.0025672794
250	0x3da3ded8	0.080014884
251	0x3b7c359b	0.00384841
252	0xbd915946	-0.07097106
253	0x3b88ff0e	0.0041807955
254	0xbe5e9dc8	-0.21739876
255	0x3c5908e1	0.013246746

fr3.bias f4 [64]
0	0x3db53136	0.08847277
1	0xbd959fdf	-0.073058836
2	0xbe376249	-0.17908587
3	0x3b435682	0.0029806201
4	0x3ddeaa6a	0.10872348
5	0x3da9fc65	0.083000936
6	0x3e004a33	0.12528305
7	0x3a8ce840	0.0010750368
8	0x3cca9fd0	0.024734408
9	0x3e2eb32b	0.17060535
10	0xbd881be2	-0.06645943
11	0x3dfa3716	0.12217538
12	0xbd90ea67	-0.07075959
13	0xbde26823	-0.11055019
14	0x3de83e27	0.113399796
15	0x3db2b5a5	0.08726052
16	0x3d2e41f5	0.04254337
17	0xbd5e3bf7	-0.054256406
18	0xbd3c99a3	-0.046044957
19	0x3ce9b3ef	0.028528182
20	0xbd5c02a8	-0.05371347
21	0xbdcfec78	-0.10152525
22	0xbb7108db	-0.003677896
23	0xbc124082	-0.008926513
24	0xbdd98034	-0.10620156
25	0x3e026c15	0.12736543
26	0x3e7b461f	0.24538468
27	0xbe1b870b	-0.15188234
28	0x3e1d4de6	0.15361747
29	0xbd3c99c3	-0.046045076
30	0xbdf08842	-0.11744739
31	0xbd7ae12b	-0.061249893
32	0xbe39e184	-0.18152434
33	0x3e02dddc	0.12779945
34	0xbd9a9815	-0.075485386
35	0x3e213421	0.15742542
36	0x3e120f7d	0.14263721
37	0xbccfa34b	-0.025346419
38	0xbe0fc8e6	-0.1404148
39	0x3d41f718	0.047354788
40	0xbd57ae3f	-0.05265641
41	0xbc732821	-0.01484111
42	0x3db0bd3f	0.08629846
43	0xbcf4030c	-0.02978661
44	0x3db7281d	0.08943198
45	0xbe8079f8	-0.25093055
46	0xbe444ec0	-0.19170666
47	0xbdc1a47a	-0.094551995
48	0x3da19da5	0.078913964
49	0x3d12b598	0.035817713
50	0xbe0887a5	-0.13332994
51	0x3c98a366	0.018632602
52	0x3c5f147c	0.013615724
53	0xbe818610	-0.25297594
54	0xbdb391fe	-0.0876808
55	0x3e1c64ee	0.15272877
56	0x3d2e0058	0.042480797
57	0xbe06c42b	-0.1316077
58	0xbd1739da	-0.036920406
59	0x3cf40c4b	0.029791018
60	0xbcfed467	-0.03110714
61	0x3ca00495	0.019533435
62	0x3db03eba	0.08605714
63	0xbd903dbe	-0.070430264

fo1.weight f4 [256, 78]
0	0x3db8cac7	0.09023052
1	0x3da9b2cb	0.08286055
2	0xbd039d6a	-0.032132544
3	0x3df1e669	0.118115254
4	0x34a14877	3.0041312e-07
5	0x3d339893	0.043846678
6	0x3dfc5ac1	0.123219974
7	0x3d2d18c1	0.042259935
8	0x3caf7209	0.02141668
9	0xbc3acf30	-0.011401936
10	0x3c86ef73	0.0164716
11	0xbcee5df1	-0.02909753
12	0x3f7829c6	0.9693874
13	0xbf946e3d	-1.1596142
14	0xbdb8a864	-0.09016493
15	0xbc93b557	-0.018030806
16	0x3d4b0cf0	0.049572885
17	0xbd8d7276	-0.06906597
18	0xbd9371a4	-0.071994096
19	0x3caf51a2	0.02140123
20	0x3d65fa56	0.056146942
21	0x3d623aca	0.055231847
22	0xbce77c10	-0.0282574
23	0xbc67cb9d	-0.014147666
24	0xbd1a2128	-0.037629277
25	0x39a1c53d	0.00030855267
26	0x3d4610e7	0.048355963
27	0xbd46009d	-0.04834043
28	0x3c01d48a	0.007924208
29	0xbbd9c819	-0.006646168
30	0x3d100c6c	0.035168096
31	0x3d503cab	0.050839107
32	0x3d4be630	0.04978007
33	0x3da284d0	0.07935488
34	0xbc026338	-0.007958226
35	0x3cda9980	0.026684523
36	0xbd82036e	-0.063483104
37	0xbd5a999b	-0.053369146
38	0x3c6e6dff	0.014552592
39	0xbe7d790a	-0.24753204
40	0xbc8d4419	-0.017244386
41	0xbdee64b1	-0.11640299
42	0xbde947d4	-0.11390653
43	0xbded13e1	-0.11576057
44	0x3db43223	0.08798625
45	0xb86cf08f	-5.6490822e-05
46	0xbcab545f	-0.020914255
47	0xbdf2847e	-0.11841677
48	0xbec220bf	-0.37915608
49	0x3d674615	0.05646332
50	0xbe46e6ff	-0.19424056
51	0xbda48422	-0.08033015
52	0x3dac1bc2	0.08403732
53	0x3cf5a11b	0.029984048
54	0x3cee368e	0.029078748
55	0x3d672464	0.05643119
56	0xbc525b90	-0.012839213
57	0x3d918d45	0.07107023
58	0x3de4ccf4	0.11171904
59	0xbe1eb79b	-0.15499727
60	0x3e2cfafe	0.16892621
61	0xbdc5bcb1	-0.09655131
62	0xbd6cccf5	-0.05781265
63	0xbcfc689a	-0.030811597
64	0x3dfcb85f	0.123398535
65	0xbddf17ce	-0.10893212
66	0xbdeea65a	-0.11652823
67	0xbc7f0dc4	-0.015567247
68	0x3da55798	0.08073348
69	0xbb8c9427	-0.004290122
70	0xbce0c820	-0.027439177
71	0xbdaf11b9	-0.08548302
72	0xbea518a0	-0.3224535
73	0x3d91efda	0.07125826
74	0x3ce9936d	0.02851268
75	0x3e1359fc	0.14389795
76	0x3d01bac2	0.031672247
77	0x3de9aea0	0.1141026
78	0xbc3ea41b	-0.0116358055
79	0xbe01e043	-0.12683205
80	0xbcc2892d	-0.023747051
81	0xbdc8f98d	-0.09813223
82	0x3d8d4883	0.06898596
83	0xbdfaf73d	-0.12254188
84	0xbe20e3e0	-0.15711927
85	0xbdab657b	-0.08368965
86	0x3e6f7389	0.23383917
87	0xbe086601	-0.13320161
88	0x3d2582af	0.040407833
89	0xbde6de0d	-0.112728216
90	0xbe52977d	-0.205656
91	0x3e32a550	0.17445874
92	0x3dec9ead	0.115537025
93	0xbd899815	-0.067184605
94	0xbcb49d08	-0.022047535
95	0xbd4e11b6	-0.05030986
96	0xbe227add	-0.15867181
97	0xbc8667ac	-0.016406856
98	0x3da4bdbb	0.08044001
99	0xbd875d35	-0.06609575
100	0xbd76b529	-0.06023136
101	0x3d4535c8	0.048146993
102	0x3c94107d	0.018074268
103	0xbdb0dae1	-0.08635498
104	0x3d86c30f	0.06580173
105	0x3d08f76a	0.033439077
106	0x3d72e7c5	0.059303064
107	0x3dbe7af1	0.09300793
108	0x3e2161da	0.15759984
109	0x3d7bf012	0.061508246
110	0xbd96161d	-0.073284365
111	0xbd0fa70c	-0.035071418
112	0xbdcc923c	-0.099888295
113	0xbd1b09d8	-0.037851185
114	0x3d5908bf	0.052986857
115	0x3d4b1716	0.049582563
116	0xbce18874	-0.027530886
117	0xbe1a8526	-0.15089855
118	0xbe05c7a3	-0.13064437
119	0x3d5156f2	0.051108308
120	0xbdfde5b9	-0.12397332
121	0x3b2150d5	0.002461483
122	0x3d34f640	0.044180155
123	0x3d6aba23	0.05730642
124	0xbd25fd51	-0.040524784
125	0xbb97921c	-0.004625572
126	0xbcd0c64b	-0.025485178
127	0x3a6c9cf1	0.00090260716
128	0xbd6741b0	-0.05645913
129	0x3dde63df	0.10858893
130	0x3d5beb05	0.05369093
131	0xbc898540	-0.016787171
132	0x3dbd0e84	0.09231284
133	0x3d23999e	0.039941423
134	0xbc497902	-0.012296917
135	0x3c65cf51	0.014026479
136	0x3d04a327	0.032382157
137	0xbc8f6dac	-0.01750835
138	0x3de3c5c5	0.11121706
139	0xbdb379b9	-0.08763451
140	0x3d9f4f80	0.07778835
141	0xbd90941e	-0.07059501
142	0x3c8a577e	0.016887423
143	0x3d7d952a	0.061909832
144	0xbdffd55d	-0.12491868
145	0xbc8fdce4	-0.017561384
146	0xbc76a0e6	-0.01505301
147	0x3dec30e0	0.1153276
148	0xbd2aa810	-0.041664183
149	0xbdbafc2b	-0.091301285
150	0x3d1538a1	0.03643096
151	0x3d156fb4	0.03648348
152	0x3bae7376	0.0053238226
153	0xbd601e06	-0.054716133
154	0x3e26372f	0.16231988
155	0xbe1178a2	-0.14206174
156	0xbdf80388	-0.121100485
157	0xbc8170f8	-0.015800938
158	0x3d072f63	0.033004176
159	0xbd80c38c	-0.062872976
160	0xbbf030f6	-0.0073300553
161	0xbe4acf8a	-0.19805732
162	0x3cbb291e	0.022846755
163	0x3d615ee3	0.05502213
164	0x3daf9b43	0.08574536
165	0x3e108437	0.14112936
166	0xbd8f70e4	-0.07003954
167	0x3e0e1435	0.13874896
168	0x3e8336d3	0.25627765
169	0xbf00a52c	-0.5025203
170	0x3cd13507	0.02553798
171	0x3d65d58b	0.056111854
172	0x3d3dc927	0.046334412
173	0x3d2d70e8	0.042344004
174	0xbd2710e6	-0.0407876
175	0xbcb65bff	-0.022260664
176	0xbc91cd8b	-0.017798206
177	0xbccd98f2	-0.025097344
178	0x3bdbfa61	0.006713197
179	0xbdc933a0	-0.098243
180	0x3df108af	0.117692344
181	0x3d67491a	0.0564662
182	0xbd490cf2	-0.04908461
183	0xbd6da1a8	-0.058015496
184	0x3dfade14	0.12249389
185	0x3d8d2753	0.06892266
186	0x3d9299bd	0.071582295
187	0xbdc7265d	-0.09724114
188	0xbea3ea05	-0.3201448
189	0xbdb9e94f	-0.09077703
190	0xbd3adfb0	-0.04562348
191	0xbd20d0f9	-0.03926179
192	0x3d8fb042	0.070160404
193	0x3dded515	0.10880486
194	0x3d014193	0.031556677
195	0x3d75b6a0	0.059988618
196	0x3d839f75	0.064268984
197	0xbdd89e69	-0.10577089
198	0xbd8ee5ea	-0.069774464
199	0x3dc39929	0.09550697
200	0x3c0b9ac9	0.00852079
201	0xbd6ed629	-0.058309708
202	0xbdb6da40	-0.08928347
203	0x3d0ed035	0.03486653
204	0xbd499e41	-0.04922319
205	0x3da6e511	0.0814916
206	0x3d168dd5	0.036756355
207	0xbd9cb6de	-0.07652067
208	0xbdc8ff2d	-0.09814296
209	0x3db5ac62	0.0887077
210	0xbcfce65d	-0.030871565
211	0xbdc27f04	-0.094968826
212	0xbbfb359b	-0.0076663024
213	0x3c862b08	0.01637794
214	0x3ce5491a	0.02798896
215	0xbdef825c	-0.11694786
216	0xbe0b9ff7	-0.1363524
217	0xbdedf8c6	-0.116197154
218	0xbcb9a1b0	-0.022660106
219	0x3d3e4b6f	0.046458658
220	0xbda7ae5a	-0.08187552
221	0xbd474f91	-0.048659865
222	0x3d575755	0.05257352
223	0xbe2674e4	-0.16255528
224	0x3e092006	0.13391122
225	0x3d6d62dd	0.05795561
226	0x3e21c3d2	0.15797356
227	0xbe2f982c	-0.17147893
228	0x3d027324	0.031848088
229	0x3dec094c	0.11525211
230	0x3dbe6528	0.09296638
231	0x3d5df7cf	0.054191407
232	0x3dcc826d	0.09985814
233	0xbd9b6bd9	-0.0758893
234	0xbdd324e6	-0.10309772
235	0x3cd334e8	0.025782064
236	0xbcf18ecb	-0.029487034
237	0x3da04ca2	0.078271165
238	0x3e078036	0.13232502
239	0xbdc85712	-0.09782232
240	0x3e32defc	0.17467874
241	0xbd23b4a2	-0.039967187
242	0xbe13a926	-0.14419994
243	0x3e0e5a01	0.13901521
244	0x3cccf908	0.025021091
245	0x3d0b18cf	0.033959206
246	0x3f095bd6	0.53655756
247	0xbf8de029	-1.1084033
248	0x3d2eb2e7	0.042651083
249	0x3c8836d7	0.016627712
250	0xbcef7981	-0.029232742
251	0x3daf11c5	0.08548311
252	0xbd04720c	-0.032335326
253	0xbc9a15d0	-0.01880923
254	0x3e3f3d89	0.18675818
255	0x3da86a68	0.082234204

fo1.bias f4 [256]
0	0xbdcd9fee	-0.1004027
1	0xbdcabed6	-0.0989968
2	0x3c029984	0.007971171
3	0x3e1fb202	0.15595248
4	0x3db13f4c	0.08654651
5	0xbd07b8fc	-0.0331354
6	0xbe265ce0	-0.16246367
7	0x3c0eea39	0.008722835
8	0xbe2d5e61	-0.16930534
9	0xbd3896b4	-0.045065597
10	0x3c164ad1	0.009173111
11	0xbdf6ce59	-0.120510764
12	0xbe668c56	-0.22514471
13	0xbe31b4f0	-0.17354178
14	0x3c9da1d0	0.019242197
15	0xbdd31c8d	-0.1030818
16	0xbd44bbd1	-0.04803068
17	0xbd8bc189	-0.06824023
18	0x3c9695ee	0.018382039
19	0xbe07f3a9	-0.13276543
20	0x3d194c7f	0.037426468
21	0xbddc056f	-0.10743224
22	0xbd3787d5	-0.044807274
23	0x3d032c9a	0.032024957
24	0xbd8609f8	-0.0654487
25	0xbb37954c	-0.0028012572
26	0x3dc95bd5	0.09831969
27	0xbda572e9	-0.08078558
28	0xbc97d7a5	-0.018535445
29	0xbe2cb817	-0.168671
30	0xbd4e95da	-0.05043588
31	0xbc239be4	-0.009985898
32	0xbdd50444	-0.10401204
33	0xbc3c6a1f	-0.011499911
34	0xbd729e9f	-0.059233304
35	0x3cac71fa	0.021050442
36	0xbe2d726f	-0.16938184
37	0x3d71ea7f	0.059061524
38	0xbe646773	-0.22305088
39	0xbd094ee9	-0.03352252
40	0xbe572f3e	-0.21014115
41	0xbdf6fb77	-0.12059682
42	0xbd980a18	-0.074238
43	0x3d1819a6	0.037133835
44	0x3c13772f	0.009000584
45	0xbe2928d1	-0.16519476
46	0xbd17613b	-0.03695796
47	0xbdbc048a	-0.09180553
48	0x3dc6f166	0.09714012
49	0xbd224c53	-0.03962357
50	0xbdb34e7a	-0.087552026
51	0x3d8f5804	0.069992095
52	0xbd6c8482	-0.057743557
53	0xbd6bcb51	-0.057566945
54	0xbd81163b	-0.06303068
55	0xbb6219b8	-0.0034500193
56	0xbe1b2e1e	-0.15154311
57	0xbd66f16e	-0.05638259
58	0xbdd49219	-0.103794284
59	0x3c20aab9	0.009806328
60	0x3e193161	0.14960243
61	0xbd8c523e	-0.06851624
62	0xbd4989b4	-0.04920359
63	0xbdec0342	-0.11524059
64	0xbdb0734d	-0.08615742
65	0xbd92bc0a	-0.07164772
66	0xbe304238	-0.1721276
67	0xbe234c27	-0.15947019
68	0xbdb310d9	-0.08743448
69	0xbdf8d501	-0.12150002
70	0x3cdc4bbb	0.02689158
71	0xbe18a2aa	-0.14905801
72	0xbdf84a22	-0.12123515
73	0xbc900052	-0.017578278
74	0xbd85ed3d	-0.0653939
75	0xbd9351a6	-0.071933076
76	0x3c6ff92a	0.014646808
77	0xbe309709	-0.17245115
78	0xbcb0c1c6	-0.021576773
79	0xb9c142b7	-0.00036861535
80	0x3d21175d	0.03932892
81	0xbd1c5aed	-0.03817265
82	0xbd5358a1	-0.051598195
83	0x3cc4c14f	0.024017958
84	0xbcf819d0	-0.030285746
85	0xbe141099	-0.14459457
86	0xbdb2dde0	-0.087337255
87	0x3d6a9b8d	0.05727725
88	0xbc5b7b8a	-0.013396153
89	0x3a101b35	0.0005497218
90	0xbd3a44fe	-0.045475952
91	0xbe263d84	-0.16234404
92	0xbd6c38cd	-0.057671357
93	0xbe2f80d1	-0.17138983
94	0xbd8b02e4	-0.06787661
95	0xbd4b7c6e	-0.049679212
96	0x3ca9a1d0	0.020707041
97	0xbd0df63f	-0.034658667
98	0xbe09f77e	-0.13473317
99	0xbdbbdd6e	-0.09173094
100	0x3d373a79	0.0447335
101	0xbd892c15	-0.06697861
102	0xbe29c2aa	-0.16578165
103	0xbdbd33cc	-0.09238395
104	0xbdc9040c	-0.09815225
105	0xbce220af	-0.027603475
106	0xbcbed3cf	-0.023294358
107	0xbe06e03b	-0.13171475
108	0xbd05cb98	-0.032664865
109	0x3de6ac1b	0.11263295
110	0x3dda06e6	0.10645847
111	0xbdb64a8a	-0.08900936
112	0xbd33ce48	-0.043897897
113	0x3d4ea79e	0.05045282
114	0xbd90c8cd	-0.0706955
115	0xbd1d7cf5	-0.038449246
116	0xbc8d35d4	-0.017237581
117	0x3e1ad949	0.1512195
118	0xbd99e07b	-0.075135194
119	0x3b42522e	0.0029651034
120	0xbdbde5ff	-0.09272384
121	0xbd95a215	-0.07306305
122	0xbdd4478c	-0.10365209
123	0x3de9ef09	0.114225455
124	0x3cb06dff	0.021536825
125	0xbce270b9	-0.027641641
126	0xbca2bd60	-0.019865692
127	0xbdb39823	-0.08769252
128	0xbe3a542b	-0.1819617
129	0x3c7f3e67	0.015578843
130	0xbe176387	-0.1478406
131	0xbd5fb90f	-0.054619845
132	0xbc12d92a	-0.008962909
133	0xbc824204	-0.01590062
134	0xbde56623	-0.11201122
135	0xbdd1e027	-0.10247832
136	0x3bd3f7dc	0.006468756
137	0xbd8d6456	-0.06903903
138	0xbe27a3d9	-0.16371097
139	0xbdf00f75	-0.11721698
140	0xbd62923a	-0.055315234
141	0xbd8c5cfd	-0.068536736
142	0xbe0d822f	-0.13819192
143	0xbd640d3c	-0.055676684
144	0xbe139407	-0.14411937
145	0xbe0f053c	-0.1396684
146	0xbc8912ab	-0.016732534
147	0xbd6eed21	-0.058331612
148	0xbaf917cc	-0.0019004284
149	0x3cfb798b	0.030697605
150	0xbda52338	-0.08063358
151	0x3d193367	0.037402537
152	0xbd7acc26	-0.061229847
153	0xbe029755	-0.12753041
154	0x3d34b628	0.04411903
155	0xbcece061	-0.028915586
156	0xbdd77bc4	-0.10521653
157	0xbe3e39ac	-0.18576688
158	0xbe27e5b2	-0.16396216
159	0x3d877d66	0.06615715
160	0x3d8b88ed	0.06813226
161	0xbcaeea03	-0.02135182
162	0x3bb0f7f3	0.0054006516
163	0xbe436716	-0.19082293
164	0xbdd9557e	-0.106120095
165	0xbdf8351d	-0.121195056
166	0xbdb66fd3	-0.089080475
167	0xbdaa1974	-0.08305636
168	0xbddf51b1	-0.10904253
169	0x3d2ad25b	0.041704517
170	0xbd66a2ae	-0.056307487
171	0xbc073521	-0.008252413
172	0xbdc9157b	-0.0981855
173	0x3ba81676	0.0051296307
174	0xbb62ea4c	-0.0034624515
175	0xbe0764e3	-0.13222079
176	0x3e364216	0.17798647
177	0xbcb7336f	-0.022363393
178	0xbc3c0ee7	-0.011478162
179	0xbd6419d9	-0.055688713
180	0x3ca08782	0.019595865
181	0xbdcd8c5c	-0.10036537
182	0xbe2f64d0	-0.171283
183	0xbdbef139	-0.09323353
184	0xbd0b4866	-0.03400459
185	0xbd33e90c	-0.043923423
186	0xbcff01f6	-0.031128865
187	0xbdb72266	-0.08942108
188	0xbe4527d7	-0.19253479
189	0xbde84b04	-0.11342433
190	0xbda4bf1f	-0.08044266
191	0x3cbc4e1d	0.022986466
192	0x3c9d3abf	0.019193051
193	0xbd8b322f	-0.06796681
194	0xbe1c7dbc	-0.15282339
195	0xbe2ae1fa	-0.16687766
196	0xbd870ce1	-0.06594253
197	0xbd4ed383	-0.050494682
198	0xbd459630	-0.048238933
199	0xbd58acaa	-0.05289904
200	0xbd751ce7	-0.059842017
201	0xbe3a4176	-0.18189034
202	0x3c64f592	0.013974564
203	0xbe0af438	-0.13569725
204	0xbc06d5b4	-0.008229662
205	0xbd4c58d8	-0.049889416
206	0x3d70a556	0.058751427
207	0xbd5340d9	-0.051575515
208	0x3d641337	0.055682387
209	0xbe224a5d	-0.1584868
210	0xbd2e7418	-0.042591184
211	0xbc022b04	-0.007944826
212	0xbdd19702	-0.102338806
213	0xbda06907	-0.078325324
214	0xbdaa1ab4	-0.083058745
215	0xbe1a9386	-0.15095338
216	0xbdf62eb6	-0.12020628
217	0xbe1be3df	-0.15223645
218	0xbd6f45ee	-0.0584163
219	0x3d0a08ca	0.03369979
220	0xbde7fd9b	-0.11327668
221	0x3d0494f6	0.032368623
222	0xbe05925a	-0.1304411
223	0x3ce7cbf8	0.028295502
224	0xbde40d58	-0.111353576
225	0x3cc16f3f	0.023612617
226	0x3cee95f7	0.029124243
227	0x3b9f092e	0.004853389
228	0xbdfa52d5	-0.1222283
229	0xbe25bcd3	-0.16185312
230	0xbd879f39	-0.06622166
231	0xbdb4ae6c	-0.08822331
232	0xbe20e2b4	-0.1571148
233	0xbd1bcb30	-0.03803557
234	0xbc19aede	-0.0093800705
235	0xbd1bd55b	-0.03804527
236	0xbc7140e0	-0.01472494
237	0xbdee5ae4	-0.1163843
238	0x3c838d3e	0.01605856
239	0x3cdac481	0.026705028
240	0xbd032558	-0.032018036
241	0xbe1d37ea	-0.15353361
242	0xbdb0e7e5	-0.0863798
243	0x3cba2448	0.022722378
244	0xbe129230	-0.14313579
245	0xbdca06db	-0.09864589
246	0xbe056a4e	-0.13028833
247	0xbdffc1d0	-0.12488139
248	0xbdefe5bf	-0.117137425
249	0xbcaee1b7	-0.021347864
250	0x3d9ddff0	0.07708728
251	0xbd1dac2c	-0.038494274
252	0x37c38c1e	2.3311059e-05
253	0xbde0fdf9	-0.109859414
254	0xbce85d19	-0.028364705
255	0xbcf2297e	-0.0295608
