JEDInet/model_1/IN_kFold_50/IN_sumO_bestmodel_50p_1.params (torch, 38895 bytes, 18 tensors)

fr1.weight f4 [50, 32]
0.067456394 0.08461035 0.005533191 -0.03433451 -0.010478069 0.0802356 -0.2925168 0.09417354
-0.04603043 -0.23745827 0.09546407 -0.102177076 -0.4352288 2.0779028 -0.1904969 -0.41947168
0.05117881 -0.11192665 -0.033874743 0.054622937 -0.3038565 0.048158143 -0.27217436 0.19700204
0.4358812 -0.030755896 -0.020864084 0.17284304 2.04803 -0.9149579 -0.0002268308 0.10606396
0.058730002 -0.123243056 -0.00820173 0.020220185 -0.082505666 -0.18900141 -0.080986634 -0.13312198
-0.47923028 0.017308477 0.21591763 -0.2071254 -0.44216928 0.0349559 -0.22703913 -0.018225567
-0.044445135 0.049471214 -0.07853165 -0.122276895 0.28563085 0.10080558 -0.06668712 0.03385133
0.11137464 0.09766646 0.015588977 0.21649686 0.94306743 -1.9218899 -0.18077958 0.3140098
-0.13621548 0.09110363 0.1232666 -0.17114857 -0.26273704 0.015397144 -0.07765299 0.118171185
-0.31137693 0.010549234 0.1696639 -0.26003426 0.27264673 0.24277464 0.3381551 -0.07065526
-0.07087536 -0.08677662 -0.13302961 -0.18511283 -0.14971954 0.0802486 -0.07000665 -0.081145756
-0.6920328 0.5504297 -0.17355424 -0.18903539 -0.67842525 1.2980434 -0.31376007 0.54966503
0.08001238 -0.035495665 -0.010145778 0.16492525 -0.1345446 -0.08496967 0.05958024 -0.06352489
-0.1365501 -0.08293193 0.030341057 -0.12837407 2.2249079 -1.5877115 -0.14108898 -0.24064846
-0.065464 0.09194769 0.04166399 0.054389358 -0.09355287 0.054925792 -0.092993304 0.12182575
0.00014391869 0.23145017 -0.08993921 -0.24831715 1.2909918 -1.7690952 -0.050317433 0.012884133
0.043063987 0.035111886 0.017836446 -0.1233098 0.008180692 -0.05645898 0.1571471 -0.026790446
0.42301643 0.13436359 -0.0818381 0.18403096 0.00822907 -0.5388177 0.010666911 -0.046958704
0.08816261 -0.12659252 0.06569794 0.060991485 -0.03499435 0.13999216 -0.04044192 -0.024663804
-0.22336304 0.053098675 0.14128646 -0.07247686 0.6781639 -3.2588582 0.008229956 0.13101816
-0.07226085 0.00041418502 0.09776825 -0.080299184 0.018379213 0.119590394 -0.15364748 -0.123739935
-0.46786767 0.101581216 -0.2608587 0.108490095 1.7214696 -3.141919 -0.22397982 0.109423846
-0.045768116 -0.01128508 -0.09939152 -0.041337173 0.035152845 -0.14736527 0.0020447636 0.11006976
0.4308548 -0.21195148 -0.13188337 -0.25453275 -1.0728009 -0.035600644 0.062392656 -0.23725699
0.043182183 -0.0466183 0.016494043 -0.020383691 -0.009284981 0.07629062 -0.037431367 0.2806937
-0.42260185 -0.06595364 -0.035100907 0.37868568 1.6953255 -2.0823755 0.21139555 -0.31534353
0.082077816 0.119343095 -0.0294824 -0.044599857 -0.22421089 -0.09342395 -0.06485189 -0.16427958
0.18480413 0.21840371 -0.03221436 0.12623736 -0.6019881 -0.55555624 -0.104893684 0.48472404
0.08990794 -0.0214739 0.053289615 0.07986585 -0.029367004 0.11114563 0.10068639 -0.14925641
-0.12912905 0.14298089 -0.00087610923 0.24415265 -1.6673363 1.9908966 0.09792186 -0.16993256
-0.08403056 0.12512134 0.05081513 0.11492928 0.012810083 0.053848747 0.104080014 0.009890556
-0.05414056 -0.0035722225 -0.06379486 0.13338365 -0.4780241 0.7565072 -0.12374687 0.15630728
00000000: 9426 8a3d 3148 ad3d c54f b53b 58a2 0cbd
00000010: 35ac 2bbc 9052 a43d c3c4 95be 0fde c03d
00000020: 678a 3cbd 4328 73be ab82 c33d 3742 d1bd
00000030: 4fd6 debe 5cfc 0440 9f11 43be fec4 d6be
00000040: dfa0 513d cd39 e5bd 3ec0 0abd 4dbc 5f3d
00000050: 1493 9bbe 7941 453d 705a 8bbe e7ba 493e
00000060: d22b df3e caf3 fbbc 28eb aabc c4fd 303e
00000070: ec12 0340 ae3a 6abf 6ed9 6db9 1038 d93d
00000080: df8e 703d db66 fcbd 8d60 06bc cda4 a53c
00000090: bbf8 a8bd 9689 41be 52dc a5bd 2151 08be
000000a0: ac5d f5be 82ca 8d3c 8319 5d3e ae18 54be
000000b0: 0364 e2be eb2d 0f3d f27c 68be c94d 95bc
000000c0: 1a0c 36bd 54a2 4a3d 34d5 a0bd 4f6c fabd
000000d0: 353e 923e 2873 ce3d 4293 88bd b1a7 0a3d
000000e0: 6318 e43d 5a05 c83d e968 7f3c 5ab1 5d3e
000000f0: de6c 713f 7d00 f6bf 481e 39be e4c5 a03e
00000100: 127c 0bbe 8a94 ba3d 3373 fc3d 9241 2fbe
00000110: 7885 86be 4d44 7c3c 8808 9fbd bc03 f23d
00000120: cc6c 9fbe b2d6 2c3c 60bc 2d3e 3623 85be
00000130: 5a98 8b3e ea99 783e aa22 ad3e b4b3 90bd
00000140: 1a27 91bd f1b7 b1bd ea38 08be 388e 3dbe
00000150: 1450 19be 6159 a43d a65f 8fbd bf2f a6bd
00000160: 1029 31bf f6e8 0c3f 34b8 31be 7e92 41be
00000170: 47ad 2dbf 4926 a63f 29a5 a0be d9b6 0c3f
00000180: 88dd a33d e763 11bd 7a3a 26bc 2ae2 283e
00000190: 0fc6 09be 9404 aebd 690a 743d 5619 82bd
000001a0: cad3 0bbe 37d8 a9bd cf8d f83c 7e74 03be
000001b0: e464 0e40 213a cbbf a179 10be 8d6c 76be
000001c0: fd11 86bd 124f bc3d dca7 2a3d 60c7 5e3d
000001d0: a698 bfbd def9 603d 4673 bebd c77f f93d
000001e0: e1e8 1639 4601 6d3e 0c32 b8bd da46 7ebe
000001f0: 383f a53f b671 e2bf a719 4ebd f817 533c
00000200: dd63 303d 7bd1 0f3d bd1d 923c d989 fcbd
00000210: 4f08 063c 8841 67bd 2beb 203e a377 dbbc
00000220: 9c95 d83e 9c96 093e bc9a a7bd 9d72 3c3e
00000230: 39d3 063c f5ef 09bf 44c4 2e3c c557 40bd
00000240: 998e b43d 78a1 01be a48c 863d 35d2 793d
00000250: 3c56 0fbd 1b5a 0f3e 6da6 25bd bf0b cabc
00000260: 48b9 64be ff7d 593d 66ad 103e bf6e 94bd
00000270: 269c 2d3f 2291 50c0 f0d6 063c a029 063e
00000280: 7ffd 93bd f926 d939 b83a c83d e673 a4bd
00000290: 0190 963c cfeb f43d c455 1dbe 5d6b fdbd
000002a0: 5a8c efbe d009 d03d 468f 85be 0e30 de3d
000002b0: 1e59 dc3f 3315 49c0 f75a 65be 9c19 e03d
000002c0: 5977 3bbd 0ee5 38bc c88d cbbd 2b51 29bd
000002d0: 6efc 0f3d ece6 16be 7101 063b 416c e13d
000002e0: 0099 dc3e cf09 59be 6f0c 07be 1e52 82be
000002f0: 8a51 89bf fbd1 11bd 718f 7f3d 7ff3 72be
00000300: cddf 303d d5f2 3ebd 841e 873c b3fb a6bc
00000310: 0820 18bc 423e 9c3d a251 19bd 16b7 8f3e
00000320: 455f d8be b412 87bd f8c5 0fbd 17e3 c13e
00000330: 6d00 d93f a445 05c0 1378 583e b574 a1be
00000340: 6a18 a83d 276a f43d 1385 f1bc 57ae 36bd
00000350: 8a97 65be 0e55 bfbd 11d1 84bd e838 28be
00000360: 4b3d 3d3e 39a5 5f3e 34f3 03bd 5e44 013e
00000370: e41b 1abf ef38 0ebf 80d2 d6bd c02d f83e
00000380: a721 b83d 08ea afbc 3646 5a3d b590 a33d
00000390: 1293 f0bc 52a0 e33d ab34 ce3d acd6 18be
000003a0: 683a 04be 9569 123e b2aa 65ba 2703 7a3e
000003b0: 476b d5bf b3d5 fe3f 428b c83d cd02 2ebe
000003c0: 3718 acbd cf1f 003e 8723 503d 0b60 eb3d
000003d0: 62e1 513c 8190 5c3d e727 d53d 000c 223c
000003e0: 7ec2 5dbd f31b 6abb e1a6 82bd b995 083e
000003f0: 93bf f4be 75aa 413f 006f fdbd 040f 203e

fr1.bias f4 [50]
-0.071339175 0.22066146 -0.31928095 0.07793781 0.3481576 0.19260474 0.27393693 0.043176576
0.017441757 -0.2002999 -0.15421115 -0.033839494 -0.021824708 -0.078726284 0.07885382 -0.26655084
-0.10381605 0.13021784 -0.017589027 0.16809091 -0.046810422 0.087903544 -0.2534265 -0.23638338
-0.19623297 -0.2091549 0.0048798663 -0.08732079 -0.14749451 -0.017575951 0.4390084 0.0168258
0.10441431 0.05745144 0.11199661 -0.3481141 -0.095251404 -0.020830499 -0.08978092 0.022182263
0.25050622 -0.0011200721 -0.32354188 0.3536267 -0.21232523 -0.012296401 -0.34120947 -0.16210572
-0.024656676 -0.03806563
00000000: 461a 92bd 14f5 613e cb78 a3be dc9d 9f3d
00000010: b741 b23e 2d3a 453e 7641 8c3e ecd9 303d
00000020: 04e2 8e3c 6b1b 4dbe 87e9 1dbe 489b 0abd
00000030: bbc9 b2bc 3f3b a1bd 1d7e a13d 5a79 88be
00000040: 829d d4bd d357 053e dd16 90bc 0620 2c3e
00000050: 49bc 3fbd c606 b43d 1ec1 81be 7c0e 72be
00000060: 4cf1 48be b42c 56be 49e7 9f3b 3ed5 b2bd
00000070: cd08 17be 71fb 8fbc b6c5 e03e 43d6 893c
00000080: 2bd7 d53d 3352 6b3d 7b5e e53d 033c b2be
00000090: 2b13 c3bd b9a4 aabc 0fdf b7bd 94b7 b53c
000000a0: 5a42 803e 62cf 92ba 48a7 a5be 8f0e b53e
000000b0: c96b 59be d876 49bc 02b3 aebe 0bff 25be
000000c0: ccfc c9bc b5ea 1bbd

fr2.weight f4 [25, 50]
-0.033601943 0.12032055 -0.0035542091 0.10054803 -0.08479361 0.05418875 0.010719267 0.014638021
-0.09588103 0.062046718 -0.059614915 0.07040148 -0.14581653 0.11499152 -0.029025586 -0.14576527
-0.09528194 0.18235582 -0.053835854 0.02618342 0.038085733 0.080410354 -0.049371287 0.06695002
-0.048862275 0.016236378 0.11675432 0.06755141 0.05888526 0.10919835 -0.29495227 -0.04299348
-0.0052171666 -0.12688139 -0.050037358 -0.0019679975 0.045839187 0.042103525 0.10468323 0.034570288
0.061910156 0.08045992 -0.10448429 -0.017548809 -0.0383299 0.063882634 -0.09665565 0.18505903
0.019944323 0.06287563 -0.016387483 0.04075228 -0.005608868 0.11628315 0.07982315 0.012625134
-0.0062222015 -0.12704723 -0.21375258 0.010263394 0.056481775 -0.03499799 0.057910427 0.124140315
0.08286735 -0.031834293 0.0135703925 0.10509435 0.10300378 0.115471 0.028172456 0.020197634
0.07399989 0.049853213 0.008954874 -0.0068593873 0.15422355 -0.015781458 -0.056098502 0.11167559
-0.3380605 0.04233516 -0.060452547 0.07552272 0.056803416 -0.068365835 0.07189319 0.04198933
0.00446468 0.02553526 -0.09581423 -0.102252096 0.052238323 0.15984145 -0.06398167 0.14976077
0.11768737 -0.037085563 0.030390607 -0.14032216 0.03314743 0.15491126 0.10775193 0.08872576
-0.27548724 -0.12206309 0.20668474 -0.11527582 -0.37112337 0.009745445 0.05816367 -0.0012617758
0.018252425 -0.24103822 -0.00675399 0.033962198 0.04189809 0.083406456 -0.05060242 0.0071553644
0.02051953 0.004997021 0.055511683 0.12917297 -0.004584123 -0.054262765 0.08195143 -0.02770691
-0.0029804031 0.10190771 0.20736334 0.047279805 -0.0185276 0.028749576 -0.038211387 -0.1464347
-0.2347726 0.034354676 -0.08095935 -0.054045215 -0.009648324 0.036711894 -0.07116753 -0.027629659
0.08704518 -0.035489645 -0.10112879 -0.037901875 -0.0690696 -0.028113995 0.09623258 0.062254634
-0.012957034 0.058335684 -0.067725286 -0.0062691313 -0.05424434 -0.04382544 0.057130907 -0.0017217809
-0.12797567 0.05419213 -0.026380539 0.048212137 -0.06441307 0.11123968 -0.0453934 -0.06604199
-0.05028416 0.017262358 -0.043378536 -0.03753497 0.021791667 0.042728912 0.03785277 -0.05553219
-0.14152932 -0.07637841 0.22879784 0.16352153 0.09484028 0.07842866 -0.0060994895 -0.09608167
0.017709196 0.17705598 -0.750696 -0.13684548 0.027510904 0.017729977 -0.010873678 0.04749519
0.13348307 -0.15681192 0.1094004 -0.050229337 -0.0375201 -0.051829565 -0.0051549585 0.022653647
0.0042670434 -0.05852541 0.07080472 0.11010498 0.03339896 0.10988745 -0.01918964 -0.13754994
-0.41911662 -0.023526771 -0.020785239 0.05177381 -0.08344218 -0.12436378 -0.038089063 0.12771039
-0.035692483 0.054329965 -0.093671285 -0.06644152 0.038838144 0.06933792 0.027400127 0.09475623
0.108084485 0.020624287 0.12799121 -0.038287714 0.12671171 0.08488041 -0.023043053 -0.07172274
-0.02134054 0.07121262 -0.05118373 0.06276606 0.07338308 0.027386347 0.054267094 0.082038686
0.009515302 0.046941377 -0.02126298 -0.013130894 0.01299375 0.06952613 0.037260827 -0.00049641175
0.018249989 0.0754189 0.005961951 0.081461675 -0.012505643 0.017517589 0.07943809 0.041915387
00000000: 31a2 09bd 9f6a f63d bced 68bb 20ec cd3d
00000010: 46a8 adbd 06f5 5d3d dd9f 2f3c 4fd4 6f3c
00000020: 465d c4bd b324 7e3d c52e 74bd a72e 903d
00000030: ee50 15be ad80 eb3d 11c7 edbc 7e43 15be
00000040: 2e23 c3bd 7cbb 3a3e fc82 5cbd 9d7e d63c
00000050: c9ff 1b3d 2fae a43d 8c39 4abd 181d 893d
00000060: cf23 48bd 2702 853c e41c ef3d 6558 8a3d
00000070: ac31 713d 62a3 df3d fc03 97be ee19 30bd
00000080: c4f4 aabb 32ed 01be f9f3 4cbd 85f9 00bb
00000090: dfc1 3b3d bf74 2c3d 2964 d63d 9399 0d3d
000000a0: 8195 7d3d 2cc8 a43d dcfb d5bd 85c2 8fbc
000000b0: d0ff 1cbd e6d4 823d 66f3 c5bd 1d80 3d3e
000000c0: 4762 a33c f0c4 803d 0b3f 86bc ddeb 263d
000000d0: 98ca b7bb dc25 ee3d 527a a33d a6d9 4e3c
000000e0: 9ce3 cbbb ab18 02be f5e1 5abe cb27 283c
000000f0: 6f59 673d 0d5a 0fbd 7c33 6d3d 473d fe3d
00000100: 5bb6 a93d ad64 02bd 5a56 5e3c b53b d73d
00000110: a5f3 d23d 0f7c ec3d ecc9 e63c 8275 a53c
00000120: 418d 973d e232 4c3d 77b7 123c b6c4 e0bb
00000130: c7ec 1d3e 1e48 81bc 8bc7 65bd 2cb6 e43d
00000140: 4416 adbe a267 2d3d 179d 77bd a8ab 9a3d
00000150: b3aa 683d 6303 8cbd bd3c 933d 01fd 2b3d
00000160: 734c 923b 522f d13c 403a c4bd 8c69 d1bd
00000170: daf7 553d 7aad 233e d208 83bd e35a 193e
00000180: 1306 f13d 08e7 17bd b9f5 f83c 9db0 0fbe
00000190: 99c5 073d 0fa1 1e3e 0bad dc3d dab5 b53d
000001a0: aa0c 8dbe 37fc f9bd 2aa5 533e bb15 ecbd
000001b0: e203 bebe 5cab 1f3c 073d 6e3d 2c62 a5ba
000001c0: 1c86 953c b9d2 76be 9350 ddbb f21b 0b3d
000001d0: 559d 2b3d 01d1 aa3d 7c44 4fbd 8c77 ea3b
000001e0: 9318 a83c 0dbe a33b 3860 633d eb45 043e
000001f0: 6936 96bb a242 5ebd 27d6 a73d 9af9 e2bc
00000200: de52 43bb fdb4 d03d 0e57 543e 78a8 413d
00000210: 32c7 97bc 3b84 eb3c 8b83 1cbd faf2 15be
00000220: 3a68 70be 7db7 0c3d 04ce a5bd 845e 5dbd
00000230: 0114 1ebc 365f 163d 48c0 91bd 9857 e2bc
00000240: be44 b23d 975d 11bd 9c1c cfbd ff3e 1bbd
00000250: 5d74 8dbd 524f e6bc 9615 c53d b7fe 7e3d
00000260: bd49 54bc 66f1 6e3d 8eb3 8abd 496d cdbb
00000270: 502f 5ebd 4e82 33bd 1902 6a3d 61ad e1ba
00000280: 0e0c 03be 91f8 5d3d 001c d8bc 177a 453d
00000290: 00eb 83bd a1d1 e33d 6eee 39bd 0641 87bd
000002a0: c3f6 4dbd ca69 8d3c b1ad 31bd 45be 19bd
000002b0: 7084 b23c 8304 2f3d 820b 1b3d b975 63bd
000002c0: 10ed 10be 496c 9cbd fb49 6a3e 3072 273e
000002d0: 9f3b c23d 359f a03d 3ade c7bb 77c6 c4bd
000002e0: e012 913c 2a4e 353e 9d2d 40bf 3921 0cbe
000002f0: 8c5e e13c 753e 913c 8327 32bc 518a 423d
00000300: c9af 083e 4e93 20be 510d e03d 47bd 4dbd
00000310: adae 19bd 3d4b 54bd edea a8bb 2494 b93c
00000320: 8ed2 8b3b 57b8 6fbd 1102 913d b87e e13d
00000330: 59cd 083d ac0c e13d 9833 9dbc e4d9 0cbe
00000340: 7496 d6be 37bb c0bc ce45 aabc c610 543d
00000350: bce3 aabd 70b2 febd 4703 1cbd 83c6 023e
00000360: 4832 12bd 1989 5e3d bbd6 bfbd 7e12 88bd
00000370: bf14 1f3d 0a01 8e3d 3b76 e03c 8e0f c23d
00000380: 665b dd3d 44f4 a83c 2110 033e 94d3 1cbd
00000390: b7c0 013e c8d5 ad3d c9c4 bcbc 5fe3 92bd
000003a0: 5bd2 aebc ecd7 913d 08a6 51bd 7e8b 803d
000003b0: de49 963d 5559 e03c 2c47 5e3d e603 a83d
000003c0: 12e6 1b3c 9a45 403d b32f aebc f622 57bc
000003d0: bde3 543c b763 8e3d cf9e 183d a121 02ba
000003e0: 0081 953c 3975 9a3d 785c c33b 61d5 a63d
000003f0: 78e4 4cbc 0c81 8f3c 70b0 a23d 78af 2b3d

fr2.bias f4 [25]
-0.031000832 0.028698947 0.17780828 -0.15387696 -0.19503583 0.3173736 -0.009981681 -0.053235643
0.24950975 -0.024027493 0.12541617 -0.21005835 0.1110396 -0.13387088 0.06479281 0.012986729
0.09856174 -0.1686504 0.341052 0.12580736 -0.03878865 0.14876117 -0.21349789 0.11875141
-0.3138356
00000000: 75f5 fdbc 0e1a eb3c 6013 363e ec91 1dbe
00000010: 79b7 47be cb7e a23e 348a 23bc 9e0d 5abd
00000020: 7c7f 7f3e 4ed5 c4bc 196d 003e 8919 57be
00000030: bb68 e33d 7315 09be 18b2 843d 4ac6 543c
00000040: bdda c93d b1b2 2cbe 5e9e ae3e a5d3 003e
00000050: d9e0 1ebd d954 183e 319f 5abe f033 f33d
00000060: 0faf a0be

fr3.weight f4 [12, 25]
0.10196692 0.13265803 0.09896922 0.05753578 0.04680579 0.17103435 -0.22371681 -0.16827841
0.15953627 -0.010762307 0.18678808 0.10539392 -0.03461184 -0.033513438 -0.1548656 0.1278946
0.011866929 -0.14690691 0.00022730281 0.053371925 -0.020597056 -0.14645176 0.046701245 0.016435156
0.01814875 -0.03075003 -0.0873455 0.12472047 0.451592 0.13525738 -0.079810046 -0.070641145
0.047446556 0.21635577 -0.06605927 -0.33736506 -0.077075005 -0.16912614 -0.10416606 0.06900076
-0.2956257 -0.16742797 0.14683937 -0.030611485 -0.083757065 0.1391609 0.326339 -0.03780509
-0.22266203 -0.10389459 -0.020371227 0.10844264 0.108716555 0.1090305 -0.037272952 0.18229653
0.20150058 -0.0053762994 -0.0126970755 0.10644152 0.027095128 -0.046136133 -0.06472632 0.18369502
0.14013085 0.0027578287 0.19309618 -0.11161769 0.051790338 0.065147154 -0.08251897 -0.059802037
-0.09020996 -0.046003275 0.031392876 0.097524725 0.22244169 0.10867509 -0.12643772 -0.08500983
0.026463222 -0.058996104 -0.055944256 0.10571236 0.0616663 0.15072194 -0.15149397 0.04143541
-0.02203518 -0.059388846 0.10776024 0.15589869 -0.09004678 -0.07512453 0.013287463 0.016060542
-0.1783637 -0.14678137 -0.14151196 0.008181881 -0.3702491 -0.12564307 0.08322346 -0.13761233
-0.09431965 0.21567535 -0.24338482 -0.059248134 0.1575954 0.09342578 0.07074027 0.024563782
-0.116117366 -0.120168656 -0.3937801 0.05108718 0.11980724 -0.31990162 -0.033265267 0.25967243
-0.1777425 0.014578118 -0.012755518 0.14773144 0.15586863 -0.05334877 0.10628499 -0.20374903
-0.0022162301 -0.1817515 0.12591673 0.06411859 0.053488094 0.06780984 -0.028518416 0.30639508
-0.25500593 -0.011057832 0.032166224 0.10391398 0.058528308 0.15484227 -0.0055717337 -0.030054377
-0.13318235 -0.053561043 -0.010483503 0.109363966 -0.10077187 0.025366073 0.025464404 -0.037404973
0.01849382 -0.0028140713 0.056260455 0.07829088 0.084410034 -0.48498616 -0.29624626 0.083281435
-0.22296838 -0.17233852 0.16811697 0.056874666 0.06373182 0.1907439 -0.060047723 -0.089437
-0.13571131 0.09385773 -0.02211706 -0.86505395 -0.008075192 -0.12965247 -0.04836513 0.017064631
-0.018638996 0.0023123424 0.01785606 0.013532189 0.21076766 -0.19847459 0.10193627 0.07547751
-0.085862726 -0.033252463 -0.09614863 -0.089095935 -0.13797352 0.11649623 -0.021918233 0.049936466
0.067634486 0.0046731727 0.08443584 0.11429986 0.21075554 -0.01488534 0.11147099 -0.04058616
0.11003855 0.08178002 -0.043829117 -0.0450812 0.044494525 -0.165759 -0.06398358 -0.30862096
0.072041176 -0.011018396 -0.14385715 -0.13272783 0.106833465 -0.16412556 0.03544774 0.14246981
0.009059874 -0.12784739 -0.0023515627 0.038108446 0.018377006 -0.22502041 -0.24384075 0.074853286
-0.0063107386 -0.06457304 -0.16652587 -0.13354704 -0.19106191 -0.03858489 -0.26387846 0.047779925
0.0806125 -0.25597036 0.18617715 -0.16020545 0.03761838 0.059101295 0.16412258 0.16209723
-0.035051167 -0.0018308472 -0.019109288 -0.016217923 0.057378665 -0.051738314 0.12624672 0.13636725
0.2135136 -0.21674305 0.016121302 -0.036815185 0.1218476 0.013645651 -0.0044305106 0.07104118
00000000: 08d4 d03d 82d7 073e 60b0 ca3d a3aa 6b3d
00000010: 6eb7 3f3d a123 2f3e 0516 65be 2d51 2cbe
00000020: 7a5d 233e 6354 30bc 6045 3f3e c4d8 d73d
00000030: 25c5 0dbd 6345 09bd 1695 1ebe cdf6 023e
00000040: 826d 423c c46e 16be 2258 6e39 859c 5a3d
00000050: 28bb a8bc 73f7 15be ce49 3f3d 05a3 863c
00000060: b0ac 943c 7de7 fbbc 33e2 b2bd 726d ff3d
00000070: 1137 e73e e980 0a3e 7373 a3bd 4eac 90bd
00000080: 5257 423d 5e8c 5d3e 154a 87bd 1dbb acbe
00000090: 80d9 9dbd 672f 2dbe 0455 d5bd 4550 8d3d
000000a0: 405c 97be 3d72 2bbe 0f5d 163e f0c4 fabc
000000b0: d388 abbd 3280 0e3e e815 a73e 83d9 1abd
000000c0: 8401 64be b0c6 d4bd 8fe1 a6bc 2d17 de3d
000000d0: c9a6 de3d 624b df3d 86ab 18bd f1ab 3a3e
000000e0: 2b56 4e3e ab2b b0bb 6507 50bc 03fe d93d
000000f0: 9af6 dd3c 3ef9 3cbd 3c8f 84bd 8c1a 3c3e
00000100: 767e 0f3e b0bc 343b 01bb 453e d197 e4bd
00000110: 1b22 543d df6b 853d b5ff a8bd fbf2 74bd
00000120: 00c0 b8bd ee6d 3cbd d195 003d 0bbb c73d
00000130: c1c7 633e 0c91 de3d e478 01be a219 aebd
00000140: 66c9 d83c e6a5 71bd ce25 65bd b97f d83d
00000150: cd95 7c3d da56 1a3e 3c21 1bbe 2db8 293d
00000160: 1f83 b4bc b841 73bd 67b1 dc3d e8a3 1f3e
00000170: 726a b8bd e4da 99bd a9b3 593c 6691 833c
00000180: f9a4 36be db4d 16be 83e8 10be 4c0d 063c
00000190: 4a91 bdbe 94a8 00be 1071 aa3d 3fea 0cbe
000001a0: a92a c1bd 00da 5c3e df39 79be 2cae 72bd
000001b0: b060 213e 0456 bf3d 46e0 903d fc39 c93c
000001c0: f1ce edbd fc1a f6bd 8c9d c9be ca40 513d
000001d0: 805d f53d 25ca a3be 2941 08bd c9f3 843e
000001e0: 2102 36be 0fd9 6e3c 85fc 50bc e946 173e
000001f0: 079c 1f3e 3d84 5abd f2ab d93d 96a3 50be
00000200: 2c3e 11bb 111d 3abe 51f0 003e 9b50 833d
00000210: 5516 5b3d e3df 8a3d 749f e9bc d1df 9c3e
00000220: 2390 82be e92b 35bc bbc0 033d dad0 d43d
00000230: 61bb 6f3d f98e 1e3e 1793 b6bb 9934 f6bc
00000240: f460 08be d362 5bbd 00c3 2bbc 37fa df3d
00000250: 7b61 cebd 83cc cf3c ba9a d03c f535 19bd
00000260: 5a80 973c 486c 38bb 5d71 663d f856 a03d
00000270: 2bdf ac3d 1b50 f8be 97ad 97be 758f aa3d
00000280: d351 64be 8279 30be db26 2c3e 69f5 683d
00000290: d485 823d 5e52 433e 9af4 75bd bf2a b7bd
000002a0: e8f7 0abe 7b38 c03d d62e b5bc 2d74 5dbf
000002b0: cf4d 04bc 9ec3 04be 841a 46bd 20cb 8b3c
000002c0: cfb0 98bc ab8a 173b df46 923c 1db6 5d3c
000002d0: 7ad3 573e ec3c 4bbe f7c3 d03d f493 9a3d
000002e0: ccd8 afbd bc33 08bd 93e9 c4bd ee77 b6bd
000002f0: ee48 0dbe 9395 ee3d de8d b3bc 2e8a 4c3d
00000300: f383 8a3d 6a21 993b b3ec ac3d 0c16 ea3d
00000310: 4dd0 573e a4e1 73bc e74a e43d ac3d 26bd
00000320: e45b e13d 487c a73d 2986 33bd 10a7 38bd
00000330: e43f 363d babc 29be d309 83bd 9103 9ebe
00000340: 538a 933d 8186 34bc 4a4f 13be cee9 07be
00000350: 81cb da3d 8810 28be a631 113d 9be3 113e
00000360: de6f 143c 6dea 02be ad1c 1abb 9a17 1c3d
00000370: 608b 963c c06b 66be 64b1 79be ae4c 993d
00000380: 50ca cebb df3e 84bd c285 2abe 8ec0 08be
00000390: bca5 43be 310b 1ebd 141b 87be e2b4 433d
000003a0: 2b18 a53d 8c0e 83be 39a5 3e3e e60c 24be
000003b0: bb15 1a3d 3314 723d c00f 283e d1fc 253e
000003c0: d091 0fbd 0af9 efba 158b 9cbc 73db 84bc
000003d0: e405 6b3d 8eeb 53bd d246 013e dba3 0b3e
000003e0: 4fa3 5a3e e4f1 5dbe d210 843c 85cb 16bd
000003f0: 3c8b f93d 0292 5f3c d12d 91bb 0a7e 913d

fr3.bias f4 [12]
-0.25515032 0.21316388 -0.31595114 0.122190215 0.03652713 0.1900431 -0.21438426 0.22142199
-0.5463802 -0.14820859 0.43593472 0.070350386
00000000: 10a3 82be a247 5a3e 59c4 a1be dd3e fa3d
00000010: 799d 153d a99a 423e 8c87 5bbe 72bc 623e
00000020: 93df 0bbf fec3 17be d632 df3e dd13 903d

fo1.weight f4 [50, 28]
-0.17740682 0.08669782 -0.034075826 -0.15536906 0.045266 -0.14177828 0.11396234 0.011182441
0.017015401 -0.12229601 0.10151073 0.07808552 0.07117562 0.08557684 0.18105377 -0.15399311
-0.08185822 0.027864743 0.06735852 -0.115090765 -0.13717481 -0.07989122 0.18546814 -0.20284039
-0.23113154 0.07678636 -0.041408908 -0.053856988 0.031755015 -0.010163798 -0.0046032704 0.14158805
0.035980083 -0.088798426 -0.059626915 -0.0287423 -0.2715343 0.058074255 0.13217144 -0.19336705
-0.0038836221 -0.52945065 -0.24326988 0.12839086 -0.18666343 -0.05587152 0.050678648 0.08564185
0.24068043 -0.12221727 -0.0013104271 -0.23898926 0.029183393 -0.113862984 -0.046374507 0.13197492
-0.039099433 -0.10063805 0.07382571 -0.012656729 0.09459129 0.05857146 0.08575549 -0.116703756
0.31272137 -0.019413622 0.14453727 0.14278568 0.61226445 0.2640234 -0.033186264 0.060981397
0.10008392 -0.14366308 -0.09230512 0.13417251 -0.27704418 -0.08951921 -0.008733599 -0.26281902
-0.040799696 -0.42291364 0.19405133 -0.0733894 -0.049694177 0.042298492 0.12406195 0.13669822
-0.1264869 -0.100174494 -0.18765299 -0.12914474 0.79559785 0.27152398 0.06834087 -0.26365077
-0.4849667 0.08591628 -0.08710982 0.21393505 -0.16033038 0.00772403 -0.06640702 -0.041193668
0.07156778 -0.07074141 -0.07427083 -0.21266732 0.045196183 0.02867614 -0.06330174 0.11268918
-0.06907403 0.06503374 0.022027345 -0.15291302 -0.1534974 0.020252844 -0.114963606 -0.098733984
0.505367 -0.087346576 -0.07865728 0.06332076 0.94403017 -1.4828118 0.19681582 -0.26405066
-0.04778293 0.0049345624 0.16170332 0.034733146 -0.33895326 -0.084069714 -0.22234364 0.085048564
0.013981906 -0.23141915 0.015269561 -0.101536386 -0.14639312 0.037010975 0.15713975 -0.08561052
0.06355625 -0.20748812 0.09097568 0.15595002 0.13716505 0.1726679 0.086246304 -0.056161143
0.13882013 -0.18101844 0.09210074 -0.10590109 -0.0012025282 -0.16494152 0.07977 -0.1732048
-0.050914157 -0.010833079 0.07970152 -0.16576852 -0.00519763 -0.0030206805 -0.18335713 -0.17435522
-0.06881039 0.0012811605 0.11543589 -0.033740032 -0.16219462 -0.24129471 -0.10792441 0.14253469
0.027824886 -0.11102513 0.037695628 -0.2711808 0.6837065 0.313947 0.07588545 0.087237105
-0.1138065 -0.24403043 -0.057766184 0.050510503 -0.35896495 0.103963315 0.014539329 -0.078803234
0.010376836 0.04940293 -0.0029151456 0.17886706 0.021990435 -0.0016301514 0.0028989885 0.001836335
0.097193144 -0.22054447 0.15477286 -0.110877246 0.017069414 0.18083161 -0.14856008 -0.048371974
-0.046653297 -0.091473594 0.09874592 0.03984946 0.09978277 -0.13777658 -0.1458888 0.05136036
0.051852398 -0.13803165 -0.005154842 -0.07696916 -0.12214226 0.16482718 0.10517672 0.018350976
0.036727306 -0.07571347 0.06333693 -0.2527877 -0.097542256 -0.38139918 -0.30333123 0.017154373
0.05527462 0.18649864 -0.088636495 0.011768561 0.54967964 1.3413743 -0.18400726 -0.10656625
-0.07214761 0.2654434 0.103089444 0.08185068 -0.1317184 0.09235035 -0.018728666 -0.046562202
0.05447234 -0.103813976 -0.040342007 -0.08758757 0.15698862 0.18852808 -0.011230446 0.023077438
00000000: 22aa 35be a08e b13d 1893 0bbd 1119 1fbe
00000010: d768 393d 532e 11be 1665 e93d 8f36 373c
00000020: e263 8b3c 5576 fabd dce4 cf3d 4deb 9f3d
00000030: 86c4 913d e942 af3d 2966 393e 5fb0 1dbe
00000040: 48a5 a7bd 9a44 e43c 44f3 893d b5b4 ebbd
00000050: 8e77 0cbe 029e a3bd 5ceb 3d3e 64b5 4fbe
00000060: bfad 6cbe 2b42 9d3d 639c 29bd 2599 5cbd
00000070: 8c11 023d 0f86 26bc 08d7 96bb 75fc 103e
00000080: da5f 133d f3db b5bd 5a3b 74bd f974 ebbc
00000090: 8b06 8bbe 45df 6d3d f357 073e 0302 46be
000000a0: 5e84 7ebb 148a 07bf bd1b 79be e578 033e
000000b0: b324 3fbe 89d9 64bd 6a94 4f3d ff64 af3d
000000c0: ee74 763e 0c4d fabd a3c2 abba 9ab9 74be
000000d0: 0312 ef3c ff30 e9bd 32f3 3dbd 6f24 073e
000000e0: ba26 20bd 521b cebd ef31 973d 2b5e 4fbc
000000f0: 14b9 c13d a1e8 6f3d 93a0 af3d 6102 efbd
00000100: 041d a03e 5109 9fbc 9401 143e 6936 123e
00000110: 5dbd 1c3f 132e 873e 52ee 07bd a1c7 793d
00000120: ccf8 cc3d 6a1c 13be 770a bdbd 8564 093e
00000130: bcd8 8dbe d955 b7bd 5f17 0fbc 3790 86be
00000140: 951d 27bd 2388 d8be 64b5 463e 2f4d 96bd
00000150: 1f8c 4bbd 2f41 2d3d 3114 fe3d 9efa 0b3e
00000160: c885 01be 4928 cdbd 1b28 40be 853e 04be
00000170: 4dac 4b3f 3105 8b3e 4cf6 8b3d 3cfd 86be
00000180: 8e4d f8be e0f4 af3d a266 b2bd ca11 5b3e
00000190: a62d 24be dc19 fd3b 6700 88bd b1ba 28bd
000001a0: 2192 923d dfe0 90bd 4e1b 98bd 76c5 59be
000001b0: a21f 393d 39ea ea3c 58a4 81bd 96c9 e63d
000001c0: af76 8dbd 6930 853d b172 b43c 3b95 1cbe
000001d0: 6c2e 1dbe 4be9 a53c 0a72 ebbd 0b35 cabd
000001e0: bb5f 013f c3e2 b2bd 1117 a1bd 51ae 813d
000001f0: f6ab 713f c7cc bdbf 168a 493e a631 87be
00000200: 09b8 43bd 1cb2 a13b 8e95 253e 5844 0e3d
00000210: 488b adbe be2c acbd 0dae 63be f12d ae3d
00000220: 5d14 653c 24f9 6cbe 2e2d 7a3c 4ff2 cfbd
00000230: 14e8 15be d298 173d 3ee9 203e 9154 afbd
00000240: c729 823d c477 54be 7551 ba3d 5db1 1f3e
00000250: ff74 0c3e dbcf 303e e7a1 b03d 3a09 66bd
00000260: dd26 0e3e e65c 39be 509f bc3d ace2 d8bd
00000270: 279e 9dba 6ee6 28be 745e a33d 995c 31be
00000280: 5d8b 50bd 3a7d 31bc 8d3a a33d 39bf 29be
00000290: e150 aabb 9cf6 45bb f9c1 3bbe 2d8a 32be
000002a0: 76ec 8cbd 9dec a73a a769 ec3d fd32 0abd
000002b0: 5916 26be f615 77be 7907 ddbd 9df4 113e
000002c0: 04f1 e33c 2561 e3bd bb66 1a3d 36d8 8abe
000002d0: 6407 2f3f a9bd a03e d569 9b3d 5ea9 b23d
000002e0: 6213 e9bd 1de3 79be 3c9c 6cbd 1ae4 4e3d
000002f0: 41ca b7be b8ea d43d 5e36 6e3c 9763 a1bd
00000300: 9b03 2a3c ba5a 4a3d 070c 3fbb ed28 373e
00000310: 4925 b43c ceaa d5ba f5fc 3d3b 2eb1 f03a
00000320: 330d c73d 69d6 61be c77c 1e3e 9c13 e3bd
00000330: 28d5 8b3c ec2b 393e 2220 18be b121 46bd
00000340: 8717 3fbd 8256 bbbd 4d3b ca3d 3039 233d
00000350: e95a cc3d 4e15 0dbe e063 15be 3e5f 523d
00000360: 2e63 543d 2b58 0dbe f3e9 a8bb 02a2 9dbd
00000370: b925 fabd 75c8 283e e466 d73d c954 963c
00000380: 5f6f 163d aa0f 9bbd cbb6 813d 646d 81be
00000390: 3cc4 c7bd c146 c3be 3b4e 9bbe 5487 8c3c
000003a0: a467 623d 80f9 3e3e 0d87 b5bd ecd0 403c
000003b0: ceb7 0c3f 27b2 ab3f 666c 3cbe 683f dabd
000003c0: 20c2 93bd 33e8 873e 8f20 d33d 54a1 a73d
000003d0: 30e1 06be 2e22 bd3d dc6c 99bc 02b8 3ebd
000003e0: 631e 5f3d 6c9c d4bd a93d 25bd 1d61 b3bd
000003f0: a0c1 203e 810d 413e e8ff 37bc e50c bd3c

fo1.bias f4 [50]
0.08031855 0.06081045 0.1663695 -0.016242838 -0.029904613 -0.15969509 0.19031373 -0.12123858
-0.025443692 0.12593344 -0.2229057 0.13859347 0.14269449 -0.03285974 -0.052813534 0.07092192
-0.10630691 -0.18544525 -0.12235092 0.13728252 -0.14446366 -0.045901503 -0.15404479 -0.049595434
0.03980207 0.3187883 0.037671898 0.27686515 -0.1430556 -0.10187751 0.1628612 0.10643849
-0.1380935 0.17005688 -0.2767667 -0.28007954 0.19574569 -0.14657538 -0.22263336 0.034338485
-0.12300915 -0.015426804 0.21024281 0.2155292 0.06895332 -0.13145569 0.05070908 -0.023210756
-0.07841508 -0.025666866
00000000: 0d7e a43d 6114 793d c45c 2a3e b30f 85bc
00000010: 85fa f4bc 1c87 23be 9ae1 423e ef4b f8bd
00000020: 4a6f d0bc b2f4 003e 6441 64be 72eb 0d3e
00000030: 811e 123e ef97 06bd 0153 58bd 833f 913d
00000040: 70b7 d9bd 5ce5 3dbe 1f93 fabd ca93 0c3e
00000050: 48ee 13be 3703 3cbd ebbd 1dbe 9524 4bbd
00000060: 7f07 233d 3838 a33e d94d 1a3d 45c1 8d3e
00000070: 2b7d 12be 28a5 d0bd 16c5 263e 6cfc d93d
00000080: 6268 0dbe 6423 2e3e 5db4 8dbe 9666 8fbe
00000090: 8f71 483e db17 16be 00fa 63be 83a6 0c3d
000000a0: 39ec fbbd b5c0 7cbc e449 573e b0b3 5c3e
000000b0: 6637 8d3d 529c 06be 53b4 4f3d 7c24 bebc
000000c0: 1698 a0bd 5243 d2bc

fo2.weight f4 [25, 50]
0.008676513 -0.02450827 -0.01743232 0.005283878 -0.10605756 0.027694933 0.11144014 -0.026403386
0.16639021 0.08250984 0.033413135 -0.05359329 0.009472314 -0.035303794 0.041209497 -0.14559117
-0.01701988 -0.03744809 0.021642536 0.043626055 -0.042204995 -0.14413422 -0.023838699 0.0765353
0.044908497 -0.0212523 -0.10870625 -0.04329214 0.085173875 -0.0059057926 0.23179848 0.02189614
0.08376964 0.09869496 0.06085674 0.44036847 -0.10693434 -0.11881063 0.07873501 -0.060193952
0.1710389 -0.08520843 -0.10466427 -0.17973247 -0.11658921 0.11606261 -0.050952327 0.021854745
-0.26762497 0.134015 -0.036606614 0.0711937 -0.03814311 -0.1220193 0.019603044 -0.045908704
0.007932956 0.019290302 -0.17574134 0.17629 0.07580745 -0.09090844 -0.05009467 0.052806653
0.13552944 0.09201918 -0.1348441 -0.026206557 -0.22380131 0.02376525 -0.026388498 0.1405736
0.10523718 -0.3622597 -0.02585368 0.058514144 -0.009519845 -0.024005797 0.10359108 -0.12973796
0.111881256 -0.1510686 0.12730561 0.0030046995 0.10957427 -0.5031338 0.13682449 -0.1392858
-0.3464116 -0.0177659 -0.015503687 -0.035141 -0.19802982 -0.066442154 -0.07769401 -0.077654
-0.12180396 -0.013964955 0.20362796 -0.16127998 0.04824513 0.0025794648 -0.021898227 -0.0029270314
0.032262105 0.06919363 0.107739575 0.07324292 -0.023960708 0.021663295 0.08113002 -0.041605078
-0.09258657 0.024068026 0.044813264 -0.11916973 -0.06429001 -0.09575257 0.030119227 0.12676285
-0.031918332 -0.06588426 -0.09843529 -0.09247967 0.09444036 -0.07477891 0.02854905 -0.006173992
-0.020866184 0.11234753 0.08559302 -0.13039619 -0.108181 -0.12217381 -0.057267617 -0.07799563
-0.091763645 0.0977272 0.10450635 0.036097277 -0.0884748 -0.091621324 -0.11825009 0.047550056
-0.07288983 0.12405975 0.07816175 0.13225783 0.09277224 -0.13612737 0.015854852 -0.05364262
-0.04243329 0.07528724 -0.04065471 0.14080599 0.068196975 0.050064307 -0.10104938 0.051885284
-0.11667113 0.003459717 0.102584 0.07834741 -0.11066114 -0.080189906 -0.10089831 -0.060333837
-0.115470245 -0.018795924 -0.09588654 -0.007280873 0.036844425 0.017322477 -0.031549968 -0.08956359
-0.013322765 -0.05706417 0.10937745 -0.032586507 -0.099492796 -0.0138446335 -0.14054723 -0.060953196
-0.09655606 -0.05681913 -0.13196045 -0.11666456 -0.12124772 0.046477873 -0.108318165 0.11006456
0.053804416 -0.024206948 -0.035597544 0.048649944 0.035910044 -0.11293127 0.01949334 -0.06952508
-0.11421353 0.101391844 -0.08726293 0.096170485 -0.22820792 0.0041045714 -0.03404537 0.1365396
-0.17270353 -0.073019475 -0.09071492 0.11196352 -0.1703327 -0.10362302 0.378144 0.024251927
0.014839999 0.01041753 0.0023250186 -0.05077088 0.109183475 0.041612595 0.06702148 0.09855051
0.16731326 0.036312513 -0.25288537 -0.12142119 -0.016753443 -0.093531035 0.0030576224 0.22210383
-0.13691086 -0.095294066 -0.030137962 -0.10070415 -0.14808398 0.05953925 -0.011765033 0.085848495
-0.09259932 -0.030058902 -0.29014015 -0.03187557 0.0031931747 0.26935574 -0.088789694 -0.33099487
0.33597618 0.047198478 0.07015601 -0.11938106 0.23993011 -0.07319566 7.901664e-05 0.11645111
00000000: ef27 0e3c 91c5 c8bc 3ace 8ebc 6224 ad3b
00000010: b534 d9bd 7ce0 e23c ba3a e43d ea4b d8bc
00000020: 3262 2a3e ebfa a83d 36dc 083d a384 5bbd
00000030: c431 1b3c b69a 10bd 4acb 283d da15 15be
00000040: 466d 8bbc 2b63 19bd b04b b13c 3cb1 323d
00000050: 25df 2cbd ec97 13be 6049 c3bc 8abe 9c3d
00000060: f9f1 373d 4e19 aebc 62a1 debd 1953 31bd
00000070: a46f ae3d 6185 c1bb 955c 6d3e 895f b33c
00000080: 6b8f ab3d 9520 ca3d eb44 793d fa77 e13e
00000090: 6400 dbbd fd52 f3bd d23f a13d ef8d 76bd
000000a0: d224 2f3e c281 aebd 395a d6bd ca0b 38be
000000b0: 53c6 eebd 3cb2 ed3d 63b3 50bd b908 b33c
000000c0: 2406 89be 3a3b 093e d1f0 15bd 01ce 913d
000000d0: f33b 1cbd 41e5 f9bd 9096 a03c c40a 3cbd
000000e0: 3bf9 013c b206 9e3c 8af5 33be 5e85 343e
000000f0: f040 9b3d 342e babd 1230 4dbd ca4b 583d
00000100: 3bc8 0a3e 8d74 bc3d 9214 0abe 22af d6bc
00000110: 2c2c 65be 57af c23c b12c d8bc 87f2 0f3e
00000120: 9786 d73d 1a7a b9be 19cb d3bc 87ac 6f3d
00000130: 20f9 1bbc cea7 c4bc 8f27 d43d 07da 04be
00000140: 0022 e53d bab1 1abe 675c 023e 7eea 443b
00000150: 7a68 e03d 60cd 00bf b81b 0c3e f0a0 0ebe
00000160: dc5c b1be cb89 91bc 2d03 7ebc 02f0 0fbd
00000170: 54c8 4abe d312 88bd 0a1e 9fbd 0f09 9fbd
00000180: 5b74 f9bd 44cd 64bc d983 503e 9426 25be
00000190: af9c 453d 3d0c 293b e963 b3bc 70d3 3fbb
000001a0: 4525 043d 64b5 8d3d 91a6 dc3d 6200 963d
000001b0: 3f49 c4bc 3977 b13c 7f27 a63d 166a 2abd
000001c0: 079e bdbd 4f2a c53c 1d8e 373d 420f f4bd
000001d0: 7baa 83bd ec19 c4bd 99bc f63c 1fce 013e
000001e0: ccbc 02bd 54ee 86bd 7198 c9bd fb65 bdbd
000001f0: f369 c13d af25 99bd b3df e93c 334f cabb
00000200: 8fef aabc 7616 e63d 654b af3d 9486 05be
00000210: 008e ddbd 4336 fabd 7391 6abd 2cbc 9fbd
00000220: 94ee bbbd 3325 c83d 6d07 d63d bdda 133d
00000230: 4732 b5bd f6a3 bbbd 1a2d f2bd d9c3 423d
00000240: 4347 95bd 0a13 fe3d 4513 a03d 996e 073e
00000250: 5fff bd3d f964 0bbe 09e2 813c 5db8 5bbd
00000260: 88ce 2dbd 3230 9a3d 8e85 26bd 722f 103e
00000270: dbaa 8b3d 3b10 4d3d faf2 cebd aa85 543d
00000280: 46f1 eebd 6bbc 623b 8f17 d23d 9b74 a03d
00000290: 4fa2 e2bd 9b3a a4bd c6a3 cebd 9d20 77bd
000002a0: aa7b ecbd e9f9 99bc 2a60 c4bd 6494 eebb
000002b0: 2eea 163d dee7 8d3c 8a3a 01bd 1e6d b7bd
000002c0: ba47 5abc 1ebc 69bd 4901 e03d 6e79 05bd
000002d0: e1c2 cbbd 9ad4 62bc 9deb 0fbe 0faa 79bd
000002e0: 2fbf c5bd 2dbb 68bd a420 07be d4ed eebd
000002f0: ba50 f8bd 955f 3e3d ead5 ddbd 8769 e13d
00000300: 0562 5c3d a64d c6bc bbce 11bd 2a45 473d
00000310: 6916 133d 8248 e7bd 7fb0 9f3c 2a63 8ebd
00000320: c9e8 e9bd 87a6 cf3d e8b6 b2bd 08f5 c43d
00000330: 56af 69be a47f 863b 2873 0bbd 09d1 0b3e
00000340: 32d9 30be 3c8b 95bd bec8 b9bd 214d e53d
00000350: b26b 2ebe 4e38 d4bd 179c c13e faab c63c
00000360: 7823 733c 4aae 2a3c 575f 183b 20f5 4fbd
00000370: 969b df3d f871 2a3d 8f42 893d dad4 c93d
00000380: 2b54 2b3e 6ebc 143d 317a 81be acab f8bd
00000390: 843e 89bc 338d bfbd 6462 483b 306f 633e
000003a0: 5c32 0cbe 8929 c3bd e3e3 f6bc fa3d cebd
000003b0: 54a3 17be 6edf 733d 20c2 40bc 56d1 af3d
000003c0: b6a4 bdbd 163e f6bc 408d 94be f58f 02bd
000003d0: 9544 513b ffe8 893e 5fd7 b5bd 2978 a9be
000003e0: 1205 ac3e 3153 413d f4ad 8f3d 0f7e f4bd
000003f0: 3db0 753e 9be7 95bd bcb5 a538 eb7d ee3d

fo2.bias f4 [25]
-0.20938145 -0.095940694 -0.1262965 -0.04204716 -0.25216547 0.07424851 0.19121484 0.10420689
0.04825498 0.27679774 -0.116706125 0.2233764 -0.08268153 -0.009540835 0.06414812 -0.11182135
-0.06344236 -0.21629784 0.019872313 0.36895227 0.09407137 -0.03875362 -0.34857506 -0.08577085
0.0658175
00000000: 1768 56be 8e7c c4bd df53 01be a539 2cbd
00000010: d51b 81be 9a0f 983d d3cd 433e 6c6a d53d
00000020: 04a7 453d 6fb8 8d3e 9f03 efbd c8bc 643e
00000030: ef54 a9bd 2a51 1cbc 1760 833d 9802 e5bd
00000040: 11ee 81bd 2e7d 5dbe 43cb a23c 50e7 bc3e
00000050: 7ea8 c03d 1ebc 1ebd 6e78 b2be a1a8 afbd
00000060: 53cb 863d

fo3.weight f4 [14, 25]
-0.04390721 0.2752141 0.03143147 -0.15925933 0.061644718 0.09263554 0.010869833 -0.034666564
-0.25486082 -0.0518231 0.16126207 0.12935896 0.103361994 -0.0679896 -0.18584345 -0.012632191
-0.07142313 0.09777791 0.12382504 0.0028435919 -0.17041102 0.09610292 0.1473863 0.043559927
0.013277971 0.07609186 0.077427514 -0.018195922 -0.08363547 -0.06531918 -0.060092065 0.005262371
-0.15376015 -0.161375 -0.011982946 0.023275154 -0.24579866 -0.03090299 0.10993418 0.07241593
-0.13739212 -0.001275881 0.010071824 0.12540245 -0.008539559 0.0035282585 -0.0383938 0.14099856
0.18336834 -0.08431967 -0.2579407 0.039649606 0.17032172 -0.16966575 0.20362808 -0.114352964
0.09963365 0.030567043 0.046776928 -0.18265945 0.027058577 0.09095415 0.15122211 -0.2166878
-0.34663847 -0.13317649 -0.035805482 0.021746343 0.19569033 -0.093268536 0.061554577 0.36912814
-0.0125889005 0.13347779 0.0018936781 0.115605414 0.032618374 -0.1726112 0.07991267 -0.15250161
-0.15832499 0.08633606 0.011260272 0.16341378 0.17156132 -0.11106677 -0.15017888 -0.02038404
0.12272812 0.020528065 0.10871898 0.12800133 0.07460009 -0.021227246 0.016965406 -0.15683235
-0.03250923 0.04392752 0.007912988 0.029647943 0.13206437 0.109430045 -0.09297211 -0.009056777
0.44466633 -0.28556105 0.051152036 0.0678755 0.21845847 -0.09033062 0.35245556 -0.29438245
-0.075590625 -0.11901005 -0.27353093 -0.17820275 -0.0041428735 -0.09998001 0.15987141 -0.033724014
0.06891907 0.39895913 -0.017033445 0.067852765 -0.21351066 0.17403412 0.101378396 -0.17591111
-0.11745129 -0.18334997 -0.09767385 -0.09728174 0.015824938 0.027474428 0.035023734 -0.06613659
-0.082305945 -0.1795799 -0.20737013 -0.07516525 -0.17620361 0.005715776 -0.11364165 -0.09334607
-0.1653629 0.027714822 0.008495524 -0.10526739 0.0339889 -0.09698329 -0.19620627 -0.19766353
-0.11166432 -0.17887382 0.017568476 -0.15204181 0.13105512 0.08026326 0.0050151087 0.12944776
0.3533928 0.2760917 0.18483412 0.18155894 0.01053593 0.14267942 0.052117918 -0.028137378
-0.063777305 0.09972265 -0.09046389 -0.044352546 -0.20986138 0.012679698 0.15884434 -0.09523662
-0.2019458 0.009173707 0.054356106 -0.080352575 0.1215527 -0.024134673 0.09951844 -0.14119203
0.048323553 -0.19842532 0.23333824 -0.14414781 0.1863524 -0.058469187 -0.17022349 -0.092422366
-0.108305044 0.07253399 0.1767892 0.17738262 0.021328965 -0.18155664 -0.022023765 0.04401274
0.05690644 -0.08760503 -0.147137 -0.08549404 -0.25046614 0.04961527 0.064358644 -0.12689827
0.14870577 -0.1799555 0.06150567 -0.06758864 0.17443793 0.08616397 0.14454897 0.06917709
-0.035280656 -0.1572169 -0.09101553 0.05526243 -0.009015835 0.36443248 -0.029137442 -0.3202106
0.14072764 -0.1629102 0.19551022 -0.026503969 -0.073746055 -0.1374956 0.0241743 0.06819517
0.049913667 0.01436553 0.13903454 -0.09903767 -0.06998673 0.11365197 -0.20340884 0.025880136
0.06291795 0.06724735 -0.16496912 0.1658448 0.14096723 0.17411985 -0.09363399 -0.025049092
0.09590884 -0.12378708 -0.23474771 0.16449465 -0.14062208 -0.14418729 0.02612814 -0.08524908
00000000: 0cd8 33bd dde8 8c3e 49be 003d e114 23be
00000010: 2c7f 7c3d b4b7 bd3d 6217 323c 87fe 0dbd
00000020: 1e7d 82be 7544 54bd e221 253e ad76 043e
00000030: 74af d33d 223e 8bbd bf4d 3ebe 40f7 4ebc
00000040: 4a46 92bd c93f c83d fc97 fd3d 8e5b 3a3b
00000050: 3a80 2ebe 9cd1 c43d 6fec 163e e56b 323d
00000060: d98b 593c 0dd6 9b3d 5192 9e3d 9d0f 95bc
00000070: 1349 abbd 10c6 85bd 1923 76bd f86f ac3b
00000080: 4d73 1dbe 7d3f 25be 1e54 44bc 89ab be3c
00000090: a5b2 7bbe 4428 fdbc 2c25 e13d ce4e 943d
000000a0: 85b0 0cbe 763b a7ba 4b04 253c 8069 003e
000000b0: 82e9 0bbc 5b3a 673b d142 1dbd ed61 103e
000000c0: e9c4 3b3e cbaf acbd ce10 84be a067 223d
000000d0: d168 2e3e dcbc 2dbe e183 503e e331 eabd
000000e0: ba0c cc3d bc67 fa3c 2a99 3f3d 140b 3bbe
000000f0: f3a9 dd3c 2b46 ba3d f8d9 1a3e 68e3 5dbe
00000100: 997a b1be 6b5f 08be c5a8 12bd 6325 b23c
00000110: 0c63 483e 9303 bfbd a720 7c3d 5dfe bc3e
00000120: ad41 4ebc 67ae 083e 4b35 f83a 88c2 ec3d
00000130: d89a 053d fec0 30be 41a9 a33d 6229 1cbe
00000140: f21f 22be f6d0 b03d 017d 383c f155 273e
00000150: c5ad 2f3e fa76 e3bd 7ec8 19be 6efc a6bc
00000160: e158 fb3d 792a a83c 0ea8 de3d c812 033e
00000170: efc7 983d c3e4 adbc 09fb 8a3c a998 20be
00000180: 6628 05bd 58ed 333d 7aa5 013c 3ee0 f23c
00000190: e23b 073e dc1c e03d 2968 bebd e062 14bc
000001a0: 4eab e33e 0f35 92be cc84 513d 4f02 8b3d
000001b0: 94b3 5f3e 43ff b8bd 0e75 b43e 4cb9 96be
000001c0: 42cf 9abd 8bbb f3bd 3f0c 8cbe c87a 36be
000001d0: f1c0 87bb 52c2 ccbd 55b5 233e 3122 0abd
000001e0: 7125 8d3d 5f44 cc3e b989 8bbc 64f6 8a3d
000001f0: 8aa2 5abe 0036 323e 7a9f cf3d 0b22 34be
00000200: 4d8a f0bd 18c0 3bbe 3a09 c8bd a63b c7bd
00000210: 4da3 813c 0d12 e13c 0c75 0f3d 9f72 87bd
00000220: 0590 a8bd cbe3 37be d658 54be 3df0 99bd
00000230: b86e 34be 674b bb3b f4bc e8bd 392c bfbd
00000240: e454 29be 320a e33c cf30 0b3c 6e96 d7bd
00000250: f237 0b3d 2d9f c6bd 4cea 48be 4f68 4abe
00000260: 43b0 e4bd b32a 37be c4eb 8f3c d9b0 1bbe
00000270: 5033 063e 1061 a43d c855 a43b f48d 043e
00000280: e7ef b43e e45b 8d3e 2845 3d3e 96ea 393e
00000290: e59e 2c3c 8e1a 123e 9979 553d 5c80 e6bc
000002a0: ad9d 82bd 643b cc3d 2245 b9bd 04ab 35bd
000002b0: e7e5 56be 82be 4f3c 17a8 223e 6b0b c3bd
000002c0: e1ca 4ebe 514d 163c 82a4 5e3d e48f a4bd
000002d0: 9ff0 f83d 14b6 c5bc 53d0 cb3d a594 10be
000002e0: ebee 453d 0230 4bbe 38f0 6e3e 7c9b 13be
000002f0: 2ad3 3e3e 637d 6fbd 114f 2ebe f047 bdbd
00000300: 09cf ddbd b38c 943d 3a08 353e caa3 353e
00000310: 15ba ae3c fce9 39be 2f6b b4bc b446 343d
00000320: ba16 693d 446a b3bd 15ab 16be 8017 afbd
00000330: 193d 80be 6239 4b3d 77ce 833d 9ff1 01be
00000340: 5346 183e 4146 38be 5fed 7b3d ea6b 8abd
00000350: db9f 323e bc76 b03d a504 143e b8ac 8d3d
00000360: 7382 10bd 78fd 20be 5a66 babd dc5a 623d
00000370: 27b7 13bc e596 ba3e a5b1 eebc a5f2 a3be
00000380: e81a 103e eed1 26be d533 483e da1e d9bc
00000390: 2c08 97bd a6cb 0cbe 2e09 c63c e9a9 8b3d
000003a0: 4672 4c3d 665d 6b3c 125f 0e3e 43d4 cabd
000003b0: 3455 8fbd 5dc2 e83d 684a 50be 9402 d43c
000003c0: 20db 803d fbb8 893d aaed 28be 38d3 293e
000003d0: b759 103e 794c 323e 2dc3 bfbd c133 cdbc
000003e0: db6b c43d 1584 fdbd b461 70be 4971 283e
000003f0: 3cff 0fbe d5a5 13be ae0a d63c 1297 aebd

fo3.bias f4 [14]
0.07010785 -0.3388627 -0.088291846 -0.0042161876 0.031791884 0.08285843 -0.03644842 0.050763782
0.116226435 0.22745626 -0.112447105 0.14004709 -0.43703234 -0.088757984
00000000: b494 8f3d 697f adbe 5bd2 b4bd f227 8abb
00000010: 3538 023d aeb1 a93d f04a 15bd afed 4f3d
00000020: 2008 ee3d 4bea 683e ab4a e6bd 8168 0f3e
00000030: b4c2 dfbe bfc6 b5bd

fc1.weight f4 [50, 14]
0.11052301 0.056893036 0.10333095 -0.043117926 -0.19544095 0.21894754 -0.041018028 0.10609583
0.1946605 -0.07464638 -0.14142382 0.06634763 -0.4870309 -0.2783369 0.28098273 0.12975678
-0.07002958 -0.099714085 0.09069896 0.044775903 0.11425168 -0.18520607 0.20950831 -0.1209431
0.3741625 0.11483817 -0.28436568 0.16943528 0.17306851 0.22310677 0.07527338 -0.11661986
-0.08437093 0.21417537 -0.024370113 0.152836 0.13897857 -0.13788846 0.08972758 0.1737073
-0.13996412 -0.427554 0.0077453777 -0.18117326 0.04800164 -0.033276193 0.044100527 0.05181825
0.17744052 0.12984017 -0.17249973 0.17329024 0.17636117 -0.070991874 -0.055059765 -0.02990076
-0.06743697 -0.034481592 -0.35837227 0.13184544 -0.032955777 0.24400117 -0.045974918 0.16509062
-0.20163013 0.1503567 -0.2813684 0.0052833594 0.21087404 0.10123165 -0.13734855 0.07623722
-0.20627607 0.052438535 -0.3422864 -0.16014238 -0.313373 -0.0058853645 -0.2628668 -0.058649845
0.13010855 0.2234419 0.12773803 0.37703755 0.17275774 0.1272675 -0.045828052 -0.08911767
0.25934544 0.12770797 0.13197915 -0.18998177 -0.14747928 0.10134279 -0.070505194 0.32732344
0.049814936 -0.40674543 0.0025388773 -0.28714985 -0.23202074 -0.17499962 0.09945862 0.25090203
0.011819898 -0.18253306 -0.13777679 -0.1503087 0.23090096 -0.23538822 -0.020523954 -0.1915088
0.08495276 -0.2577313 0.034760278 0.12613225 -0.112314776 -0.109398514 0.15982945 0.16191354
-0.27459893 -0.04853979 0.040794525 0.14481634 0.17904575 -0.26642978 -0.24475826 -0.24791595
0.05731868 0.1521343 0.02689113 -0.15094864 -0.2530165 -0.16415378 -0.07361245 -0.13006327
0.11320912 -0.056589283 0.058252513 -0.02884663 0.055417784 0.022774342 -0.118369855 -0.02798787
0.0049933917 -0.14583048 0.045184672 0.08239245 -0.12849645 -0.20120706 -0.032897282 0.5021555
0.107822 0.15147562 0.14164309 0.16293254 0.17923793 -0.014363399 -0.013582002 -0.092021726
-0.2127125 0.15402803 -0.060047448 -0.050306853 0.052058864 0.18575355 -0.16261822 -0.17999685
-0.14731225 -0.2506916 0.24776518 -0.017889384 -0.44346058 0.042206015 0.2257884 0.00092505093
-0.10059179 0.059425373 0.11734107 -0.14201227 -0.0059361113 0.3036041 0.0096635865 0.24662165
-0.14067194 0.18675132 0.018394323 -0.18748075 -0.19289339 -0.06225678 -0.1179683 -0.18015996
0.034181923 0.047278054 0.13670348 -0.22501966 -0.010834614 -0.008387463 0.021005716 -0.26532394
0.054618914 0.08971954 -0.1872615 -0.025905175 -0.30103794 -0.26229092 -0.016098382 0.21688028
0.29594284 0.29481414 0.1461023 -0.08938981 0.28252643 -0.037710946 -0.173517 -0.10336296
0.11897219 0.23822895 -0.04220357 -0.35590586 -0.25757062 -0.11172625 -0.26019198 -0.016773647
-0.078318745 -0.06826462 -0.3330843 -0.09425471 0.20966516 -0.09110517 0.22611332 -0.022150515
0.20341109 0.23318703 0.10054749 0.12130405 0.19653028 -0.06760684 -0.2762717 0.27292913
-0.063818 -0.22862801 0.114004865 0.20351215 -0.14918225 -0.13060692 -0.020959849 0.18937314
-0.30974403 -0.015245909 0.22795574 0.28051215 -0.10952423 0.0038506617 -0.3691978 0.082652606
00000000: e359 e23d ac08 693d 2d9f d33d 6c9c 30bd
00000010: ac21 48be c933 603e 8502 28bd c548 d93d
00000020: 1555 473e 34e0 98bd 68d1 10be 44e1 873d
00000030: 1d5c f9be 2d82 8ebe f8dc 8f3e f6de 043e
00000040: ab6b 8fbd e636 ccbd 60c0 b93d f066 373d
00000050: c9fc e93d a9a6 3dbe 5989 563e 04b1 f7bd
00000060: 3a92 bf3e 4630 eb3d 6198 91be 7180 2d3e
00000070: df38 313e 1a76 643e ee28 9a3d 65d6 eebd
00000080: abca acbd ca50 5b3e d5a3 c7bc 0a81 1c3e
00000090: 6650 0e3e a232 0dbe 18c3 b73d 54e0 313e
000000a0: c152 0fbe 5ce8 dabe f0cc fd3b 7c85 39be
000000b0: 5e9d 443d 9e4c 08bd c1a2 343d 603f 543d
000000c0: f8b2 353e d2f4 043e c5a3 30be ff72 313e
000000d0: 0698 343e 3064 91bd 5986 61bd 70f2 f4bc
000000e0: 651c 8abd 923c 0dbd 927c b7be 7e02 073e
000000f0: a3fc 06bd 71db 793e 3250 3cbd 840d 293e
00000100: 2178 4ebe 1bf7 193e 850f 90be 0820 ad3b
00000110: 5def 573e 8a52 cf3d 19a5 0cbe 4222 9c3d
00000120: 093a 53be cac9 563d 2a40 afbe 5dfc 23be
00000130: 6d72 a0be 04da c0bb 7a96 86be d23a 70bd
00000140: 2d3b 053e f4cd 643e c2cd 023e 110b c13e
00000150: 68e7 303e 6952 023e 32b6 3bbd 5383 b6bd
00000160: edc8 843e e1c5 023e 8b25 073e 958a 42be
00000170: cf04 17be cf8c cf3d 0765 90bd f096 a73e
00000180: bf0a 4c3d f040 d0be 4b63 263b 4e05 93be
00000190: d896 6dbe 1a33 33be f6b0 cb3d 3b76 803e
000001a0: 3fa8 413c f2e9 3abe 5c15 0dbe 86ea 19be
000001b0: 4d71 6c3e 9c09 71be da21 a8bc e21a 44be
000001c0: b6fb ad3d 5bf5 83be cb60 0e3d d028 013e
000001d0: 4a05 e6bd 540c e0bd 55aa 233e aacc 253e
000001e0: 3b98 8cbe a9d1 46bd 2918 273d bc4a 143e
000001f0: c557 373e 7c69 88be e9a1 7abe aedd 7dbe
00000200: fec6 6a3d 18c9 1b3e c94a dc3c 4892 1abe
00000210: 618b 81be ee17 28be 20c2 96bd 4e2f 05be
00000220: 2fda e73d 2aca 67bd 309a 6e3d c54f ecbc
00000230: c2fd 623d 4291 ba3c e56b f2bd d146 e5bc
00000240: 9b9f a33b 9654 15be 9013 393d 5fbd a83d
00000250: 9394 03be 3909 4ebe 4dbf 06bd 438d 003f
00000260: c8d1 dc3d 6d1c 1b3e e30a 113e cad7 263e
00000270: 268a 373e 7654 6bbc 0c87 5ebc e375 bcbd
00000280: 4ed1 59be 86b9 1d3e 50f4 75bd 8f0e 4ebd
00000290: ad3b 553d 2e36 3e3e 6485 26be 1851 38be
000002a0: 06d9 16be a65a 80be 28b6 7d3e c28c 92bc
000002b0: 440d e3be 37e0 2c3d 1335 673e 1e7f 723a
000002c0: 1203 cebd 0568 733d 8450 f03d aa6b 11be
000002d0: b683 c2bb ff71 9b3e 0554 1e3c 638a 7c3e
000002e0: 4e0c 10be bd3b 3f3e b1af 963c f4fa 3fbe
000002f0: d885 45be f700 7fbd 5d99 f1bd da7b 38be
00000300: 5802 0c3d a2a6 413d fffb 0b3e 8e6b 66be
00000310: aa83 31bc 926b 09bc 2e14 ac3c 8ad8 87be
00000320: 15b8 5f3d e1be b73d 7bc1 3fbe 1737 d4bc
00000330: a521 9abe ff4a 86be c1e0 83bc dd15 5e3e
00000340: d285 973e e1f1 963e d79b 153e 0112 b7bd
00000350: 4ea7 903e cb76 1abd 71ae 31be f6af d3bd
00000360: b1a7 f33d 4af2 733e a7dd 2cbd 4b39 b6be
00000370: 4ce0 83be bbd0 e4bd e237 85be e368 89bc
00000380: 9465 a0bd 52ce 8bbd 068a aabe 9d08 c1bd
00000390: 77b2 563e 5995 babd 408a 673e ff74 b5bc
000003a0: ff4a 503e 95c8 6e3e d8eb cd3d 426e f83d
000003b0: 3c3f 493e 7475 8abd 7c73 8dbe 5ebd 8b3e
000003c0: 03b3 82bd 761d 6abe 627b e93d 7d65 503e
000003d0: 3bc3 18be d2bd 05be fdb3 abbc 08eb 413e
000003e0: c596 9ebe fac9 79bc 3b6d 693e 4a9f 8f3e
000003f0: 3d4e e0bd 625b 7c3b 7e07 bdbe c545 a93d

fc1.bias f4 [50]
-0.119664505 -0.19434772 0.026649892 0.29663634 0.2574597 0.013408796 0.15938433 0.08916983
0.17880194 -0.07027569 -0.02974756 0.09165407 -0.2339402 0.12613884 -0.028644698 0.32511342
0.42459688 0.0131200375 0.052655566 -0.09090809 -0.25001347 0.0347722 -0.30763224 0.22016758
-0.008886959 -0.19973996 -0.27777985 0.3405389 -0.14968078 -0.20230594 0.06509535 0.25719216
0.095535785 -0.08817001 -0.051381744 -0.36009172 -0.13005681 -0.076315865 0.016518006 0.18394005
-0.04621146 -0.023075428 0.029030547 -0.0027652557 -0.0142552825 -0.33308426 0.23169845 -0.08832941
-0.33012345 0.23324978
00000000: aa12 f5bd 1703 47be e050 da3c b8e0 973e
00000010: c2d1 833e 91b0 5b3c a535 233e ac9e b63d
00000020: db17 373e b3ec 8fbd 28b1 f3bc 21b5 bb3d
00000030: 058e 6fbe 8a2a 013e 49a8 eabc 4475 a63e
00000040: c364 d93e 6df5 563c 5dad 573d 052e babd
00000050: c401 80be 4b6d 0e3d f981 9dbe 9c73 613e
00000060: 9c9a 11bc a288 4cbe 2939 8ebe 1d5b ae3e
00000070: eb45 19be 4a29 4fbe b650 853d b1ae 833e
00000080: 44a8 c33d 7a92 b4bd aa75 52bd f15d b8be
00000090: 9d2d 05be 7e4b 9cbd c550 873c c85a 3c3e
000000a0: 3a48 3dbd ae08 bdbc 78d1 ed3c 4b39 35bb
000000b0: fd8e 69bc 058a aabe 5c42 6d3e 0de6 b4bd
000000c0: f105 a9be 08d9 6e3e
