JEDInet_HLS_50p/model_1/IN_kFold_50/IN_sumO_bestmodel_50p.params (torch, 38895 bytes, 18 tensors)

fr1.weight f4 [50, 32]
-0.11639127 0.060248155 0.06985811 -0.08391094 -0.047896057 0.04413564 0.07550076 -0.03860356
0.29040608 0.1182213 0.008570113 0.042367697 -1.5913066 0.08964801 -0.17165437 0.06929
0.013258485 -0.19314791 0.09846484 -0.12352668 0.059221122 -0.07386983 0.08230065 -0.16828693
-0.13323402 -0.0072201374 -0.14245306 0.0017857496 -0.57723504 -0.17754705 -0.13042611 -0.039408688
0.048640236 -0.08027377 -0.035883307 -0.11697974 -0.25280008 -0.07903543 -0.3132745 -0.14715116
-0.18206796 0.055408135 0.016895536 0.09384665 1.507515 0.25050312 -0.03222724 -0.09039854
0.0034354057 0.06326916 0.07993439 0.07601835 -0.46118483 0.2184734 -0.43081167 -0.048766255
0.3784629 -0.081771106 -0.015452366 -0.07327085 1.1165936 -0.8544844 0.001670305 -0.15714069
-0.051771853 -0.07265519 -0.016776167 0.06663744 0.10965577 -0.018226963 0.0795709 -0.029154206
-0.25393355 0.17126495 0.08446075 -0.14814916 -0.22949073 -0.9402202 0.1198515 0.14360799
-0.026401853 0.054328058 -0.016151221 -0.02505071 0.2850864 -0.051714644 0.17273958 0.1769546
0.20955017 0.058610417 -0.06444293 0.23401332 -0.8251012 0.21984653 0.15620385 0.2918002
0.042006303 0.0739903 0.0029707341 -0.10999871 -0.21667092 0.09129522 -0.01691555 0.05526526
0.1723064 0.016329445 -0.23560683 -0.27344242 -0.19165082 1.3569387 0.060629044 -0.05612998
0.045274094 0.12783758 -0.055808675 -0.08942439 0.047335483 -0.16369933 0.028734075 -0.08479537
0.18759274 -0.096381 -0.12973185 0.025107518 0.340795 -0.5415684 -0.17061217 -0.10528484
-0.1298592 0.07238475 0.14220427 -0.14550367 -0.072851345 0.008117932 0.18882798 0.15209241
0.2622221 -0.16306564 -0.09076512 -0.24858761 -0.1766188 0.63350224 0.09119335 -0.19474825
0.07660402 -0.09680398 -0.027500805 0.03343208 0.32222703 -0.065011784 0.14762774 -0.010911966
0.1896465 0.1770277 0.09805547 0.23239674 -0.025263356 0.37633124 -0.16613467 0.20680885
-0.100823544 -0.15218487 0.0062146867 0.002536939 0.038981393 -0.15601102 0.10631545 0.15565628
-0.058549557 -0.21990916 0.12715827 -0.36229715 0.76773685 -1.1898555 -0.021062681 -0.13522135
-0.0790985 0.007895235 0.16728349 -0.12557721 0.10090158 -0.1427806 -0.025128309 0.34988427
-0.05070463 -0.045456544 0.19009085 -0.22296375 0.33507532 -0.13364342 0.03304868 -0.18711478
0.087315 -0.026596142 0.10407827 0.06047497 0.11049907 0.05738643 0.20826606 -0.13006371
0.003450812 -0.42191172 0.070827484 -0.17209367 2.8893738 -0.94986784 -0.054758053 -0.31322274
-0.0004903259 -0.045212872 -0.038519815 0.020679615 -0.07473985 0.12972279 -0.11937126 -0.0121519575
0.04825288 -0.044198345 -0.032181233 0.24311881 -0.014146923 0.060774222 0.13030516 0.022180336
-0.04809438 0.0012282118 0.011731266 0.059478886 -0.35612807 -0.069057055 -0.38610208 0.13406609
-0.37253872 -0.10098125 0.12519035 -0.18693395 -0.8800925 -0.67960507 -0.028649658 -0.10600911
-0.010927771 -0.086933225 -0.03623773 -0.0046121026 -0.3884838 0.179599 -0.51640505 0.12133665
-0.156315 -0.0877691 -0.11788773 -0.064767525 -0.24350283 -1.002368 0.122542515 0.09467282
00000000: 8c5e eebd c5c6 763d c511 8f3d 80d9 abbd
00000010: a82e 44bd 93c7 343d 24a0 9a3d c41e 1ebd
00000020: 1bb0 943e 021e f23d a969 0c3c c089 2d3d
00000030: efaf cbbf 6099 b73d 2ac6 2fbe eae7 8d3d
00000040: 1e3a 593c 91c8 45be efa7 c93d 8efb fcbd
00000050: d991 723d 1149 97bd 3e8d a83d 6953 2cbe
00000060: 806e 08be e796 ecbb 37df 11be d00f ea3a
00000070: adc5 13bf e5ce 35be 6c8e 05be 016b 21bd
00000080: fc3a 473d 9366 a4bd 60fa 12bd 1393 efbd
00000090: 036f 81be 54dd a1bd 8465 a0be cbae 16be
000000a0: 0670 3abe a4f3 623d 8268 8a3c ac32 c03d
000000b0: 40f6 c03f f241 803e b600 04bd df22 b9bd
000000c0: 8b24 613b 4393 813d a4b4 a33d 82af 9b3d
000000d0: 6b20 ecbe 7eb7 5f3e 5993 dcbe 20bf 47bd
000000e0: e4c5 c13e 9c77 a7bd ec2b 7dbc 070f 96bd
000000f0: 8aec 8e3f 7dbf 5abf 23ee da3a 7de9 20be
00000100: b90e 54bd 3fcc 94bd 2c6e 89bc 3679 883d
00000110: 3493 e03d b650 95bc 11f6 a23d cdd4 eebc
00000120: 9403 82be 1460 2f3e c2f9 ac3d 6ab4 17be
00000130: 9eff 6abe 45b2 70bf b474 f53d f90d 133e
00000140: b348 d8bc 1987 5e3d 914f 84bc 2637 cdbc
00000150: d8f6 913e bcd2 53bd a5e2 303e 9633 353e
00000160: 5294 563e 7a11 703d a8fa 83bd 30a1 6f3e
00000170: d539 53bf 731f 613e e7f3 1f3e d666 953e
00000180: cd0e 2c3d 3a88 973d a6b0 423b 0147 e1bd
00000190: fbde 5dbe fdf8 ba3d 7b92 8abc d35d 623d
000001a0: 1771 303e 54c5 853c eb42 71be a500 8cbe
000001b0: 1d40 44be 2bb0 ad3f 2956 783d 8de8 65bd
000001c0: 5471 393d dbe7 023e a397 64bd 2224 b7bd
000001d0: dae2 413d cca0 27be b963 eb3c 32a9 adbd
000001e0: 5018 403e 6763 c5bd 6dd8 04be 48ae cd3c
000001f0: af7c ae3e 3aa4 0abf f5b4 2ebe 949f d7bd
00000200: cff9 04be 753e 943d ff9d 113e eafe 14be
00000210: 1633 95bd 1301 053c 1f5c 413e 1dbe 1b3e
00000220: fa41 863e aefa 26be 10e3 b9bd c08d 7ebe
00000230: 8fdb 34be 342d 223f 94c3 ba3d 166c 47be
00000240: 92e2 9c3d 2a41 c6bd 5e49 e1bc 14f0 083d
00000250: f1fa a43e e624 85bd ba2b 173e 1ac8 32bc
00000260: b132 423e c046 353e 4ed1 c83d 69f9 6d3e
00000270: 19f5 cebc 7dae c03e 351f 2abe b3c5 533e
00000280: 937c cebd 5ad6 1bbe 92a4 cb3b c642 263b
00000290: f4aa 1f3d 5ac1 1fbe eabb d93d 5c64 1f3e
000002a0: a9d1 6fbd de2f 61be c735 023e 037f b9be
000002b0: 678a 443f 2f4d 98bf a58b acbc 7777 0abe
000002c0: 65fe a1bd 045b 013c 5d4c 2b3e 5097 00be
000002d0: 7da5 ce3d 1435 12be e2d9 cdbc 0824 b33e
000002e0: a8af 4fbd a430 3abd 2da7 423e 9c50 64be
000002f0: fe8e ab3e d2d9 08be 0d5e 073d 049b 3fbe
00000300: 35d2 b23d 27e0 d9bc fd26 d53d 9ab4 773d
00000310: 564d e23d 090e 6b3d b343 553e 6c2f 05be
00000320: 0527 623b d004 d8be 000e 913d 5339 30be
00000330: 80eb 3840 8a2a 73bf fb49 60bd bb5e a0be
00000340: 3789 00ba 2231 39bd f4c6 1dbd 4c68 a93c
00000350: 3511 99bd 0dd6 043e eb78 f4bd 0119 47bc
00000360: d0a4 453d 5309 35bd 78d0 03bd 23f4 783e
00000370: 7fc8 67bc 64ee 783d b76e 053e 89b3 b53c
00000380: 9dfe 44bd f3fb a03a 7f34 403c 22a0 733d
00000390: 6b56 b6be c96d 8dbd 2caf c5be 9f48 093e
000003a0: 65bd bebe 42cf cebd e631 003e 9d6b 3fbe
000003b0: be4d 61bf 99fa 2dbf b0b2 eabc 4e1b d9bd
000003c0: 650a 33bc 0c0a b2bd 046e 14bd 1f21 97bb
000003d0: 59e7 c6be cde8 373e 1f33 04bf 597f f83d
000003e0: 0a11 20be 49c0 b3bd 1f6f f1bd d6a4 84bd
000003f0: ce58 79be 984d 80bf 92f7 fa3d d3e3 c13d

fr1.bias f4 [50]
0.04997112 -0.18531574 0.3175246 0.23422125 0.003639963 0.00010059397 0.098306075 -0.324116
0.17510511 -0.29875353 -0.19402146 0.03320705 -0.009202049 -0.009379954 0.2836734 0.11112999
0.10524692 0.3088007 0.17121974 0.21933627 -0.06219916 0.11645899 -0.25958666 -0.13458714
0.02519666 0.18867415 0.115465574 -0.21159229 -0.24732246 -0.19076604 -0.12797868 0.2873736
0.056593515 0.33331397 0.09384478 -0.22040983 -0.07460948 0.20184302 0.012297374 0.14291841
0.0018358555 0.2406166 -0.12135391 0.043445818 0.0081578875 0.019369923 -0.34492254 0.07982138
-0.049624857 0.30810952
00000000: 84ae 4c3d 69c3 3dbe 9692 a23e b2d7 6f3e
00000010: 728c 6e3b faf5 d238 b254 c93d 88f2 a5be
00000020: c14e 333e 39f6 98be 90ad 46be 1e04 083d
00000030: 31c4 16bc 61ae 19bc a43d 913e 1f98 e33d
00000040: b28b d73d 201b 9e3e 3a54 2f3e b099 603e
00000050: 8cc4 7ebd 0d82 ee3d 8be8 84be 36d1 09be
00000060: 3a69 ce3c cc33 413e 3779 ec3d a6ab 58be
00000070: 1942 7dbe 2c58 43be d80c 03be a222 933e
00000080: 9ace 673d 21a8 aa3e b131 c03d 1db3 61be
00000090: dbcc 98bd f0af 4e3e ed7a 493c 3459 123e
000000a0: 17a1 f03a 3364 763e 6688 f8bd 3ef4 313d
000000b0: a9a8 053c acad 9e3c b099 b0be 6479 a33d
000000c0: 6f43 4bbd 88c0 9d3e

fr2.weight f4 [25, 50]
-0.03622669 -0.110644974 0.017431226 0.027978089 0.05757203 0.044407133 -0.023479957 -0.022602562
-0.045162387 0.009150598 -0.029698147 0.072689116 -0.041645367 -0.03298189 -0.08766466 0.0081414515
-0.124805294 -0.038017415 0.02585399 0.039636422 0.030213589 0.04414632 0.20115215 0.10461479
-0.15212691 0.09457836 -0.023787742 0.07862735 -0.041282993 0.12188723 0.06919644 -0.05344498
0.16580246 -0.034516074 -0.005241696 0.007383899 -0.09854443 0.05162348 -0.022448268 -0.21073744
0.048283327 -0.012128878 0.16227975 -0.0128186615 0.018487243 -0.011796184 0.13704863 -0.093665406
0.16565873 -0.05323704 -0.12196815 0.10480508 -0.24821049 0.111332 0.098877415 -0.08082553
-0.091158256 0.075314805 0.055754848 -0.106881075 0.004385504 -0.07880466 -0.16507149 -0.10803265
-0.14526363 0.46784765 0.0608879 0.037079204 0.0008503564 0.056142733 -0.046185147 0.0053768125
0.107349195 0.029040636 -0.030509064 0.059007965 0.15200375 -0.04483072 -0.24610762 -0.102164775
0.020478139 -0.07956199 -0.022288263 0.07712114 -0.19673775 -0.070329934 -0.0047950777 0.3098473
-0.059376255 -0.0034803767 -0.030568326 0.20748399 0.11298884 0.09402831 0.17947267 0.17022923
-0.11128912 -0.104391925 -0.13524716 0.10141792 -0.09989598 0.1518256 -0.08357979 0.083407775
0.029407207 -0.07071541 0.14434563 -0.048414018 -0.020103171 -0.19204246 -0.10789852 -0.049583107
-0.24620035 -0.02030583 -0.063841775 0.32296404 0.07634731 0.040298104 -0.17763911 0.014502829
-0.07340391 -0.120836094 0.09528411 -0.06721808 0.004918919 0.06304019 0.121290535 -0.08717326
-0.06583123 0.0139486035 0.06943565 0.15157737 0.093120016 0.0011365296 -0.21848896 -0.13900696
-0.10525642 0.17027918 0.12630439 0.04069826 0.006354475 0.10979632 0.080365196 0.09986205
0.19859855 0.013000697 -0.061078772 -0.08044973 0.008875154 -0.11602142 -0.06965755 -0.035271514
0.11737143 0.04031961 -0.006545968 0.1517606 0.1302225 -0.010786155 0.1551354 -0.16150488
-0.012240048 0.0045356154 0.12433206 0.013824909 -0.045109216 -0.011743177 0.05132039 -0.0015578119
-0.023159532 -0.3266913 0.043473184 -0.2749798 -0.18850961 -0.05288115 0.09296953 -0.27814794
-0.10257434 0.037235312 -0.08165049 -0.14951585 0.13249116 0.026406951 -0.03235732 -0.11030087
0.023710879 -0.15739353 0.0016090934 0.022532206 -0.13047376 0.1385752 0.06405857 -0.0009864876
0.064094044 -0.053149622 0.08896633 -0.20210336 0.07407513 -0.06615081 -0.24452159 0.044013362
-0.11937486 -0.067349225 -0.014117551 -0.1085434 -0.14575003 0.04340049 0.07090645 -0.07672502
-0.06986799 -0.1487631 -0.19111122 -0.0063620866 0.057620943 0.020552292 0.09655259 0.008666116
0.123242445 -0.074600056 -0.01565736 0.29842564 -0.06737677 -0.05906541 -0.17887501 0.006824459
0.15024705 0.003336466 0.024048446 -0.052206054 -0.04864755 -0.14887074 -0.09067887 0.083915204
0.038655933 -0.050207872 0.084169514 0.04617177 0.045063153 -0.026020434 -0.03255749 0.0823641
0.084088735 -0.12125876 -0.08121798 0.09023668 0.07256623 0.13558136 -0.16467538 -0.10384751
-0.054377593 0.17591454 0.14191975 -0.24014226 0.13432372 0.010044944 0.2328981 0.10271641
00000000: 7062 14bd d599 e2bd eecb 8e3c 4e32 e53c
00000010: a6d0 6b3d 41e4 353d 0a59 c0bc 0229 b9bc
00000020: 32fc 38bd 64ec 153c 8749 f3bc 08de 943d
00000030: 5594 2abd 0518 07bd 8789 b3bd b963 053c
00000040: eb99 ffbd 26b8 1bbd bfcb d33c cd59 223d
00000050: 7d82 f73c c6d2 343d d4fa 4d3e 4740 d63d
00000060: 28c7 1bbe 4db2 c13d 83de c2bc 6007 a13d
00000070: 5b18 29bd 03a0 f93d ddb6 8d3d 20e9 5abd
00000080: 1fc8 293e ba60 0dbd 88c2 abbb a2f4 f13b
00000090: aad1 c9bd 2473 533d 6ee5 b7bc 8ecb 57be
000000a0: bdc4 453d 34b8 46bc aa2c 263e 5d05 52bc
000000b0: 8f72 973c c844 41bc 7a56 0c3e a6d3 bfbd
000000c0: 71a2 293e 150f 5abd 70ca f9bd 0ca4 d63d
000000d0: e42a 7ebe 0802 e43d 3e80 ca3d db87 a5bd
000000e0: 2eb1 babd a63e 9a3d 325f 643d 77e4 dabd
000000f0: 46b4 8f3b 5664 a1bd 8008 29be 3940 ddbd
00000100: fdbf 14be ba89 ef3e 9765 793d 5de0 173d
00000110: 74ea 5e3a ecf5 653d a32c 3dbd f92f b03b
00000120: e5d9 db3d a1e6 ed3c 25ee f9bc 56b2 713d
00000130: dfa6 1b3e 6ba0 37bd a303 7cbe c43b d1bd
00000140: c5c1 a73c 66f1 a2bd e095 b6bc b0f1 9d3d
00000150: 9f75 49be 2409 90bd 0720 9dbb 4ea4 9e3e
00000160: 8434 73bd 0817 64bb 6d6a fabc af76 543e
00000170: b166 e73d ea91 c03d afc7 373e 9250 2e3e
00000180: 8deb e3bd 6fcb d5bd 3b7e 0abe 33b4 cf3d
00000190: 4396 ccbd 2c78 1b3e e22b abbd b2d1 aa3d
000001a0: 62e7 f03c 3ed3 90bd 57cf 133e c74d 46bd
000001b0: 68af a4bc c7a6 44be e6f9 dcbd a817 4bbd
000001c0: f21b 7cbe 6958 a6bc 7abf 82bd 8b5b a53e
000001d0: fa5b 9c3d a00f 253d 07e7 35be 469d 6d3c
000001e0: ca54 96bd ea78 f7bd 5124 c33d a2a9 89bd
000001f0: e22e a13b 371b 813d 2c67 f83d e587 b2bd
00000200: 86d2 86bd af88 643c 4734 8e3d 1937 1b3e
00000210: b5b5 be3d 9bf7 943a 92bb 5fbe d757 0ebe
00000220: ae90 d7bd aa5d 2e3e f055 013e 38b3 263d
00000230: 3339 d03b e5dc e03d 8296 a43d 7984 cc3d
00000240: 6b5d 4b3e e000 553c bc2d 7abd d4c2 a4bd
00000250: 1869 113c a39c edbd 9ea8 8ebd dd78 10bd
00000260: 6f60 f03d 2d26 253d 8f7f d6bb 2167 1b3e
00000270: 0c59 053e 6ab8 30bc d0db 1e3e 8961 25be
00000280: 7b8a 48bc 809f 943b cfa1 fe3d df81 623c
00000290: 71c4 38bd 7466 40bc 5435 523d 7e2f ccba
000002a0: 0fb9 bdbc 1544 a7be f010 323d 27ca 8cbe
000002b0: aa08 41be e899 58bd cf66 be3d 6869 8ebe
000002c0: 7f12 d2bd 0e84 183d 5f38 a7bd af1a 19be
000002d0: c3ab 073e 6453 d83c 1c89 04bd 6ce5 e1bd
000002e0: 513d c23c c52b 21be 37e8 d23a 7695 b83c
000002f0: ea9a 05be a8e6 0d3e 2431 833d 084d 81ba
00000300: bd43 833d 6bb3 59bd fb33 b63d 2ff4 4ebe
00000310: b4b4 973d 137a 87bd de63 7abe 5b47 343d
00000320: ce7a f4bd 64ee 89bd 4d4d 67bc 014c debd
00000330: 7f3f 15be b6c4 313d 6737 913d 0222 9dbd
00000340: f316 8fbd 5b55 18be a9b2 43be 0d79 d0bb
00000350: f003 6c3d 485d a83c 5dbd c53d 53fc 0d3c
00000360: 8966 fc3d eac7 98bd dd43 80bc 3fcb 983e
00000370: d5fc 89bd 92ee 71bd 032b 37be b69f df3b
00000380: 5dda 193e 9ca8 5a3b 3f01 c53c 04d6 55bd
00000390: a742 47bd 9271 18be d8b5 b9bd bcdb ab3d
000003a0: af55 1e3d c5a6 4dbd 1161 ac3d 9c1e 3d3d
000003b0: 2494 383d ce28 d5bc 015b 05bd 82ae a83d
000003c0: b736 ac3d 8356 f8bd 9d55 a6bd 02ce b83d
000003d0: 9b9d 943d d7d5 0a3e aaa0 28be 01ae d4bd
000003e0: 0abb 5ebd f122 343e 6953 113e dae7 75be
000003f0: 288c 093e 8c93 243c d77c 6e3e fb5c d23d

fr2.bias f4 [25]
0.15923342 0.068959385 0.14777397 0.17912264 0.20410225 -0.10127483 0.21117526 0.16564149
0.10129579 -0.013191499 -0.20873004 -0.15825687 -0.35522452 0.00807547 -0.35790777 0.016657384
-0.003074599 0.18497649 0.041754913 -0.110008985 0.06984728 0.1163178 0.12435617 0.05435397
-0.11937158
00000000: 160e 233e 943a 8d3d 0f52 173e ed6b 373e
00000010: 2e00 513e 2e69 cfbd 543e 583e ec9d 293e
00000020: 2b74 cf3d 2821 58bc 54bd 55be 170e 22be
00000030: fddf b5be fa4e 043c b03f b7be 1175 883c
00000040: 367f 49bb 7a6a 3d3e 3307 2b3d 644c e1bd
00000050: 170c 8f3d 0738 ee3d 73ae fe3d 45a2 5e3d
00000060: 1679 f4bd

fr3.weight f4 [12, 25]
-0.09496848 0.004392367 0.092812814 0.15996361 0.0417778 0.0010370456 -0.0032361476 0.07293771
0.075227626 0.26050907 -0.057375766 -0.13519722 -0.058516987 0.001236477 -0.07766605 0.07325008
0.011686988 -0.037544943 -0.07875195 0.10626622 0.05127429 -0.04251523 0.068380386 -0.08098036
0.07538164 -0.115744986 0.0810972 0.09440717 0.15250589 0.0041068457 -0.32408643 -0.08749855
0.2842553 -0.08969316 -0.13487056 0.0322887 -0.0031520785 -0.030822864 0.079922326 0.1046483
-0.017737431 0.10247628 0.0020553027 0.22564451 0.0005080126 0.019540558 -0.087483466 -0.07866435
0.23625322 0.04891188 -0.00295499 -0.20281954 -0.007825951 -0.09042968 0.029088622 -0.17979549
0.021684496 0.35113356 0.009743325 0.0070689167 -0.17606829 0.24451627 0.0138760675 0.07117392
-0.025671838 0.046734422 -0.06572739 0.12504119 0.23079146 -0.02548301 0.037460174 -0.07984215
-0.26126927 0.43961158 0.020000005 -0.15698905 0.023077883 -0.08582311 0.09699547 0.03835488
0.18552656 0.33265442 -0.037359387 0.079437785 0.018235441 0.033509612 -0.059811585 0.07546172
0.11029309 0.16037048 -0.07920913 -0.016161475 -0.084303394 -0.04161535 -0.054321233 -0.16432701
0.30936602 0.08388256 -0.006536443 0.117547415 0.044291098 -0.04714121 -0.2953442 0.044884857
-0.0022354969 0.10037114 0.15041542 -0.28506845 0.02143922 -0.028815018 -0.09087889 -0.18548366
-0.060644943 0.122670874 -0.019824238 -0.037853755 -0.07791575 0.057649244 -0.056770284 -0.051612478
0.009730002 -0.009552831 0.035438355 -0.053269472 -0.09480915 0.08178306 -0.37113115 0.30206892
-0.15444599 -0.0017250037 -0.05145201 -0.00189897 0.14300725 -0.16587044 0.068985954 -0.23182692
0.043210458 0.15033549 -0.07975131 -0.060960736 0.23642536 0.03269505 -0.046315465 -0.096966736
0.15644497 -0.059589766 -0.21610405 0.0017675271 0.34677896 -0.096647434 -0.15626802 0.14690645
-0.04707442 0.113488525 -0.004147189 0.15538716 -0.17022644 -0.084560186 -0.06032703 -0.04539531
0.02602668 -0.01475528 -0.052180097 0.11764694 0.16032727 -0.0040198523 0.157485 -0.09657787
0.056703214 0.115069576 0.0050742067 -0.15587714 0.04050351 0.30110273 -0.048505116 0.0683399
0.036988754 0.20775615 -0.0317519 0.08731226 -0.023872895 -0.19392414 0.1386009 -0.22826754
0.13857025 0.08066253 -0.15087782 0.07217261 -0.057570018 -0.017678145 0.30725694 0.18519208
-0.1960685 0.14573692 0.13365088 -0.12229154 0.10962199 -0.08667249 -0.08260569 -0.072380304
-0.06582694 -0.10837619 0.054067805 -0.137545 0.036083523 -0.024010861 0.12965788 -0.07476297
-0.323732 -0.077017 0.09363585 -0.029712595 0.13252322 -0.039384693 -0.05487948 -0.107166275
-0.013995768 0.055943128 0.009441271 0.12333295 0.15334913 -0.07760813 0.11362257 -0.21006696
-0.13387024 0.16651616 -0.3182362 -0.47819063 -0.1300823 -0.064662024 0.22403012 -0.13138415
-0.36680114 0.032940924 -0.121970974 -0.044338595 0.015417036 0.111541174 -0.14321728 0.21687295
-0.016785523 -0.03635133 -0.1014734 -0.15574245 0.122763425 -0.14851722 0.128944 0.06948403
-0.02845258 -0.07932069 0.16598384 0.26117674 -0.21853615 -0.18783252 0.010332413 -0.11904747
00000000: d67e c2bd d8ed 8f3b a514 be3d 80cd 233e
00000010: 331f 2b3d 7aed 873a 8c15 54bb 5e60 953d
00000020: f110 9a3d 7261 853e da02 6bbd 2471 0abe
00000030: 82af 6fbd 4911 a23a 610f 9fbd 2304 963d
00000040: c87a 3f3c bac8 19bd b448 a1bd 1ba2 d93d
00000050: fd04 523d 7324 2ebd 040b 8c3d 08d9 a5bd
00000060: b061 9a3d b50b edbd 4a16 a63d 8c58 c13d
00000070: 812a 1c3e b892 863b a8ee a5be 7132 b3bd
00000080: e989 913e 0cb1 b7bd 821b 0abe 2841 043d
00000090: 1a93 4ebb 3b80 fcbc 51ae a33d d951 d63d
000000a0: 174e 91bc 15df d13d 42b2 063b 5b0f 673e
000000b0: 262c 053a 8513 a03c 882a b3bd c61a a1bd
000000c0: 5dec 713e d357 483d 81a8 41bb edaf 4fbe
000000d0: 6b38 00bc 3233 b9bd 434b ee3c 4f1c 38be
000000e0: afa3 b13c c7c7 b33e 78a2 1f3c 5fa2 e73b
000000f0: 3f4b 34be 7962 7a3e 7258 633c a2c3 913d
00000100: bf4d d2bc 986c 3f3d 159c 86bd cc0a 003e
00000110: 9954 6c3e bfc1 d0bc d76f 193d 4884 a3bd
00000120: 16c5 85be c514 e13e 0dd7 a33c bdc1 20be
00000130: d40d bd3c 07c4 afbd 90a5 c63d 021a 1d3d
00000140: adfa 3d3e ae51 aa3e 2806 19bd 47b0 a23d
00000150: 7e62 953c 6041 093d fefc 74bd ad8b 9a3d
00000160: 58e1 e13d 2938 243e 6538 a2bd 1265 84bc
00000170: 42a7 acbd db74 2abd f17f 5ebd 5745 28be
00000180: 3965 9e3e 9fca ab3d a82f d6bb b3bc f03d
00000190: 956a 353d 2417 41bd 5b37 97be 2fd9 373d
000001a0: 6a81 12bb 628f cd3d 8006 1a3e 7ef4 91be
000001b0: 4ea1 af3c 790d ecbc b61e babd 6eef 3dbe
000001c0: d566 78bd de3a fb3d 7166 a2bc 8a0c 1bbd
000001d0: 4b92 9fbd 9d21 6c3d f587 68bd 9b67 53bd
000001e0: 966a 1f3c 7a83 1cbc cf27 113d 1731 5abd
000001f0: 4d2b c2bd e17d a73d e704 bebe c7a8 9a3e
00000200: 1727 1ebe 8519 e2ba 58bf 52bd dce6 f8ba
00000210: 7e70 123e f1d9 29be 8248 8d3d 0964 6dbe
00000220: 73fd 303d 8cf1 193e a854 a3bd f7b1 79bd
00000230: 7d19 723e 3feb 053d 49b5 3dbd 7f96 c6bd
00000240: 1c33 203e 6614 74bd 614a 5dbe 5eac e73a
00000250: 038d b13e 17ef c5bd b904 20be a56e 163e
00000260: 1bd1 40bd ac6c e83d 25e5 87bb d01d 1f3e
00000270: d74f 2ebe e42d adbd 7a19 77bd 6ff0 39bd
00000280: e735 d53c 21c0 71bc ccba 55bd e1f0 f03d
00000290: d52c 243e f7b8 83bb bf43 213e 9eca c5bd
000002a0: a141 683d 99a9 eb3d 8845 a63b 429e 1fbe
000002b0: 02e7 253d 232a 9a3e 4dad 46bd caf5 8b3d
000002c0: 8581 173d 07be 543e 480e 02bd c5d0 b23d
000002d0: 1791 c3bc 0d94 46be 65ed 0d3e f7be 69be
000002e0: 5ce5 0d3e 6632 a53d b77f 1abe 3ccf 933d
000002f0: 8ace 6bbd c2d1 90bc c850 9d3e fea2 3d3e
00000300: 2ec6 48be 0f3c 153e c7db 083e fd73 fabd
00000310: 7e81 e03d 5981 b1bd 2c2d a9bd 203c 94bd
00000320: 46d0 86bd 56f4 ddbd 3476 5d3d 99d8 0cbe
00000330: 51cc 133d 6db2 c4bc 09c5 043e 541d 99bd
00000340: 33c0 a5be 17bb 9dbd 27c4 bf3d d467 f3bc
00000350: 2bb4 073e d851 21bd 4ec9 60bd fe79 dbbd
00000360: 814e 65bc 9f24 653d 90af 1a3c fc95 fc3d
00000370: 8e07 1d3e 03f1 9ebd f3b2 e83d cb1b 57be
00000380: 4815 09be 3683 2a3e dbef a2be 67d5 f4be
00000390: 4b34 05be 866d 84bd 2768 653e 9189 06be
000003a0: 5ccd bbbe 10ed 063d ebcb f9bd 639c 35bd
000003b0: bc97 7c3c b36f e43d 8da7 12be f113 5e3e
000003c0: cb81 89bc 22e5 14bd 49d1 cfbd f37a 1fbe
000003d0: 646b fb3d e614 18be e509 043e a54d 8e3d
000003e0: 6315 e9bc e372 a2bd abf7 293e f5b8 853e
000003f0: f1c7 5fbe 2b57 40be 4849 293c 29cf f3bd

fr3.bias f4 [12]
0.27937654 -0.46011183 0.106524765 0.07131954 0.46242008 -0.13558437 0.121926345 0.16712143
-0.20744537 -0.16128986 0.17820136 0.10451418
00000000: 710a 8f3e c793 ebbe a829 da3d fb0f 923d
00000010: 53c2 ec3e a1d6 0abe 85b4 f93d e121 2b3e
00000020: 8f6c 54be 2b29 25be 6b7a 363e 880b d63d

fo1.weight f4 [50, 28]
0.087653376 0.025764946 -0.11784684 0.104883306 -0.1664491 0.055688202 -0.17368096 -0.08044657
0.07194178 -0.2533874 -0.03240473 0.005127678 -1.6017641 2.6940906 0.13531882 -0.09964319
0.15566126 0.13996913 0.08342036 -0.0040102783 -0.26552638 -0.058308776 0.11573409 -0.15420559
0.19871229 -0.04071892 -0.08518029 -0.15208647 -0.07738879 0.06098703 -0.025088169 0.10216494
0.097012654 -0.042053748 -0.09813892 -0.07669238 -0.05819471 -0.014733953 -0.18059123 -0.0012318905
-1.2108372 2.4311001 0.13684429 -0.21624142 0.08707485 0.059852876 0.09499514 0.05431995
-0.22344065 -0.012959592 0.0063234232 -0.0079326425 -0.20343915 0.2291129 -0.026676917 0.12010938
-0.025618885 0.08768941 0.068058856 -0.34997892 -0.4430644 -0.50720066 -0.22729701 0.07756602
-0.029654523 0.12221182 -0.08939458 0.23506492 0.48517755 0.12772529 -0.22886758 0.087891296
0.20359685 0.009085434 -0.0026329893 -0.4670937 -0.17945331 -0.11634413 0.079410635 0.027359959
-0.022028454 -0.17894714 -0.045309745 0.22664547 0.023561198 -0.044691365 -0.016496643 -0.0059350156
-0.02317041 -0.08555844 -0.2560621 -0.23116504 -0.49354583 -0.06483728 0.031045705 0.17586905
-0.6975734 -0.34396034 -0.14244403 -0.32826465 0.038767774 -0.053132948 -0.2525303 -0.36538368
-0.035366725 -0.43949768 -0.031189257 0.09108947 0.14940919 0.19179292 -0.07142831 -0.13008063
0.090781674 0.22125018 -0.16240865 -0.1465879 0.2883595 -0.13425872 0.2629072 -0.09640999
-0.31155846 0.18043976 0.24899824 -0.16250265 -0.031081729 1.2155012 0.057423078 0.028777765
-0.08801192 -0.019844273 0.09345453 -0.14493175 -0.08131315 0.0043903543 -0.03468171 0.0531705
0.11771735 0.050609443 -0.25934592 -0.16934514 0.08643329 -0.03906537 -0.046047106 -0.13950525
0.19351685 -0.05689794 0.14678192 0.027515216 0.09469978 0.0859269 0.11289463 -0.05008223
-0.05438222 -1.6608427 0.033245098 0.14384437 0.1278917 -0.0030290592 0.09464926 0.2080463
0.2676829 -0.10847114 0.018179864 -0.021443719 0.020926274 0.15865351 -0.012885319 -0.088508
0.02414887 -0.031974718 0.086689174 0.10570059 0.13080275 -0.074499294 0.101206094 0.2334607
0.107185796 -0.0021598008 -0.06063408 -0.030428667 2.7401674 -2.9034362 0.2741011 0.055912197
-0.08761574 0.10784526 0.16738267 0.034460045 0.03010002 -0.1254309 0.060929306 0.093919925
-0.11996914 -0.07195088 0.050160002 -0.10512957 0.043362286 -0.050967075 -0.032503013 0.01343456
0.17833759 0.020337524 0.0014639585 -0.010889363 -0.32004926 0.09152053 0.04460751 0.048059925
1.688445 -2.1806746 -0.04734459 0.14071068 0.105778486 0.007817782 -0.077062905 0.04758677
0.0052056 0.007930746 0.1556937 0.10522424 0.07077998 -0.07312606 0.12419682 -0.046969675
-0.11412815 0.08874504 -0.11766243 -0.028109878 0.04952696 -0.07928792 -0.14183937 -0.0257156
-0.015064441 -0.57773817 0.07594228 -0.19456127 -1.750419 1.8300384 0.17493439 -0.48916382
-0.08822896 0.103354186 -0.15020117 -0.06862151 -0.2821281 -0.08544455 0.08463384 0.114745475
0.092887945 0.11689028 -0.09084214 -0.08764084 0.01559025 -0.086807735 0.03520417 -0.13641758
00000000: 9d83 b33d 0211 d33c af59 f1bd 0fcd d63d
00000010: a271 2abe 5019 643d 6cd9 31be 2cc1 a4bd
00000020: 3656 933d febb 81be d2ba 04bd 1506 a83b
00000030: 9b06 cdbf fb6b 2c40 0491 0a3e bb11 ccbd
00000040: aa65 1f3e 1154 0f3e 4bd8 aa3d a768 83bb
00000050: 13f3 87be 2fd5 6ebd ff05 ed3d 12e8 1dbe
00000060: 3c7b 4b3e e2c8 26bd 0173 aebd 8ebc 1bbe
00000070: 047e 9ebd 89cd 793d b485 cdbc da3b d13d
00000080: 92ae c63d 8d40 2cbd 0ffd c8bd e510 9dbd
00000090: 945d 6ebd ae66 71bc e8ec 38be 6377 a1ba
000000a0: b7fc 9abf 2597 1b40 e920 0c3e 646e 5dbe
000000b0: 4d54 b23d 4a28 753d d08c c23d 997e 5e3d
000000c0: a0cd 64be 7854 54bc b834 cf3b eaf7 01bc
000000d0: 5a52 50be 929c 6a3e 8d89 dabc e8fb f53d
000000e0: b2de d1bc 8196 b33d 7162 8b3d 7030 b3be
000000f0: 56d9 e2be e7d7 01bf 8cc0 68be efda 9e3d
00000100: 0bee f2bc 314a fa3d 8114 b7bd dcb4 703e
00000110: 3169 f83e 6bca 023e 435c 6abe 5a00 b43d
00000120: b17b 503e 12db 143c 3b8e 2cbb e826 efbe
00000130: 9cc2 37be d545 eebd 0ba2 a23d fe21 e03c
00000140: 0475 b4bc eb3d 37be b696 39bd c015 683e
00000150: 6a03 c13c 4b0e 37bd f823 87bc 857a c2bb
00000160: dfcf bdbc 4339 afbd 921a 83be 87b6 6cbe
00000170: 0ab2 fcbe 68c9 84bd 9053 fe3c 0417 343e
00000180: 2c94 32bf 921b b0be d9dc 11be 4e12 a8be
00000190: f5ca 1e3d efa1 59bd a74b 81be 9213 bbbe
000001a0: b3dc 10bd d705 e1be 9d80 ffbc 1e8d ba3d
000001b0: b9fe 183e 5d65 443e 0149 92bd db33 05be
000001c0: beeb b93d 688f 623e 744e 26be 231b 16be
000001d0: dba3 933e 1e7b 09be c69b 863e 9a72 c5bd
000001e0: 9784 9fbe 33c5 383e 65f9 7e3e 1867 26be
000001f0: 1c9f febc 8b95 9b3f 7634 6b3d 59bf eb3c
00000200: 983f b4bd 7590 a2bc 1765 bf3d fd68 14be
00000210: 8287 a6bd f6dc 8f3b 690e 0ebd 4fc9 593d
00000220: cb15 f13d d94b 4f3d fdc8 84be d068 2dbe
00000230: f003 b13d 0203 20bd e49b 3cbd 77da 0ebe
00000240: 4829 463e d00d 69bd 004e 163e 9767 e13c
00000250: f5f1 c13d 71fa af3d 4d35 e73d 0623 4dbd
00000260: e4bf 5ebd 7e96 d4bf 032c 083d f04b 133e
00000270: 0bf6 023e 2e83 46bb 79d7 c13d 170a 553e
00000280: bc0d 893e 1e26 debd f0ed 943c bdaa afbc
00000290: 946d ab3c 1176 223e f21c 53bc af43 b5bd
000002a0: dad3 c53c ecf7 02bd 188a b13d 8d79 d83d
000002b0: 28f1 053e 1693 98bd 2445 cf3d 5210 6f3e
000002c0: 3a84 db3d 728b 0dbb 715b 78bd 8a45 f9bc
000002d0: e75e 2f40 e6d1 39c0 fb56 8c3e 3004 653d
000002e0: e26f b3bd fadd dc3d 5d66 2b3e fa25 0d3d
000002f0: 5194 f63c f570 00be 0291 793d 1759 c03d
00000300: 61b2 f5bd fc5a 93bd 9374 4d3d 2c4e d7bd
00000310: a79c 313d dac2 50bd e121 05bd a11c 5c3c
00000320: 219e 363e e19a a63c 4ce2 bf3a 4c69 32bc
00000330: 7fdd a3be 1e6f bb3d 5db6 363d 7cda 443d
00000340: f71e d83f 2c90 0bc0 67ec 41bd 7616 103e
00000350: 64a2 d83d 2816 003c 28d3 9dbd 58ea 423d
00000360: bd93 aa3b f6ef 013c 2b6e 1f3e ce7f d73d
00000370: 18f5 903d 1ec3 95bd e75a fe3d 4663 40bd
00000380: 05bc e9bd f6bf b53d 00f9 f0bd b046 e6bc
00000390: c8dc 4a3d b461 a2bd 573e 11be 86a9 d2bc
000003a0: d8d0 76bc a6e6 13bf a087 9b3d 123b 47be
000003b0: bb0d e0bf b33e ea3f 0022 333e ae73 fabe
000003c0: 63b1 b4bd 5cab d33d 56ce 19be 6f89 8cbd
000003d0: 1873 90be 8dfd aebd 8254 ad3d adff ea3d
000003e0: 093c be3d 2c64 ef3d 720b babd 0a7d b3bd
000003f0: 3f6e 7f3c 41c8 b1bd 3f32 103d 0db1 0bbe

fo1.bias f4 [50]
-0.023736898 -0.26255292 -0.07858367 -0.116010055 -0.020986414 0.20541218 0.12855491 0.050649453
0.019433433 0.15342383 -0.109371044 -0.04674296 0.24635008 -0.30047315 0.071631685 -0.08837548
0.24575035 -0.1949817 0.2131992 0.11874154 -0.1500728 -0.0036685308 -0.07781567 -0.063125186
-0.20520942 -0.012920106 -0.11577595 -0.15689221 -0.08388889 0.1567299 0.25484315 0.13792494
-0.24348125 -0.16291189 -0.08046224 -0.20637244 -0.040944118 -0.04496714 -0.04158211 -0.36283624
-0.041016497 -0.12856159 0.07787611 -0.14150506 -0.14403339 -0.012097479 0.07283342 -0.10157867
-0.08040315 0.09761192
00000000: e273 c2bc 566d 86be 7af0 a0bd ae96 edbd
00000010: b3eb abbc 9257 523e e6a3 033e cd75 4f3d
00000020: dd32 9f3c 231b 1d3e edfd dfbd 8c75 3fbd
00000030: 3243 7c3e 9ed7 99be a2b3 923d 34fe b4bd
00000040: fba5 7b3e 48a9 47be e450 5a3e c42e f33d
00000050: afac 19be bc6b 70bb d25d 9fbd c747 81bd
00000060: 6b22 52be daae 53bc f11b edbd 5aa8 20be
00000070: f0cd abbd ce7d 203e cd7a 823e 323c 0d3e
00000080: 2653 79be 60d2 26be 63c9 a4bd 4c53 53be
00000090: 05b5 27bd 772f 38bd 0152 2abd acc5 b9be
000000a0: ea00 28bd a6a5 03be 837d 9f3d b4e6 10be
000000b0: 7d7d 13be 8134 46bc b029 953d 7a08 d0bd
000000c0: 68aa a4bd c2e8 c73d

fo2.weight f4 [25, 50]
-0.11512435 0.050831676 0.08941715 0.02907465 -0.0745627 0.011968522 0.06243542 -0.027416768
0.023531133 -0.054614164 -0.07073137 -0.092643954 -0.017245978 -0.14230235 -0.063688196 0.018902253
-0.038548917 0.0928185 -0.02603888 -0.009513712 -0.108599365 0.06243694 0.1238276 0.036942035
-0.15588339 -0.14918336 0.045794643 -0.1260984 0.03136943 0.030969735 0.10380589 -0.15828241
0.11687359 -0.12078876 -0.087309584 0.003753496 -0.10260171 -0.14890574 -0.018184708 0.031641215
-0.018117053 0.00058717455 0.052953035 0.1086466 -0.12105987 0.040232003 -0.0715518 0.096867636
0.070780024 -0.025910202 -0.07274901 -0.034802593 -0.12756181 -0.12579344 0.03484914 -0.01763776
0.014956403 -0.060293455 -0.114019305 -0.021277213 0.011789642 -0.04212736 -0.0027669605 0.027893487
-0.046559833 0.11838091 0.007483906 0.08132389 -0.032632735 -0.014987626 -0.20512055 0.06160353
0.07537262 0.07960813 0.098543935 0.0687293 -0.046827327 -0.106846355 0.078689754 0.04150016
0.1030603 0.0066413623 -0.15453327 -0.05374707 -0.047492445 0.01850478 -0.028088886 0.09002213
-0.028036883 0.04100153 0.15430951 0.02662626 0.06215155 -0.15502109 -0.112855196 -0.11026063
0.009063124 -0.029074114 -0.10973027 0.020364206 -0.115692884 0.02848551 0.06444341 -0.022144051
-0.026280006 -0.06905943 -0.1452052 0.09136332 0.092666484 0.035902068 -0.09975657 0.022257475
0.033101648 -0.010003863 -0.15238506 -0.07401731 -0.15495229 -0.08825232 -0.16803567 -0.1360618
-0.061934747 0.14766058 0.099601634 -0.06032235 -0.10756056 -0.091073304 0.018615734 0.057612322
-0.05366318 -0.0065980125 -0.022172807 0.07956742 0.06974282 0.0028760962 0.022461724 -0.055672433
0.04028393 -0.1555672 0.0777764 -0.121712685 -0.114907056 0.03329905 0.1382039 -0.09463529
-0.03408416 -0.06734051 -0.01084023 0.032043613 -0.009391795 -0.057435326 -0.12456136 0.110173956
-0.039798994 0.319552 0.055844754 -0.089553185 0.044815913 -0.08284884 -0.12992238 -0.18506454
0.116415896 0.054977182 -0.09198617 0.14708348 -0.0047248867 0.049842194 0.14372097 -0.025551373
-0.072140835 -0.0073261745 0.040979426 -0.071992815 0.03863941 0.14613795 -0.06210778 0.06338757
0.05851143 -0.020580588 0.16543394 -0.0067564836 0.058151145 -0.05134473 0.18554723 0.03747879
0.035606302 -0.12356235 0.021920368 0.022999654 -0.07886301 -0.1495993 -0.04728778 0.03560742
0.14682636 0.037500672 0.11851077 -0.0076065552 -0.013598419 0.061928693 -0.07057742 -0.047682337
-0.0320965 0.032594744 -0.07629633 0.07836225 0.040845595 0.03409859 -0.096817955 -0.079468615
0.011697988 -0.094874345 -0.046336316 0.14203574 -0.16570167 -0.02849717 -0.11013672 0.15087776
0.083971046 -0.11252712 -0.08713198 -0.046905074 0.057900004 -0.054065514 0.042057503 -0.20556115
0.12256316 -0.019682983 0.085834 0.11681049 -0.07853531 -0.0921121 -0.069473885 -0.1395813
-0.10807518 0.061949495 0.15630259 0.06019188 0.14108592 -0.036227852 -0.045721613 0.116812274
0.0073825703 0.019305004 -0.09360583 0.09602596 0.13327423 -0.08588303 -0.05016896 0.013880269
-0.022369996 0.032472514 0.0624509 0.10951475 -0.48402283 -0.15063603 -0.10228228 -0.13271776
00000000: 51c6 ebbd e034 503d 5720 b73d f62d ee3c
00000010: 54b4 98bd 9f17 443c 48bc 7f3d 2199 e0bc
00000020: 5dc4 c03c 1ab3 5fbd 9cdb 90bd 1dbc bdbd
00000030: 7047 8dbc b5b7 11be f56e 82bd e6d8 9a3c
00000040: 78e5 1dbd a017 be3d 7d4f d5bc 66df 1bbc
00000050: 5869 debd e0bd 7f3d 5399 fd3d 8850 173d
00000060: e59f 1fbe 86c3 18be 2a93 3b3d f01f 01be
00000070: 3b7d 003d 3eb4 fd3c 2f98 d43d c914 22be
00000080: 6c5b ef3d 1960 f7bd 5ecf b2bd 37fd 753b
00000090: d820 d2bd bf7a 18be 19f8 94bc 389a 013d
000000a0: 376a 94bc 9eec 193a 48e5 583d 1c82 de3d
000000b0: 3dee f7bd 50ca 243d c089 92bd 8a62 c63d
000000c0: 1ef5 903d a241 d4bc 6ffd 94bd 2a8d 0ebd
000000d0: 909f 02be ffcf 00be f9bd 0e3d 107d 90bc
000000e0: b30b 753c 45f6 76bd f482 e9bd 8d4d aebc
000000f0: 5829 413c bd8d 2cbd e555 35bb e280 e43c
00000100: 86b5 3ebd b171 f23d 8e3b f53b 248d a63d
00000110: e7a9 05bd a98e 75bc 1f0b 52be fc53 7c3d
00000120: f65c 9a3d 9609 a33d 67d1 c93d f2c1 8c3d
00000130: 03ce 3fbd 43d2 dabd 1828 a13d 12fc 293d
00000140: 4711 d33d c99f d93b f83d 1ebe e325 5cbd
00000150: 7087 42bd 5697 973c aa1a e6bc 865d b83d
00000160: 9bad e5bc 38f1 273d 5003 1e3e 501f da3c
00000170: a092 7e3d d9bd 1ebe a020 e7bd 53d0 e1bd
00000180: 7f7d 143c d62c eebc 44ba e0bd d6d2 a63c
00000190: 64f0 ecbd 725a e93c e8fa 833d 7167 b5bc
000001a0: 2b49 d7bc 086f 8dbd acb0 14be b11c bb3d
000001b0: edc7 bd3d 0c0e 133d 2c4d ccbd 4f55 b63c
000001c0: 9895 073d 3ee7 23bc d40a 1cbe 6396 97bd
000001d0: d0ab 1ebe a2bd b4bd 8b11 2cbe c953 0bbe
000001e0: 4aaf 7dbd 5634 173e f1fb cb3d 9214 77bd
000001f0: b648 dcbd a484 babd 0680 983c e6fa 6b3d
00000200: eccd 5bbd 2434 d8bb bfa3 b5bc 3ef4 a23d
00000210: 53d5 8e3d e37c 3c3b a601 b83c c708 64bd
00000220: c300 253d 024d 1fbe 3c49 9f3d 8044 f9bd
00000230: 6454 ebbd 9664 083d 5385 0d3e 26d0 c1bd
00000240: d59b 0bbd d2e9 89bd 389b 31bc 2a40 033d
00000250: 0be0 19bc 4e41 6bbd 071a ffbd e2a2 e13d
00000260: 4504 23bd 529c a33e 78bd 643d a967 b7bd
00000270: e490 373d a7ac a9bd 5f0a 05be 8f81 3dbe
00000280: 756b ee3d c12f 613d 3f63 bcbd 0d9d 163e
00000290: 39d3 9abb 5427 4c3d 972b 133e 1d51 d1bc
000002a0: 93be 93bd 6810 f0bb 0bda 273d f870 93bd
000002b0: 5c44 1e3d 30a5 153e ba64 7ebd 58d1 813d
000002c0: aea9 6f3d 9f98 a8bc 8467 293e 7e65 ddbb
000002d0: e52f 6e3d da4e 52bd 1800 3e3e 5c83 193d
000002e0: ead7 113d 420e fdbd 5892 b33c c569 bc3c
000002f0: ee82 a1bd 8f30 19be d5b0 41bd 16d9 113d
00000300: a659 163e 4e9a 193d c6b5 f23d 6940 f9bb
00000310: e7cb 5ebc f1a8 7d3d e58a 90bd 8e4e 43bd
00000320: 9f77 03bd 1182 053d 4041 9cbd 637c a03d
00000330: b64d 273d f7aa 0b3d 7e48 c6bd 71c0 a2bd
00000340: eba8 3f3c 7b4d c2bd 26cb 3dbd d171 113e
00000350: b3ad 29be e672 e9bc 5c8f e1bd b37f 1a3e
00000360: 03f9 ab3d 9e74 e6bd 4072 b2bd 891f 40bd
00000370: 8e28 6d3d cd73 5dbd 7d44 2c3d 9f7e 52be
00000380: 6502 fb3d 353e a1bc bcc9 af3d 573a ef3d
00000390: 1fd7 a0bd 45a5 bcbd 5348 8ebd 66ee 0ebe
000003a0: 8556 ddbd c1be 7d3d c90d 203e c38b 763d
000003b0: d478 103e a863 14bd 9646 3bbd 463b ef3d
000003c0: 7de9 f13b 8725 9e3c 6ab4 bfbd 42a9 c43d
000003d0: 0a79 083e 71e3 afbd f87d 4dbd 116a 633c
000003e0: 4841 b7bc e601 053d 84cc 7f3d 4549 e03d
000003f0: d7d1 f7be 5540 1abe 5f79 d1bd 2ae7 07be

fo2.bias f4 [25]
0.06813698 -0.039989084 -0.13316882 0.061517596 -0.15933959 -0.52943 -0.03233143 0.06428772
0.22148277 -0.12197209 0.22843082 -0.027148958 -0.094325 -0.079257205 -0.21673003 -0.5360359
0.27597645 0.007620133 -0.062575124 -0.402898 0.111122735 0.1243773 -0.9562034 0.10834393
-0.20385262
00000000: 678b 8b3d 98cb 23bd 685d 08be e0f9 7b3d
00000010: eb29 23be b988 07bf f66d 04bd 48a9 833d
00000020: 61cc 623e 81cc f9bd c5e9 693e 7e67 debc
00000030: 772d c1bd 9a51 a2bd 7aee 5dbe a639 09bf
00000040: c94c 8d3e 4fb2 f93b 6327 80bd a648 cebe
00000050: 5194 e33d 87b9 fe3d bfc9 74bf 6ce3 dd3d
00000060: bebe 50be

fo3.weight f4 [14, 25]
0.07543061 0.006310339 -0.16602363 -0.34768397 0.09744827 0.014574107 0.052895904 -0.19007765
-0.18607461 0.27132502 -0.17191848 -0.15307449 0.22552375 -0.07535002 -0.49718246 -0.022695601
0.12577683 0.07939465 0.0004029282 -0.22283597 -0.20191577 -0.32844928 -0.12559256 -0.15439749
0.16577977 -0.12652971 -0.07562355 0.18990657 0.09138317 0.16254994 -0.49476117 -0.2816927
0.0889302 0.026655745 -0.11896015 -0.24553244 -0.15610106 0.10128997 -0.0032672638 -0.12682614
-0.17121165 0.031585164 -0.058663826 -0.15070438 -0.19509058 -0.037496928 0.04128102 -0.08382267
-0.09605013 -0.054093752 0.13468416 0.038721498 0.027746022 0.028175639 0.21526794 0.24643409
0.2190079 -0.059924167 -0.06394644 0.11319034 -0.1994328 -0.15009952 0.059905693 -0.13872394
-0.17681707 -0.088759124 0.088815495 0.2847803 0.0022070946 -0.1408904 -0.040121336 -0.24703552
0.07091309 -0.20532916 -0.06609263 0.13295995 0.0625225 0.17494668 -0.05915758 -0.040308367
0.29607272 -0.07651394 0.010612533 0.14296567 0.0075786705 0.086653024 0.16910775 -0.10055581
0.02679679 -0.19650745 0.040139433 0.17681456 0.06731554 -0.0037944755 -0.41348374 0.16516507
-0.18523729 0.20915882 0.04899085 -0.11544046 0.031558063 0.185158 0.0642055 -0.17227373
-0.030336203 -0.20664617 0.06882426 -0.12988229 0.1615813 0.10822846 0.12926021 -0.017116852
0.10162832 -0.16156921 -0.18324135 -0.10602415 0.041949887 0.13634486 0.069121584 0.1469306
-0.08266802 -0.100999065 -0.15307991 -0.09647035 0.007073293 -0.13604523 0.21868268 0.16152398
0.104395576 0.058605734 0.24288876 -0.1415185 -0.14756195 0.13153052 0.012894233 -0.27377883
0.17096661 -0.075115375 0.08591 -0.03870197 -0.094640724 -0.09099483 -0.2183345 -0.039422225
-0.19020705 0.32583696 -0.20007953 -0.019459032 0.16741677 -0.049942046 0.22668153 0.23771314
0.099215485 -0.1735638 0.1159973 -0.13242005 -0.10946982 0.06208357 0.011521774 0.079872504
-0.08245599 0.018518114 0.120042756 -0.20232178 0.10226296 -0.162287 -0.09660288 -0.0048472886
-0.015832111 0.18173559 -0.018781161 0.055554137 -0.20693247 -0.07181507 0.06653628 -0.055915587
-0.025341218 0.1274665 -0.013807097 -0.10524862 -0.008039749 -0.1832238 -0.07660579 -0.016616149
-0.33467 -0.02779113 0.016239103 -0.11708639 -0.15329915 0.26951063 -0.01997224 0.016023945
0.1246716 -0.13392021 -0.2937746 0.12989756 0.017889509 0.004595655 0.080812335 0.09065593
0.030480962 -0.11214777 0.10908483 0.077604316 0.2598138 -0.060458463 0.034792546 0.111744314
-0.02667711 0.11086532 -0.2014374 0.035900187 -0.0016041276 -0.06728103 0.06707197 -0.010222798
-0.06127722 0.05631741 0.16846393 -0.23535182 -0.13406342 -0.1381454 0.080845624 -0.114342466
-0.10695263 -0.004342492 -0.06493743 0.020131128 0.07625355 0.022403209 -0.037916444 0.09354008
0.018522833 -0.112935185 -0.13207303 0.124372505 -0.1554735 -0.0066797915 0.066197366 0.04562702
0.0594143 0.016293488 -0.0067874305 0.11683594 -0.18852139 0.0118699055 -0.2731771 -0.038894024
0.04899838 -0.2947266 -0.0618164 -0.0128362905 -0.09231309 -0.098744646 0.18685311 0.4751794
00000000: 5d7b 9a3d f6c6 ce3b 1902 2abe a203 b2be
00000010: f592 c73d 3cc8 6e3c 60a9 583d b7a3 42be
00000020: 588a 3ebe 1deb 8a3e 660b 30be 8fbf 1cbe
00000030: b3ef 663e 1c51 9abd b38e febe 20ec b9bc
00000040: a4cb 003e aa99 a23d 1c40 d339 1d2f 64be
00000050: 02c3 4ebe 812a a8be 569b 00be 601a 1ebe
00000060: 2cc2 293e 0191 01be 85e0 9abd de76 423e
00000070: 1927 bb3d 7e73 263e 5651 fdbe 073a 90be
00000080: 0921 b63d 265d da3c 61a1 f3bd db6c 7bbe
00000090: f5d8 1fbe 1e71 cf3d 971f 56bb b6de 01be
000000a0: 1b52 2fbe 725f 013d 7b49 70bd 4052 1abe
000000b0: d3c5 47be 6196 19bd 4916 293d 38ab abbd
000000c0: eeb5 c4bd 6991 5dbd a5ea 093e 6f9a 1e3d
000000d0: a04b e33c 99d0 e63c 336f 5c3e 3859 7c3e
000000e0: 9b43 603e 0b73 75bd 5af6 82bd 56d0 e73d
000000f0: 1d38 4cbe b0b3 19be ac5f 753d a60d 0ebe
00000100: 890f 35be 58c7 b5bd e6e4 b53d b9ce 913e
00000110: e7a4 103b 9345 10be 4556 24bd e1f6 7cbe
00000120: e23a 913d cf41 52be 935b 87bd a726 083e
00000130: cc0b 803d 3925 333e 384f 72bd 631a 25bd
00000140: d896 973e 57b3 9cbd 31e0 2d3c 9865 123e
00000150: 7f56 f83b 2477 b13d 952a 2d3e 34f0 cdbd
00000160: f184 db3c 4039 49be 3f69 243d e00e 353e
00000170: bbdc 893d bcac 78bb 24b4 d3be 0821 293e
00000180: d8ae 3dbe bb2d 563e a1aa 483d 0c6c ecbd
00000190: 0743 013d 0f9a 3d3e 2c7e 833d 8668 30be
000001a0: a183 f8bc 0e9b 53be bcf3 8c3d ddff 04be
000001b0: 9175 253e e2a6 dd3d ca5c 043e a438 8cbc
000001c0: 8222 d03d 6672 25be 9fa3 3bbe 3123 d9bd
000001d0: a5d3 2b3d fd9d 0b3e 9e8f 8d3d fa74 163e
000001e0: da4d a9bd 99d8 cebd fbc0 1cbe 3f92 c5bd
000001f0: 15c7 e73b 714f 0bbe 5aee 5f3e 8b66 253e
00000200: 59cd d53d 910c 703d d5b7 783e 3aea 10be
00000210: 7b1a 17be f0af 063e 5542 533c bd2c 8cbe
00000220: df11 2f3e 17d6 99bd 95f1 af3d f585 1ebd
00000230: ffd2 c1bd 7f5b babd 1493 5fbe 3379 21bd
00000240: a3c5 42be 1ad4 a63e a6e1 4cbe 8c68 9fbc
00000250: 4d6f 2b3e 0890 4cbd 341f 683e 136b 733e
00000260: 7d31 cb3d b5ba 31be fe8f ed3d 1f99 07be
00000270: b731 e0bd 574b 7e3d d3c5 3c3c 3294 a33d
00000280: b0de a8bd 4db3 973c fad8 f53d 712d 4fbe
00000290: 3e6f d13d 902e 26be bbd7 c5bd 01d6 9ebb
000002a0: 58b2 81bc e518 3a3e f3da 99bc bc8c 633d
000002b0: 1be6 53be c813 93bd 2c44 883d be07 65bd
000002c0: 6398 cfbc 9486 023e 2a37 62bc 978c d7bd
000002d0: 27b9 03bc 059f 3bbe 7fe3 9cbd 971e 88bc
000002e0: de59 abbe 39aa e3bc de07 853c fdca efbd
000002f0: 74fa 1cbe 4cfd 893e d39c a3bc a644 833c
00000300: d353 ff3d 6122 09be a069 96be de03 053e
00000310: 058d 923c 2697 963b f080 a53d d1a9 b93d
00000320: 36b3 f93c bbad e5bd de67 df3d 03ef 9e3d
00000330: 5006 853e 4ba3 77bd a182 0e3d 34da e43d
00000340: f489 dabc 5b0d e33d 9b45 4ebe 130c 133d
00000350: 9741 d2ba a3ca 89bd 075d 893d 867d 27bc
00000360: d2fd 7abd 16ad 663d cf81 2c3e 1100 71be
00000370: ec47 09be fd75 0dbe 6492 a53d 622c eabd
00000380: fb09 dbbd 774b 8ebb eafd 84bd 09ea a43c
00000390: d22a 9c3d ef86 b73c 464e 1bbd f191 bf3d
000003a0: 32bd 973c 904a e7bd 273e 07be 03b7 fe3d
000003b0: 7234 1fbe 27e2 dabb 7c92 873d 66e3 3a3d
000003c0: 695c 733d ec79 853c 1869 debb ae47 ef3d
000003d0: c00b 41be fe79 423c dedd 8bbe 574f 1fbd
000003e0: 86b2 483d 68e6 96be 3233 7dbd 4e4f 52bc
000003f0: a50e bdbd a23a cabd 6c56 3f3e b74a f33e

fo3.bias f4 [14]
-0.23726673 0.00542116 -0.13473411 0.2374598 0.1941746 -0.1608568 0.093101345 0.33424458
-0.09801024 0.14328818 -0.15099995 0.11265421 -0.27529505 0.059767857
00000000: 0df6 72be fca3 b13b bdf7 09be a928 733e
00000010: b5d5 463e a5b7 24be ebab be3d 1b22 ab3e
00000020: 98b9 c8bd 23ba 123e bb9f 1abe 40b7 e63d
00000030: 79f3 8cbe 24cf 743d

fc1.weight f4 [50, 14]
-0.02133796 0.16815148 -0.0947019 0.014055065 -0.21240947 -0.029893331 -0.063830316 -0.20367466
0.024594424 0.0471384 -0.056886047 -0.31990933 0.21141727 0.18269062 -0.5924533 0.29583833
-0.27822638 -0.16177441 -0.05984597 0.09575447 -0.06436101 -0.039049897 -0.25729054 -0.020037206
-0.10853754 -0.1413759 0.037177622 -0.015601378 -0.10479469 0.27232492 0.05966409 -0.20609452
0.16720396 0.13216004 -0.21306832 0.08205434 0.069250345 -0.100135304 0.064044826 -0.1835352
-0.08968918 0.1235784 0.07328048 -0.17355804 0.31976318 0.22713065 -0.16853385 0.12137502
0.19300511 -0.19003214 0.2818384 0.24716483 -0.21596846 -0.13378774 0.06016744 0.23273408
0.15477408 0.21335214 -0.15879723 0.11945885 0.08550181 0.08600188 0.105758995 -0.31859478
-0.1941634 -0.24053101 0.29429075 0.29463175 -0.16709054 -0.105539985 -0.047943395 0.18509404
0.19873299 0.13811967 -0.20129359 0.090730585 0.053146124 -0.22053085 0.1556243 -0.13202293
-0.2042463 -0.5968933 -0.16343372 0.023360126 0.034056474 0.22062284 -0.30067694 0.036638517
-0.07987119 -0.12369735 0.029981948 0.27239975 0.03451997 0.031026319 0.30012935 -0.13648152
-0.32837737 -0.08992254 0.36664972 -0.023528092 -0.18864872 -0.04341469 -0.1423201 0.08879109
0.27147508 -0.16466027 -0.17592002 0.10131769 0.22306666 0.05271314 -0.022442825 0.124499634
0.25472373 0.033964835 -0.15008827 0.09349194 0.24896221 0.008833011 -0.019125728 0.036517818
0.13899025 0.07257664 0.014934374 0.10703473 -0.10607014 -0.042936713 0.010237805 0.17691942
-0.5010024 0.1307644 -0.13795608 -0.11491703 -0.06918453 -0.3216652 -0.47400996 -0.20825288
0.1333245 0.25345495 0.10702985 0.10049569 0.009876952 0.11751224 -0.2969606 -0.40833604
0.10117188 0.15735586 -0.1265955 0.08570617 -0.39384404 0.07730566 -0.23639944 0.20533796
-0.10181486 0.07076102 0.03013237 -0.06864087 -0.011569005 0.20411438 0.05721833 0.036110178
-0.29506725 0.26126978 -0.126193 -0.057713427 0.053107332 -0.2008496 -0.12397657 0.20278662
0.12326652 0.15509446 -0.17041123 -0.22336617 -0.24287874 0.17706805 0.09782163 -0.13363527
-0.00477016 -0.27039352 -0.012694941 0.31609997 0.17975882 -0.05549735 0.14697629 -0.31046155
0.31414223 -0.10187155 -0.10741326 0.17465626 0.2211025 -0.63345975 -0.14420326 -0.06919271
0.117380455 -0.12496041 -0.13282478 -0.3388532 0.24673395 0.14867027 0.13326538 -0.24671902
-0.25938475 0.0591115 0.11230347 -0.0893479 -0.10144468 -0.3147248 0.098046415 -0.06901293
0.29682064 -0.18722482 -0.70485663 -0.036737856 -0.57681733 -0.28353572 0.24344006 -0.027417742
-0.10978675 -0.23352456 0.073772 0.059479553 0.16381687 -0.107895225 0.050109874 -0.030160528
-0.11647968 -0.09434897 0.014919409 0.1282995 0.13034232 0.03454086 0.20144685 0.12750015
0.13278732 0.09963281 -0.09525026 0.27218813 0.11406376 -0.26404247 -0.10176416 -0.25426972
-0.0042566806 0.24859662 0.20072916 -0.04463265 -0.2553623 -0.10155295 0.10056094 -0.21956047
-0.09879455 -0.09288954 -0.14788537 0.03177343 -0.1702138 -0.13368048 -0.028796608 0.16879587
00000000: f2cc aebc e72f 2c3e 12f3 c1bd 3747 663c
00000010: de81 59be dce2 f4bc 78b9 82bd 1790 50be
00000020: 3f7a c93c 3214 413d 5801 69bd 28cb a3be
00000030: c57d 583e 4013 3b3e 05ab 17bf 1f78 973e
00000040: b073 8ebe 31a8 25be 0c21 75bd eb1a c43d
00000050: b5cf 83bd c9f2 1fbd 96bb 83be 1125 a4bc
00000060: ee48 debd d8c4 10be 9047 183d ec9c 7fbc
00000070: 999e d6bd 2c6e 8b3e 5562 743d 710a 53be
00000080: 8437 2b3e f654 073e 952e 5abe 1b0c a83d
00000090: 20d3 8d3d bd13 cdbd ef29 833d a7f0 3bbe
000000a0: f6ae b7bd ac16 fd3d 1414 963d 33b9 31be
000000b0: 00b8 a33e f094 683e 2394 2cbe 7793 f83d
000000c0: 22a3 453e c997 42be 1f4d 903e c718 7d3e
000000d0: d626 5dbe a7ff 08be 2272 763d d851 6e3e
000000e0: 197d 1e3e fc78 5a3e be9b 22be d7a6 f43d
000000f0: 931b af3d c121 b03d 2c98 d83d db1e a3be
00000100: c5d2 46be c34d 76be 47ad 963e f9d9 963e
00000110: c819 2bbe 5925 d8bd 4b60 44bd 4b89 3d3e
00000120: a980 4b3e 3e6f 0d3e e81f 4ebe f5d0 b93d
00000130: c0af 593d d7d2 61be fa5b 1f3e 0531 07be
00000140: f125 51be 00ce 18bf 2b5b 27be bc5d bf3c
00000150: cd7e 0b3d f4ea 613e 54f2 99be 4512 163d
00000160: 8293 a3bd 0955 fdbd b49c f53c fb77 8b3e
00000170: d064 0d3d e82a fe3c 8eaa 993e d0c1 0bbe
00000180: 1421 a8be 4f29 b8bd 83b9 bb3e fcbd c0bc
00000190: 212d 41be 9ad3 31bd 5cbc 11be 1ad8 b53d
000001a0: c8fe 8a3e b49c 28be 6124 34be a67f cf3d
000001b0: 966b 643e bce9 573d 04da b7bc aaf9 fe3d
000001c0: 266b 823e b61e 0b3d bdb0 19be b478 bf3d
000001d0: f3ef 7e3e 55b8 103c 8fad 9cbc b593 153d
000001e0: 7653 0e3e 10a3 943d 4eaf 743c 0635 db3d
000001f0: 4d3b d9bd 68de 2fbd 77bc 273c 5d2a 353e
00000200: b141 00bf 1ae7 053e 5c44 0dbe 9f59 ebbd
00000210: 9eb0 8dbd 4db1 a4be 6fb1 f2be 3e40 55be
00000220: 3886 083e d9c4 813e 7732 db3d afd0 cd3d
00000230: f0d2 213c 42aa f03d 380b 98be 6c11 d1be
00000240: 3433 cf3d e521 213e 40a2 01be b786 af3d
00000250: eda5 c9be 6e52 9e3d b212 72be 1d44 523e
00000260: 4f84 d0bd 27eb 903d 29d8 f63c 9693 8cbd
00000270: ed8b 3dbc 5c03 513e c55d 6a3d 44e8 133d
00000280: 0e13 97be 27c5 853e bd38 01be ea64 6cbd
00000290: 1387 593d 84ab 4dbe 6ee7 fdbd 4ca7 4f3e
000002a0: 2873 fc3d 15d1 1e3e 4880 2ebe 1aba 64be
000002b0: 34b5 78be 5451 353e b556 c83d afd7 08be
000002c0: 014f 9cbb 0571 8abe 71fe 4fbc dbd7 a13e
000002d0: b212 383e 3051 63bd f480 163e d1f4 9ebe
000002e0: 40d7 a03e 08a2 d0bd 7cfb dbbd 17d9 323e
000002f0: b268 623e 6b2a 22bf 05aa 13be e8b4 8dbd
00000300: 2a65 f03d 3eeb ffbd 3803 08be 2b7e adbe
00000310: d3a7 7c3e 053d 183e b876 083e e9a3 7cbe
00000320: 14ce 84be e61e 723d 5dff e53d 08fc b6bd
00000330: 3ac2 cfbd 9c23 a1be 8fcc c83d a756 8dbd
00000340: e0f8 973e ddb7 3fbe 7c71 34bf 6f7a 16bd
00000350: 4daa 13bf 982b 91be 5a48 793e 2c9b e0bc
00000360: e0d7 e0bd 1021 6fbe c615 973d d5a0 733d
00000370: 9cbf 273e 2cf8 dcbd 0340 4d3d 3613 f7bc
00000380: e68c eebd 083a c1bd 8970 743c f260 033e
00000390: 7578 053e b87a 0d3d 1548 4e3e 668f 023e
000003a0: 66f9 073e 490c cc3d 9112 c3bd 3e5c 8b3e
000003b0: 439a e93d 9330 87be ba69 d0bd a42f 82be
000003c0: a07b 8bbb 1d90 7e3e f28b 4d3e bad0 36bd
000003d0: d9be 82be fefa cfbd e5f2 cd3d 76d4 60be
000003e0: cc54 cabd df3c bebd 436f 17be db24 023d
000003f0: 874c 2ebe 89e3 08be dde6 ebbc d3d8 2c3e

fc1.bias f4 [50]
0.089019716 0.0601014 -0.28197145 -0.30136448 -0.19108196 -0.20252264 -0.13840935 0.061261274
-0.090145625 -0.11411316 0.3320328 0.010701833 0.1766534 -0.26616088 -0.0669718 -0.046475567
-0.051699113 0.18595822 -0.19762088 -0.04782109 -0.103870794 0.059102207 0.1831704 -0.19078371
0.05386636 0.076271735 0.28456318 0.015417668 -0.07333755 0.1034401 -0.11355697 -0.1306368
0.061468467 -0.19741519 -0.22273663 0.078014165 0.26616818 0.003948428 0.3750038 -0.20589477
-0.2526864 0.3191248 0.38617146 0.1665882 0.45398676 -0.16771694 -0.055059716 0.14086296
-0.01908545 -0.025115633
00000000: f84f b63d e32c 763d 905e 90be 724c 9abe
00000010: fdaa 43be 1862 4fbe 2ebb 0dbe 1aed 7a3d
00000020: 459e b8bd 29b4 e9bd 3400 aa3e be56 2f3c
00000030: a1e4 343e 3d46 88be 8328 89bd 2a5d 3ebd
00000040: 73c2 53bd d56b 3e3e 215d 4abe 0ce0 43bd
00000050: 36ba d4bd 2815 723d 0591 3b3e ce5c 43be
00000060: f9a2 5c3d 5b34 9c3d 44b2 913e 639a 7c3c
00000070: ff31 96bd 67d8 d33d 8f90 e8bd a7c5 05be
00000080: 5cc6 7b3d 3527 4abe 1215 64be e4c5 9f3d
00000090: 3247 883e d161 813b 8000 c03e 14d6 52be
000000a0: 1d60 81be 5364 a33e 44b8 c53e 1996 2a3e
000000b0: f470 e83e fdbd 2bbe 4c86 61bd 613e 103e
000000c0: 1759 9cbc 4dbf cdbc
