JEDInet_HLS_50p/model_1/IN_kFold_50/IN_sumO_bestmodel_brevitas.params (torch, 105303 bytes, 17 tensors)

fr1.weight f4 [50, 32]
00000000: bcc3 16bc 3ca0 b13d 807a bf3c b3ea 21bc
00000010: df0d d1bc 0bb3 34bd 50ea dbbc c0e9 d0bd
00000020: 9e85 0dbe 60df 3e3e 4240 dabc a5ae 51be
00000030: 8ea6 c83f 3a8e c8bf 16a8 983c 1092 b8bd
00000040: a73a f1bb 8af5 443d 6852 12be 276c 93bd
00000050: 63c6 3f3e af1c 9abd a437 6e3e e167 2c3e
00000060: 9389 6cbe d802 c3bd de35 993d 1ac9 7f3d
00000070: aaba a2bd b851 c5be 3827 8a3d eda7 0ebe
00000080: a09b e2bb 40f8 abbd 4b8d bc3d 3b8d 883d
00000090: 3cd2 0dbd e29f da3d db19 95be 284d 5fbe
000000a0: b03d 8abe 27d8 e4bd 416e 07bc 3243 8e3c
000000b0: 56ec c83f 9cf0 c8bf a6ca 17bb e053 bbbd
000000c0: c84c cf3d 1803 ecbd dd79 25bc 8cf2 00be
000000d0: fa86 61be cad6 243e cdb3 f6be 4758 16be
000000e0: 5f03 b83e 7c68 cfbd 7d0b 5b3d 4a8c 06be
000000f0: 55c4 09be dccf c8bf 060e b83c 8ff9 98bc
00000100: bd46 a83c d9f5 17be fefe c3bc 8bce 1f3d
00000110: 423e 863d 6bba 22be 50cc edbd b933 3e3d
00000120: 7ee1 c03e 0c0c 5d3e 34c2 6d3d f3ee 8e3e
00000130: 3bd0 c83f d1b0 c8bf e04b 063d 1341 093e
00000140: a2b2 b83c 1ac3 4abd 3452 c23c bac7 5b3d
00000150: 5404 27be 2b1f be3d 33d9 1cbd 03bc 98bd
00000160: 749d c1be 2abc 7dbd edd0 25bd 82ff 0cbe
00000170: fcbe f7bd 62a5 c8bf 397a f53d 2b98 363d
00000180: ab80 15be f1cd 67bd 452c 95bd 5e0d 95bd
00000190: e527 c6bb 6699 ccbd d765 57be 56f3 06be
000001a0: 0619 c23e 3770 46bd ffa6 053e 202f 9e3e
000001b0: 1308 113f a527 c8bf 23ee 2f3e 013b b63b
000001c0: 0110 19bd ac30 69bd dbc5 ac3c 5e38 d13d
000001d0: 1655 b6be f189 bb3d be0d 3dbe ed70 fe3d
000001e0: 7e10 27be bbe1 d73c c5bf 613a 5b66 823d
000001f0: b53b 653f fe7f c8bf c345 cabd 5d53 82be
00000200: 0453 183e 08d4 603d 58f1 afbd 07cb 00bd
00000210: 1d5b 9e3c 5872 e6bd 5a31 2cbe a5a4 273d
00000220: 79e6 1b3f 96c2 9bbd 3550 69bd 65e6 7abe
00000230: 6c87 c83f d3e8 c7bf e398 dd3d 5752 21be
00000240: 9b11 673d 47b3 d23d b086 a83a 29dd ecbd
00000250: ab66 5bbd b1cb 59bd e5c2 d73d a09d 0dbe
00000260: 114e 8dbf 522f 76be 8892 15be 9dc5 f0be
00000270: b1e3 82be fbef 57bf 382b 233d e211 6bbe
00000280: 89f1 ce3d ba4a bebc a3c1 de3d b418 88bd
00000290: 947d 323d 2431 443d b43e 13be 78a8 5bbc
000002a0: bc20 e9be 3a8c b43d 1f26 23bc f308 803e
000002b0: 5fcd c83f 985d c8bf 8b38 79be 1f85 d23c
000002c0: 0fb6 d5bc 3d1b 2f3c 7dc4 6c3d 3237 b2bd
000002d0: d991 e7bc bd40 17be 144f 34be 509b 1f3d
000002e0: afc8 ca3e 8345 893e 3c03 b4bc 281f 7f3c
000002f0: 7ed7 68be 01f5 a1bf 2332 463d ab2d 333e
00000300: 9672 69bd 2b5a 413d 48b2 c63c f993 af3d
00000310: 3dfb 353e c8ed 83bb b9a0 dabc 92e0 863a
00000320: 3041 b13e ad68 f6be 1999 5e3d 435d e93e
00000330: 69e6 c8bf 24e0 c83f 8ed5 cbbc 0995 e4be
00000340: 4899 023e 904a a3bd 4284 bfbc c492 fabb
00000350: 723e acbd 425c 9bbd 0c76 183d baf3 c63d
00000360: d19b 29be 8bc7 09bf 5528 cdbd 9abc 03be
00000370: 5113 e13e 155b c83f 718b 293e 9172 f5be
00000380: 85f4 02be 6d5c 18bc f79b dbbd c2de 06be
00000390: a32a 183e 563b a8bd e776 953c 3771 013e
000003a0: edbd 71bd de1f 743b 31e2 85be a299 813e
000003b0: 9c7c 2e3e 5c0d a83e ad38 84ba 8ac6 933d
000003c0: 57f7 30bc 3df2 b63c bd67 943d e6c5 febd
000003d0: 2e02 67bd 66dd 8f3d 7f9d 4b3d a275 8dbd
000003e0: ee9b 823e b5a4 f7bd 198b 423e 1adb e2bd
000003f0: 45ef e13d 6d5f 93bc 8125 c6bd 6791 2bbd
-0.00920194 0.086731404 0.023373842 -0.009882617 -0.02551931 -0.04411606 -0.026845127 -0.10200834
-0.13820502 0.18639898 -0.026641969 -0.20476778 1.5675828 -1.5668404 0.018634837 -0.09012234
-0.007361728 0.048085727 -0.14289248 -0.07198363 0.18728022 -0.07525002 0.23263413 0.16836502
-0.23099355 -0.09522027 0.074809775 0.062447645 -0.079457596 -0.3853891 0.06745762 -0.13931246
-0.0069155246 -0.08396959 0.09206637 0.066675626 -0.034624323 0.106750265 -0.2912129 -0.21806777
-0.2700019 -0.1117404 -0.008266033 0.017366026 1.5697124 -1.5698428 -0.002316156 -0.09146857
0.10122067 -0.115240276 -0.010099855 -0.12592524 -0.22024146 0.1609756 -0.48184052 -0.14682113
0.35940072 -0.10127351 0.053477753 -0.13139454 -0.13453801 -1.5688434 0.022467624 -0.018673686
0.020541543 -0.14839877 -0.0239253 0.039015334 0.065548435 -0.15891425 -0.11611235 0.046436045
0.37672037 0.21586627 0.058046535 0.2791668 1.5688547 -1.567896 0.032787204 0.1340373
0.022546116 -0.04950247 0.023720838 0.05365727 -0.16310245 0.092832886 -0.038293075 -0.074577354
-0.3781544 -0.061947025 -0.04048245 -0.13769343 -0.12096974 -1.5675471 0.11986203 0.044578712
-0.14599864 -0.056592885 -0.07283834 -0.0727794 -0.0060472363 -0.09990196 -0.21034943 -0.13178763
0.37909716 -0.04844686 0.13051985 0.3089533 0.56652945 -1.5637099 0.17180686 0.005561233
-0.03736878 -0.056931183 0.021090439 0.10215829 -0.3561179 0.091571696 -0.18462273 0.12423883
-0.16314885 0.026352754 0.0008611645 0.06367179 0.8954423 -1.566406 -0.09876587 -0.25454226
0.14875418 0.05488971 -0.085909545 -0.031443622 0.019330556 -0.11252278 -0.16815701 0.0409285
0.6089855 -0.07605474 -0.056961257 -0.24501951 1.5666327 -1.5617927 0.108201765 -0.15754066
0.056413274 0.10288101 0.0012857523 -0.115656205 -0.05356471 -0.05317277 0.1053522 -0.1382966
-1.1039449 -0.24041489 -0.14606678 -0.47025767 -0.2556434 -0.84350556 0.03983614 -0.2295604
0.10104663 -0.023228992 0.10876777 -0.06645337 0.043576792 0.047898427 -0.14379388 -0.013406865
-0.45532787 0.088158086 -0.009957819 0.25006828 1.5687674 -1.5653563 -0.24337976 0.025698243
-0.026087789 0.010687646 0.057804573 -0.08701934 -0.028267788 -0.1477079 -0.17608291 0.038966477
0.39606234 0.26810846 -0.021974199 0.015571393 -0.22738454 -1.2652894 0.048387658 0.1749789
-0.056994043 0.04720513 0.024254933 0.085731454 0.17771621 -0.0040261485 -0.026687967 0.0010290316
0.34620047 -0.48126736 0.054345224 0.45578966 -1.5695316 1.5693402 -0.024882104 -0.44644955
0.12753785 -0.07973206 -0.023378495 -0.0076468904 -0.08410348 -0.07585956 0.037221953 0.09714456
-0.16563345 -0.53820103 -0.10017458 -0.12864915 0.4396005 1.5652796 0.16557099 -0.4793897
-0.1278859 -0.00929938 -0.10723107 -0.13170913 0.14860015 -0.082144424 0.018245174 0.12640844
-0.059019018 0.003725044 -0.26149133 0.25312525 0.17039722 0.32822692 -0.0010087691 0.07215603
-0.010801158 0.022332305 0.07246349 -0.1244009 -0.056398563 0.0702465 0.049710747 -0.06907202
0.2550959 -0.12091962 0.18998374 -0.110769466 0.11031965 -0.017989838 -0.09675122 -0.041886713

fr1.bias f4 [50]
00000000: aab2 f6bd 6029 1d3d d488 833b ef4f 88bd
00000010: f55e 90bd aa77 ec3d f533 2abe f449 313e
00000020: 3a7b 9ebe 1b4b fc3c 54e6 b33e 3c84 e9bd
00000030: 1536 14be 8ca3 5abe d991 313d 4408 9cbc
00000040: 0e6d debd 745a 3dbe dfcb 3f3e d0ec fd3d
00000050: 609d 39bd 5f96 fe3e ce34 a2bd 3841 76be
00000060: d2d8 c9be c384 533d aff7 293e 4775 56be
00000070: b17d b6bd 503a 273e 0451 b53d 421a bbbe
00000080: 495a 083e 0c45 bd3d b5ec 793f 91b5 67be
00000090: 11b9 2e3e 00bb 0a3e fbc5 3ebe 1ef3 1a3e
000000a0: 1d50 953e 3c61 e73d 1937 9fbb 252a 5e3d
000000b0: 3c78 ddbe d45f 5cbe 4712 3f3f 635a 033e
000000c0: 77f6 b13e 8558 df3d
-0.12045796 0.038369536 0.004014114 -0.06655871 -0.070493616 0.115462616 -0.16621383 0.17313367
-0.3095339 0.030797532 0.35136664 -0.11402175 -0.14473756 -0.2135145 0.04335198 -0.01904691
-0.10860644 -0.18491536 0.18730114 0.12398684 -0.0453161 0.497241 -0.07920228 -0.24048316
-0.39423233 0.051640283 0.1659839 -0.20943175 -0.089106925 0.16330838 0.08853343 -0.3654347
0.13315691 0.09241685 0.9762681 -0.22627856 0.17062785 0.13547897 -0.18630211 0.15131804
0.29162684 0.11297843 -0.004858863 0.05423941 -0.43255794 -0.2152093 0.74637264 0.12827449
0.3475835 0.10905556

fr2.weight f4 [25, 50]
00000000: 3092 f3bd c0ae aa3c a36c 9cbd 718e 0d3e
00000010: 2db8 2dbe 376b 8a3d 1265 1d3d 83af 523e
00000020: a403 833d 121f 3e3d 4625 21bd 3848 6bbd
00000030: b3a5 983d de78 a7bd cc4b d1bd cef3 e53d
00000040: 9d27 90bc 259b 643d 30df 30bb 6798 05be
00000050: 6334 91bd f1f3 8c3e 60da 803d d004 e03d
00000060: 0ab7 203d 8f88 97bd 7fc6 8f3e 6b28 c73d
00000070: 1327 08bd 030f 03be 084e efbd c920 a93c
00000080: 42b3 0bbe 6c47 5ebd 281a 6fbd a782 b83d
00000090: 8f2f 23bd f596 37bb a205 863d 9ff2 ba3d
000000a0: 0d0e 16be d4da a4bd b33c 633d c441 b5bc
000000b0: c9f1 023d 7175 53bc 7f59 143d 1258 17bd
000000c0: 16bb 0fbe 2020 52bd 5a99 cdbd bc06 e43c
000000d0: 2148 4bbd 3f55 a93b f0b5 4cbd 6e2f 7ebd
000000e0: f4cb c13d 5fa7 40be 4dc5 583d 55bc 2c3d
000000f0: 8db5 a93a 3809 2abd c5f1 ff3d a94f 5f3c
00000100: 0c22 a2bd e34e 43bc 82d8 8a3b bdd3 13bd
00000110: 1f0e 983d 27a6 023d 1e7c 36bd ac8e 86ba
00000120: 8cde aa3d 3a8f 58bd 4b03 29bd 6a4f a33d
00000130: cdc2 0ebe c01b 8dbc 3eba 2bbe cd05 6dbe
00000140: 5c88 1bbe 1abe 4ebd a520 07bd a11f 09bd
00000150: e711 68bd 29fe 69bd db10 aebd c84b 963d
00000160: 4a47 07be b918 83bd b457 af3d b8f3 e8bd
00000170: c8e0 803c 0c87 cebd ff47 ab3c b174 7d3b
00000180: fca2 0cbe 2d84 75be d00f 6e3d 9b58 ecbd
00000190: 201c 20bd 9c7b f2bd 6959 9e3d df63 dd3d
000001a0: cc76 bb3d 9a0f 953d 13ab 093e a918 85be
000001b0: 717b 993b 51ed c9bc 1447 a43c 2f6d 3c3e
000001c0: 296b 65bd a145 8f3d a05d 953d 06ff 60bc
000001d0: 4a25 09be f2ea 013e 36ea 7b3d 8ef4 20bd
000001e0: 8116 f53d 2cf5 a33d 10a0 e93c 570e f13a
000001f0: bd57 0d3c f756 fdbd 4860 1dbd a2b7 4cbd
00000200: a3eb 3dbd 3818 903d ef5d 0d3e c7d0 7b3d
00000210: b372 9bbd a135 1fbd d345 ff3c d59f e73d
00000220: e995 96bd a7c3 cebd b7a8 ee3c 8ee9 37bd
00000230: 1351 263d 700a d83c a9eb adbd 0ab4 9abc
00000240: 4460 44bd 0d04 c5bd 2738 e13d 4be0 943c
00000250: 24db 323d 0582 febb 5d1b 9dbd c369 98bd
00000260: 5159 c2bc 30e8 a53d 6d40 f53d f196 b63c
00000270: b34a 003e 23d0 ecbd 5dc2 053e db2e 26bd
00000280: 2190 60bd 9a09 18bd 9018 3ebd f77c d6bd
00000290: 3cde ccbb ef28 5bbd 200b 0bbc 6f4f 01bd
000002a0: 5416 b4bd 2619 9f3d 5bee ba3c d0c3 afbd
000002b0: 6c15 3f3c 7000 16bd 13d4 e7bd 170f 103e
000002c0: 93bf 3b3e 9081 71bd 2533 943d 60ca bc3d
000002d0: 3e47 f43c bb72 973d 62d6 bb3c a6f1 7bbd
000002e0: 53dd d6bd 7c86 11be 5f9c 583e f4fc 9abd
000002f0: 9b00 fcbc ef3f 19be 541a 9f3a c8ca 65be
00000300: 802e 1ebe 0282 e13c 1214 76bd a78f bdbd
00000310: 0d31 b73d 27be ae3c 1319 493d 10d1 e03d
00000320: 1138 dcbc 4c98 dc3d 0f96 463d fd9f ef3d
00000330: 7e62 3f3d 9927 343c 870d f9bc 2cde 4e3d
00000340: 3e05 a4bb 4337 b73d dcb1 e9bd f21b 55bd
00000350: 020a 60bd a68a 20be fe58 cbbc 8df7 05be
00000360: 6d30 5c3d b393 89bd f8b9 493c 7750 0ebe
00000370: 349f be3d a118 72bd fba6 8fbd 555b 28be
00000380: f442 b9bd 19a7 563e 9f4f 193e ec4e 883d
00000390: 6e06 963d f106 70bd 710d b73b bd4b ce3c
000003a0: d69e 32bc b242 c5bc 8114 f73d 12da bebc
000003b0: e9c1 9b3d 0a7f bf3d cb17 6ebd e57b cfbd
000003c0: e076 3c3d 14a6 1dbd 76a3 37bd 3765 a4bc
000003d0: 6167 e73c ffad cbbc 6712 87bd f28b 80bd
000003e0: d039 f7bb b4aa a4bd 4f26 71be da8a 0ebe
000003f0: cbcb b9bd 8df8 ddbd 3c08 983d 1d35 13be
-0.118931174 0.02083528 -0.07637908 0.13823868 -0.16964789 0.06758731 0.038426466 0.20574765
0.06397179 0.04641635 -0.039342187 -0.05744192 0.074534796 -0.081773505 -0.10219535 0.11228143
-0.017597014 0.05581202 -0.00269885 -0.13046418 -0.0709007 0.27529863 0.06291652 0.10938418
0.03923706 -0.07399093 0.28081128 0.09724506 -0.03324039 -0.12798695 -0.11684805 0.020645516
-0.136426 -0.054267332 -0.058374554 0.09009295 -0.039840277 -0.0028013561 0.06544043 0.091283076
-0.14653797 -0.08049551 0.05547781 -0.022126086 0.031968866 -0.012906418 0.036218163 -0.036949225
-0.14036211 -0.051300168 -0.10039015 0.027835242 -0.049629334 0.005167633 -0.049978197 -0.06205695
0.09462729 -0.18813847 0.052922536 0.042171795 0.0012947783 -0.041512698 0.12497286 0.013629832
-0.0791665 -0.0119206635 0.0042372355 -0.0360906 0.074245684 0.031896736 -0.04455196 -0.0010265908
0.08343229 -0.052870966 -0.041262906 0.079741314 -0.13941498 -0.017225146 -0.16770265 -0.23146744
-0.15188736 -0.050474264 -0.032990117 -0.03347743 -0.056657698 -0.05712715 -0.08499309 0.07338673
-0.13210788 -0.064012 0.0856165 -0.11374611 0.015732184 -0.10084352 0.020908354 0.003867429
-0.13734049 -0.23976202 0.05812055 -0.11540338 -0.039089322 -0.11839983 0.077318974 0.108100645
0.09153518 0.072783664 0.13444166 -0.25995377 0.004683905 -0.024649294 0.020053424 0.18401025
-0.0560104 0.069957025 0.07293248 -0.013732677 -0.13393131 0.12687281 0.061502658 -0.039295726
0.11967183 0.08005747 0.028518707 0.0018391114 0.0086268755 -0.12370103 -0.0384219 -0.049979813
-0.0463673 0.07035869 0.13805364 0.061478402 -0.075902365 -0.038869504 0.031161224 0.113097824
-0.07352812 -0.100959115 0.029133184 -0.04490047 0.040604662 0.026372164 -0.08492214 -0.018884677
-0.04794337 -0.09619913 0.10997038 0.018173357 0.04366602 -0.0077669644 -0.07671235 -0.074420474
-0.02372423 0.08100927 0.11975179 0.022288771 0.12528495 -0.115631364 0.13062425 -0.04057203
-0.054824952 -0.03711853 -0.046410143 -0.10473054 -0.0062520783 -0.053505834 -0.008486539 -0.031569894
-0.08793321 0.077684686 0.022818735 -0.0858227 0.011662822 -0.03662151 -0.11319747 0.14068256
0.18334799 -0.05896145 0.072363175 0.092182875 0.029819127 0.0739493 0.022929374 -0.06150975
-0.10491433 -0.14211458 0.21153401 -0.07567778 -0.030762007 -0.14965795 0.0012138584 -0.22440636
-0.15447426 0.027527813 -0.060077734 -0.09255915 0.089449026 0.021330906 0.04909618 0.109773755
-0.026882203 0.10771236 0.04848295 0.11700437 0.04672479 0.010995769 -0.030401958 0.05050485
-0.0050055077 0.08946087 -0.11410877 -0.052028604 -0.054697044 -0.1567789 -0.024822708 -0.13082714
0.05375712 -0.067176245 0.012312405 -0.13897882 0.09307709 -0.05910552 -0.07014271 -0.1644109
-0.090459734 0.2096218 0.1497178 0.06655678 0.07325445 -0.05860037 0.005586319 0.0251826
-0.010902127 -0.024079654 0.12064458 -0.023297343 0.07605345 0.09350403 -0.05812816 -0.10131053
0.046011806 -0.038488463 -0.044833623 -0.020067794 0.028247537 -0.024863241 -0.06595307 -0.062766925
-0.0075447336 -0.080403715 -0.2354977 -0.13920155 -0.090720735 -0.10838423 0.074234456 -0.1437573

fr2.bias f4 [25]
00000000: 51c1 fabd 8254 dfbe 2b18 2abe 9a2c 823e
00000010: 8cee 393e 8699 e03e 462e 993c 8003 d33d
00000020: bee6 ff3d df32 eebc df50 01be 5165 73be
00000030: 5201 313e eabc 2cbe 4993 303f 7d96 c6bd
00000040: 38fb 66be 437d a33e 940a 02be 3503 ec3d
00000050: 8dda 633e 88f7 093e 519c 7fbe 1d86 2abc
00000060: 8196 35bd
-0.122439034 -0.43619162 -0.16610782 0.25424653 0.18157405 0.4386713 0.018698823 0.10303402
0.124951825 -0.029076992 -0.12628506 -0.23769118 0.1728566 -0.1686894 0.6897474 -0.09696672
-0.2255677 0.31931505 -0.12699348 0.11524049 0.2225134 0.13473332 -0.24961974 -0.010407952
-0.044332985

fr3.weight f4 [12, 25]
00000000: 8c8e 7c3d 2c04 fd3d 3f6d ecbd 5e8c 1f3d
00000010: beb7 053e 87b5 d9bd 5b2d d13d 778c b33d
00000020: 1d79 1cbe dcea 8cbc b4f1 413e 89e5 3cbe
00000030: 2a11 953c 3a46 3dbe 5fcb b43e 904f 753a
00000040: f1d3 27be f8a9 643d 9e73 073d 7f28 65bd
00000050: e4ae b43e 92a5 0a3e d83a 46bd 9242 183c
00000060: 4064 a43e d196 823d 3ad5 98be ca6c 1dbe
00000070: b5e5 063d 87e8 223e d9a0 b33e fe1a 403e
00000080: 8d4a 9d3e 308d ad3d 3850 163e 7097 5bbe
00000090: 2050 97bc 4d57 a33e 21ad 053d ec14 96be
000000a0: d5db 23be 5805 b4be 3c7c 1c3e 6b22 33be
000000b0: c7bb 043e 2e42 003e 6271 9d3a ced0 11be
000000c0: df64 ba3d 26aa 263d bfac 333d cde8 81be
000000d0: 0733 e0bc b6d8 123e ae71 f23b 3f09 123e
000000e0: cce3 aa3d 8d84 46be f1fa 90bc b25f 61be
000000f0: 7488 04be 9e9d 0f3d 89ba 70bc cf60 13be
00000100: 2bfe 97be 48bf 95bd dc60 8dbd 5990 573e
00000110: e5ce 55bd 952b ffbc 40fe afbe 753c 1e3e
00000120: 296d 82be 0d2f 41be 266b 86be bbf7 b3be
00000130: 84db abbc b004 6cbb 8d9b 953d 1719 ab3d
00000140: 428f 943e 57bc b9bc 6bf3 b3be 0bde 08be
00000150: a487 e03d d8ce 133a 9035 85bd 9c34 efbd
00000160: 2fa4 1fbd 0afd aaba ec8c 6dbd 7b05 d23c
00000170: 7c51 093e 5280 cdbd 3d4d c93c fc8f f73c
00000180: 84f3 74bd 6768 963d 28f7 4e3e 7957 41be
00000190: 73b1 b63d 46e1 ea3d 6818 89bd ae4f 513d
000001a0: cf8d 5e3d 037d 08be daba 0ebe 694f 1a3e
000001b0: cc58 2d3b 8e19 d6bc 8a76 12be 5a50 52bd
000001c0: 298c cc3d cf65 0d3e 6e58 c5bc be9c ba3d
000001d0: 92da 323d c11b 58bb 30d6 17be 0a89 4b3d
000001e0: 7ad6 83be 7e2f 58bb f3bc 313e 6c8a cfbd
000001f0: 5864 f83d eb36 33be c197 203c 6e12 8e3d
00000200: 2b41 11be 7624 103d ce6e 35be 1488 82bd
00000210: 3100 bbbd e8a1 193e 6b6c b4be 5da0 3c3d
00000220: 99d0 063e 8c10 923d a427 e4bd 6aec 2cbe
00000230: 7314 27be 18ce e93c 4973 1cbc 2bda a2be
00000240: 8682 ec3d e3b0 e7bd f236 1e3e 25f5 113e
00000250: fdb1 d23d 9d38 743d 55eb babd 7dbb aebd
00000260: b74d 1e3d a103 3b3d 20f5 9b3d 90cb a3bd
00000270: cab6 b33d cf5b 913a a158 793e be5f bcbb
00000280: 266c eb3d 2fb7 23bd 47ef 5abd 9494 38bd
00000290: 327d 993e f032 1b3d 26d5 a0bd dc92 7fbd
000002a0: d9be 10be 1cef b3bd caa2 853e 0aae 2fbc
000002b0: ae1d 5d3e b5ba 843d 7f61 5f3e 05e2 a03c
000002c0: 24d6 6cbe 758a 093e 91a5 c53d e676 fb3c
000002d0: 0550 98bd bef4 b93c 4e7f 653d b4e3 313d
000002e0: 5553 583d 0a86 573e d353 35bd 4791 95bd
000002f0: 9f75 7cba 6536 f5bd 4d4d 8abd 3a6b 8ebc
00000300: dfa7 1cbe 0851 5abb 8749 32be 4694 9ebd
00000310: 95a5 eebd 0d2d 7fbe 53ed adbd 3b09 20be
00000320: d12f fb3d 7665 013e bda9 403d 82d6 3b3d
00000330: a38f 84bc 77b2 16be af9a 14bd d646 893e
00000340: 3e3b 9f3e 8efd d7bd c402 9a3b d2a1 a1bd
00000350: 183c e13d 05be 35bb 944e ae3e b433 673d
00000360: b320 2cbe f1b0 45be 2b38 bc3d df0b 5abe
00000370: 3c73 8c3e ebd5 df3d 4782 683e 9d8f b43e
00000380: 2d8d a03e 028f 103d 5955 00be 06f2 833c
00000390: 97fa 8b3d ca2c 273e 548e 4f3e 0e9a 0c3e
000003a0: f83f fd3d 786e b33e 6102 05be f640 6a3d
000003b0: 2424 f03d f765 453d e48c 3abe 8b97 b4be
000003c0: c4bc 98bb 0127 913d e85e e13d 58c2 cabd
000003d0: 7f3e e2bc 0ae6 a8bc ef00 ee3d b1ff 02be
000003e0: 561a 133e a765 9c3c da8a cbbd 3b93 043e
000003f0: ac19 953d b95b f83b 4828 dc3d 28bd 9e3a
0.06165938 0.12354311 -0.115442745 0.038952224 0.13058373 -0.10630327 0.10213729 0.08767026
-0.15280576 -0.017201833 0.18939859 -0.18446936 0.018196661 -0.1848382 0.3531141 0.0009357864
-0.16389443 0.055826157 0.033069246 -0.055946823 0.3528968 0.13539723 -0.04839596 0.009293215
0.32107735 0.06376422 -0.2985018 -0.15373531 0.03293391 0.15909015 0.35083655 0.18760297
0.3072094 0.08474195 0.14679039 -0.21444488 -0.018470824 0.31902543 0.03263581 -0.29312837
-0.16001828 -0.35160327 0.15281767 -0.17493598 0.12962256 0.12525246 0.001201194 -0.14239809
0.09101271 0.04068961 0.043865915 -0.25372925 -0.027368082 0.14340481 0.0073988056 0.1426134
0.0834423 -0.19386502 -0.017697783 -0.22009161 -0.12942678 0.035062425 -0.014692911 -0.14392398
-0.29686102 -0.07311875 -0.0690324 0.21051158 -0.052199263 -0.031148711 -0.34373665 0.1545275
-0.25473908 -0.18865605 -0.26253623 -0.3514994 -0.020978697 -0.0036013536 0.073050596 0.08354395
0.29015547 -0.022672815 -0.3514665 -0.13365953 0.109633714 0.0005638427 -0.06504357 -0.11679956
-0.038974937 -0.0013045382 -0.05799572 0.025637379 0.1340999 -0.10034241 0.024572963 0.030220024
-0.059802547 0.07344132 0.2021147 -0.18881024 0.089205645 0.11468749 -0.06694108 0.05110138
0.054334458 -0.13328938 -0.13938466 0.15069355 0.0026450632 -0.026135232 -0.14303032 -0.05134616
0.09987671 0.13808368 -0.024090018 0.091119274 0.043665476 -0.0032975527 -0.148278 0.049691238
-0.2574957 -0.0032987292 0.17357235 -0.10133824 0.12128514 -0.17501418 0.009801806 0.06937109
-0.14185016 0.03519102 -0.1771805 -0.06373611 -0.09130896 0.15003169 -0.35238966 0.04605137
0.13165511 0.07132062 -0.11140373 -0.1688706 -0.16316395 0.028540656 -0.0095489705 -0.31807074
0.11548333 -0.11313035 0.15450647 0.14253671 0.10287855 0.059624303 -0.09126917 -0.08531854
0.038648333 0.045657758 0.07615113 -0.07997811 0.087750986 0.0011089983 0.24350215 -0.005748718
0.11495237 -0.03996962 -0.05345085 -0.04506357 0.2997833 0.037890375 -0.07853155 -0.062395915
-0.14135303 -0.08785841 0.2610076 -0.0107226465 0.21593353 0.06480924 0.21814536 0.019639025
-0.23128563 0.13431723 0.0965072 0.030696344 -0.074371375 0.02269971 0.05602961 0.043430045
0.052813847 0.21047226 -0.044269394 -0.073031 -0.0009630564 -0.119732656 -0.06753025 -0.017385114
-0.15298413 -0.0033312459 -0.17410861 -0.07743125 -0.11652676 -0.2491953 -0.084925316 -0.15628521
0.1226498 0.1263636 0.047036875 0.045858867 -0.016181773 -0.14716516 -0.03628033 0.26811856
0.31099886 -0.105464086 0.0047000367 -0.07892193 0.1099779 -0.0027731669 0.34044325 0.056445792
-0.16809349 -0.19305779 0.09190401 -0.21293591 0.27431667 0.109294735 0.22705947 0.35265818
0.3135771 0.035292633 -0.12532558 0.016106617 0.068349056 0.1632568 0.20269138 0.13730642
0.12365717 0.35045218 -0.12989189 0.057190858 0.11725643 0.048192944 -0.18217808 -0.35271868
-0.0046611745 0.070875175 0.1100443 -0.099003494 -0.027617691 -0.020617504 0.11621272 -0.12792851
0.14365515 0.01909144 -0.09938593 0.12946789 0.07280287 0.0075792936 0.107498705 0.0012110816

fr3.bias f4 [12]
00000000: 1cbe b43e 433a 6bbd 6db2 3a3e a2d4 b43e
00000010: ebbf b4be ed61 f4bd 2208 29be 640c 07be
00000020: cf09 83be 516a a8be 0e76 7cbe dc22 e13d
0.35301292 -0.05742861 0.18232127 0.35318476 -0.35302672 -0.1193274 -0.16507009 -0.1318832
-0.2559342 -0.32893613 -0.2465441 0.10992977

fo1.weight f4 [50, 28]
00000000: f429 9f3d 6de6 923c c08b d83d 28c5 3fbf
00000010: d710 10bf 9375 88bf 8a65 99be 222c 993c
00000020: 6ce6 c5be b305 973e 96a6 663e 485f 753c
00000030: fa5e dabf 9c95 84bf 8f1d 733d 7e7e ba3e
00000040: 6a53 473e 019f 3abe 3ae6 663d 3161 273e
00000050: eab1 363d 1aec 29bc 4a86 05bd 8c49 133e
00000060: 6e44 0b3e 2c01 0fbe 9921 45be 224e d2bd
00000070: 7c06 ce3d b2e7 bc3c d77b 92bc 9144 08be
00000080: 68e6 9ebc aa62 cebe b346 013d a1a4 2f3e
00000090: 4e31 6f3e 2018 6f3e c62c 3e3d 15a9 13be
000000a0: 345a 68bf a144 ffbe be67 adbd 6f67 c1bc
000000b0: b87d 383e a108 6f3d a4aa 92be 2f80 383e
000000c0: 8c43 d0bd 472d 37be 84eb 413e 571b 4cbd
000000d0: e141 99bc c35c b8be 3a40 bfbd 3a19 113e
000000e0: d66c 823d 6a84 043d db0f cabb 0431 2cbd
000000f0: ff83 e5bd 4cf7 a8bd 13ae 5abe d150 52be
00000100: b7e0 43bd 9ccc 253e 716a a93d deac 7a3c
00000110: 9ca9 2b3e 717b 3ebe 0146 553b 0a3c 473c
00000120: 62fd 26be 3fcc cd3d 8528 013e d13b f2bd
00000130: 805e c4bc 95a3 cebd 115d 22bd 6246 d1bc
00000140: 8640 26be 30a8 1cbe 3357 d7bd f5f3 9cbd
00000150: d4a5 8f3d c562 103d 0220 94bd 3968 203d
00000160: 1687 c7bd 90da 8239 fc29 5a3e eb5b ae3d
00000170: f28d ba3e dcff 35bd 3c13 21be 88d2 663e
00000180: 8ed8 e4bf a2aa e43f 579f 86bd d9a9 073e
00000190: c1a8 253b 25f2 83bc a911 61bd 9542 3abd
000001a0: f5fd f03d d098 c0bd 2738 62bd b0a8 0a3d
000001b0: d1ef 983d 5730 873d 37e1 aebd 6c87 423e
000001c0: 7184 d0bc d057 9bbc 1090 88bd 99fa cebd
000001d0: 66bd 0fbf bfd3 90bd b133 a6be 80bf 55be
000001e0: 23be 873e ab41 e73d 24e2 9dbb 0446 05be
000001f0: a6f5 e2bf c7d9 a33d 3d4f 133d b28e 89bd
00000200: bcb2 2abd 8301 febd 6376 8abe d1cc 0cbe
00000210: 7fbe 4a3e a452 ea3c 25da a53d 1c53 2bbc
00000220: cdd7 24bc ebcc ccbc 479c 213e 44a5 0d3d
00000230: f237 c53c 09d5 c23c 35e0 94bd 143b babc
00000240: 9683 e1bc 77a8 81be aa0f 303b cda7 013e
00000250: 1b29 afbd 861b cfbe cb06 af3d 672c acbd
00000260: c5cc e43f d72d 93bf 155a 0b3e b459 5bbe
00000270: 3ca1 1c3d e45b c83c 48e3 243e 3942 273e
00000280: ed29 2f3e 0c57 1c3d 73b9 d9bd e762 4ebe
00000290: dafa 153e 3f52 9bbe 830f 98bd fe03 fb3d
000002a0: f329 003e 1f0c 223d 2944 f63b 1961 433e
000002b0: 50f9 77be 8210 9d3d 682d 8bbe c2cb a2bd
000002c0: b2d6 0cbd 5a7e 4d3e c939 f4bc 62c9 9f3c
000002d0: afd2 e4bf 9ec2 e43f e4a9 d83d 1341 65bd
000002e0: 0182 21be 3ce2 613d 0a4a 52be f785 5e3d
000002f0: f0d8 b8bd f191 27bd 1632 5ebc 82eb f9bd
00000300: 80bd 01be a4d7 ecbc e094 66bd acd5 69be
00000310: d224 8f3d 878b 43bc 844f efbd 9d2d cf3d
00000320: ba30 163e 469e 253e 85ed 413e f720 12be
00000330: 2b7d 353e 714f 973d 1793 433c 34c4 8fbb
00000340: 53d5 e43f 9faa e4bf 48c7 80bc b872 533d
00000350: 0818 963d 6b80 20bd 50a0 66bd 5d5f be3d
00000360: 1809 80bc 4ba4 e33d f971 bb3b 0819 b63c
00000370: cd9f 1d3e 28f6 763d db01 af3d 1384 34be
00000380: 611e bb3c c73e c7bc c22f ad3d 3254 603d
00000390: de1d 2e3e 65b9 3d3d b03a c83d f4aa 60be
000003a0: 735b 70bd f927 7dbe 0b19 e2bb 675b d23a
000003b0: 4ad1 e43f 51ce e4bf e087 38be a020 28be
000003c0: 90bb 233b 5659 623d 0216 39be da53 da3d
000003d0: 58d5 50bd f8e1 2e3e 13aa 5cbd 4eed abbd
000003e0: 6a99 a83d 5365 e4bd 5e7c e83d 95b6 4abb
000003f0: 511f cabb 97e2 e13b a0ef 043e 598f b9bc
0.07771674 0.017932141 0.1057353 -0.7491021 -0.56275696 -1.0660881 -0.2996028 0.018697802
-0.3865236 0.29496536 0.22524485 0.01497633 -1.7060235 -1.0358157 0.05935436 0.3642463
0.19465414 -0.18224718 0.056371905 0.1634567 0.044603266 -0.010371232 -0.03259877 0.14383525
0.13600323 -0.13965291 -0.19251098 -0.10268809 0.100598305 0.0230597 -0.017881317 -0.13307406
-0.019396976 -0.4030965 0.031561565 0.17152645 0.23358652 0.23349047 0.046429418 -0.14419968
-0.9076264 -0.49857047 -0.08467053 -0.023608891 0.18016708 0.05835784 -0.28645813 0.18017648
-0.101691335 -0.17888366 0.18937498 -0.04983076 -0.018708171 -0.36008272 -0.09338422 0.1416978
0.06368415 0.032352842 -0.006166441 -0.042038932 -0.11206817 -0.08250293 -0.21355467 -0.20538642
-0.047821727 0.16191334 0.08272255 0.015300004 0.1676392 -0.18601777 0.0032542946 0.0121603105
-0.16307595 0.100487225 0.12613113 -0.11827815 -0.023970842 -0.100897945 -0.039639536 -0.025546256
-0.16235551 -0.15298533 -0.10514679 -0.076637186 0.07014051 0.035250444 -0.072326675 0.039161894
-0.097425625 0.00024958374 0.21305078 0.08513626 0.3643642 -0.04443346 -0.15729994 0.22541249
-1.7878587 1.7864573 -0.065733604 0.13248385 0.0025277587 -0.016106674 -0.054948483 -0.045473654
0.117671885 -0.09404147 -0.055229332 0.03385228 0.07467616 0.06601017 -0.0853905 0.18996972
-0.025453778 -0.01896277 -0.06668103 -0.101063915 -0.56148374 -0.07071637 -0.32461312 -0.20873833
0.2651225 0.11291822 -0.004818218 -0.1301499 -1.7731216 0.08000522 0.03596424 -0.0671667
-0.04167436 -0.12402632 -0.27043447 -0.13750006 0.19799231 0.02860386 0.080982484 -0.010456827
-0.010061217 -0.025000056 0.15782271 0.034581438 0.024074528 0.023783224 -0.072693266 -0.022733249
-0.027528565 -0.2532384 0.0026864805 0.12661667 -0.08552762 -0.40450686 0.085462175 -0.084069066
1.7874991 -1.1498364 0.13608582 -0.21420938 0.038239703 0.02445788 0.16102326 0.16333856
0.17105837 0.038168952 -0.10631075 -0.20154916 0.14646474 -0.30336186 -0.074248336 0.12256621
0.12516002 0.03956234 0.0075154495 0.19080009 -0.24216199 0.07669164 -0.2718308 -0.0794902
-0.034384437 0.2006773 -0.02981271 0.019505206 -1.7876796 1.7871892 0.10579279 -0.055970263
-0.15772249 0.055147395 -0.20536056 0.054326978 -0.090257525 -0.040910665 -0.013561746 -0.12203123
-0.12669945 -0.02891142 -0.056294322 -0.22835416 0.06989445 -0.011935121 -0.11685088 0.10116122
0.14667025 0.16173658 0.18938263 -0.14270388 0.17723529 0.07388199 0.011936924 -0.004387403
1.7877601 -1.786457 -0.015720025 0.051623076 0.07328802 -0.03918497 -0.05630523 0.09295533
-0.015629336 0.11115321 0.0057203737 0.022228733 0.1539299 0.060293347 0.08545276 -0.17628507
0.022841634 -0.024321927 0.08456375 0.054767795 0.17003581 0.046319384 0.09776819 -0.21940213
-0.058680963 -0.2472228 -0.006899958 0.0016048969 1.787637 -1.7875463 -0.18020582 -0.16418695
0.0024983622 0.05526098 -0.18074802 0.10660525 -0.05098471 0.17078388 -0.053873133 -0.08394872
0.082323864 -0.111521386 0.11351846 -0.0030931581 -0.006168284 0.0068934667 0.12982035 -0.022651361

fo1.bias f4 [50]
00000000: 50c0 ef3e b61d 763e fc8a e9bd 8dd4 a5bd
00000010: 2b72 a9bd fc82 873e 9bf7 61be ee81 763e
00000020: 52b7 c0bd 0d4d 193e 0f8c 163e c2b7 ff3d
00000030: 86ca 66be 2d4b e5be 0825 0fbe c438 3cbe
00000040: b70a ee3e c9a7 dfbd 91c5 083e 0609 04be
00000050: 5296 553d ecc6 7fbd de34 19be 3963 3ebd
00000060: 52da 083e a185 153d 8c00 543e 2711 96be
00000070: 01ee 0e3e be7c 66bd bbd0 45be fccb 67be
00000080: 3929 deb9 b799 323e 036c 1ebf 63dd 163e
00000090: df90 96bd 8e20 793c da5c 853e 8ebb 70be
000000a0: f55b db3d 3161 863d 7364 3b3e d6ac d1be
000000b0: 1f21 673d 3845 ebbe e704 053e c780 bebe
000000c0: c0d6 6abd bc13 b0bd
0.4682641 0.24034771 -0.11403462 -0.080971815 -0.08273729 0.2646712 -0.2206711 0.24073002
-0.094099656 0.14970799 0.14701866 0.12486221 -0.22538194 -0.44783917 -0.1397897 -0.1838103
0.4649255 -0.10920674 0.13356616 -0.12894067 0.05214531 -0.062445566 -0.14961573 -0.046481345
0.13364533 0.03650439 0.20703334 -0.2930996 0.13957979 -0.056271307 -0.19317906 -0.22636408
-0.00042373853 0.1744145 -0.6188356 0.1473289 -0.07351851 0.015205516 0.26047403 -0.23509046
0.10710899 0.065615065 0.18300037 -0.40952176 0.05642807 -0.45951247 0.12990151 -0.37207624
-0.057333708 -0.08597514

fo2.weight f4 [25, 50]
00000000: 2c6e 23be 67ca e0bd b475 babd 827d 8dbd
00000010: ee5f cf3d 5ecf 0cbc 8d3b 7d3d 9a57 f8bc
00000020: 2c73 5a3c c45f 53bd 294a 013e 5181 a3bd
00000030: 3ba1 923d 33f7 c73d 5b3c 08bb d123 893c
00000040: 17c0 863d 3bc9 8a3d 2569 97be 5f0e 463e
00000050: 98bb 87bd b779 be3c 493c 033d e514 b73c
00000060: 7d3a 54bd 192d 5c3d 612d 0ebe e1ef 553d
00000070: baae be3d 526b 0b3d 6d6a 873d d437 96bc
00000080: 0e24 d8ba 5ef6 04be b84e 1f3e 1f3c 363d
00000090: b422 ee3d a196 99bd e139 8dbd 5258 0f3b
000000a0: f616 b03d 9465 bcbb d5f4 3ebe 25a7 0c3e
000000b0: 6feb 70bc 8dc0 1a3e eb72 833d 7fb8 3b3d
000000c0: 000b 463d e4fb 69bc 2d0b 183e 74ef 383e
000000d0: 0461 34bd c6fa abbc 8331 243e 1c5b 1ebd
000000e0: ccf2 0bbd 9d28 f13b 2d05 653d 9985 853d
000000f0: feaa 183e 4a9c 203e 422e b7bd f45a bc3c
00000100: ccbf d43d 20a3 823c 8e74 28bb 3606 353c
00000110: 9b0b 973e c77f babc c460 4d3d bc5d 17be
00000120: 4d33 56bb 7dc4 fabc e0b4 44bd 8f93 8dbe
00000130: f77a 003e 8539 0fbc 552f ecbd b24f d8bb
00000140: 1ebf 623e b45c c9bd c248 973b e7c9 3e3e
00000150: 1cde f9bd 74fc 4f3e 44d5 2e3e 929a 7b3d
00000160: 2f8d 55bc 557b da3d d2c8 17bd 5210 7dbd
00000170: e8ff 8dbd 2197 883d adf2 b53d 626f aa3d
00000180: 45a0 1e3e e4c1 6bbd c164 123d bdb4 2b3d
00000190: 5428 6bbe 8843 29bd da43 833d e868 cb3d
000001a0: 7f8a 0f3e c9e0 c6bd d9e2 263c 2d16 22bd
000001b0: 2bc2 6f3d 918b 8b3d 98e1 87be c7c5 59bc
000001c0: 3be4 553d e4c0 293e 316f 18bd 7867 b3bc
000001d0: 293f de3d 2b8d 703d 5470 f83d fcab 953d
000001e0: 978f 24be 0d05 793d fe34 223e 9844 9ebd
000001f0: 4d62 3fbd e67b f73c 51b5 303b 5e0a 893e
00000200: db7c 053e c348 be3c 0d10 35bc a9ab e93d
00000210: 00bc 70bd 7438 783d dc4e b0bd fdd6 fbbd
00000220: 9a96 693d 8c3b c2bd ef8b c83d c213 a53c
00000230: 8bbf 133c 24ca d73d acd5 2ebd 65b2 5bbd
00000240: e5c8 063d 33c4 833d 89cb 9e3d b8e8 b5bd
00000250: fb29 1cbe cd92 dcbd 033e 8a3e 6b12 2e3e
00000260: d200 eebb 8fd6 203e 5df4 253e 7ba1 443e
00000270: cf21 02be dcfb 41bc 5cbc 09bd 461f 263e
00000280: 0ba9 b33c ed84 8abd b9d6 e63c b4ee 4fbd
00000290: 250a 093e a89a ad3c 0984 7a3c fce4 a7bd
000002a0: fa58 973e aa4d aa3b 46d3 debd 1e7f 93bd
000002b0: d36b 2cbd 7f5a 843d 1074 83bd 81e5 343e
000002c0: 25bd b53d 81bb 60be 1ddb 2c3d e61b 5cbc
000002d0: a35d 96bd 8ee4 b33d 8741 ef3d 8a65 1f3e
000002e0: 16a7 65bd 1f8c 033e 5efe 023d 98b0 803c
000002f0: 9fa9 913d b0fe 0d3e 30a5 eabb dc20 ffba
00000300: 54e7 84bd 2ef9 9bbb 17b7 b03c b4be 3f3e
00000310: 9017 e7bd c60f 05bc 5c47 f7bd b1e6 abbd
00000320: e693 8bbc 10e7 2e3e 304a 29bc 1452 81bd
00000330: 020a fdbb c9a3 b53d bf42 0cbe 8e60 ae3d
00000340: 369d e9bd 4890 32be 202b 3c3e dba2 b03d
00000350: 5072 6fbd e58a 3abe 4b71 ba3d 8974 283e
00000360: fe08 963d 83c6 c3bc 6732 973e 2679 63bc
00000370: d906 eb3d c611 c1bd ba25 f1bd dbfc c3bd
00000380: 1240 863d bc78 5bbd 15b3 3f3e 58ac 38be
00000390: 3375 c43d 6589 3d3e 2485 18be a138 313d
000003a0: f70a 193e eb4c 32bd f673 ad3d 3157 c4bd
000003b0: a1cf 61bc 345c 8fbd d600 503d 110c 7bbd
000003c0: be79 8c3d 8331 23be 2c62 00be b8a6 963d
000003d0: 795a 76bd 2d33 47bd bbd7 ca3d ff88 12bc
000003e0: 2f89 583e d0d9 443c 3bd9 15be ccda 17be
000003f0: cf8b 80bd bfa5 583d 45da 91bd cfad f93d
-0.15959996 -0.10976105 -0.09104481 -0.06908704 0.10125719 -0.008594362 0.06182437 -0.03031521
0.013333123 -0.051605 0.12625946 -0.079836495 0.071596585 0.097639464 -0.0020787928 0.016740711
0.06579607 0.06776663 -0.29572406 0.1934142 -0.066275775 0.023251398 0.032039914 0.02234883
-0.05181359 0.053753946 -0.13884498 0.05223072 0.0931067 0.034037896 0.06612096 -0.018337168
-0.0016490237 -0.12984607 0.15557373 0.04449093 0.11627713 -0.07499433 -0.06895805 0.0021872711
0.085981295 -0.0057494137 -0.18648084 0.13735636 -0.014704569 0.15112515 0.06418403 0.045830246
0.048350334 -0.014281247 0.14848013 0.18060094 -0.044037834 -0.020993602 0.16034512 -0.038661107
-0.034167096 0.007359578 0.05591314 0.06519622 0.14908978 0.1568462 -0.0894437 0.022992589
0.10388145 0.015946925 -0.0025704238 0.011048844 0.29501042 -0.022766007 0.05014111 -0.1478185
-0.0032684386 -0.030611271 -0.04802406 -0.2765164 0.12546907 -0.008741741 -0.11532465 -0.0066012973
0.22143218 -0.09832135 0.0046168277 0.18631707 -0.12200567 0.20311147 0.17073542 0.061426707
-0.013034149 0.10668055 -0.03705675 -0.061783142 -0.06933576 0.066694506 0.08884177 0.08322026
0.15490825 -0.057557955 0.035740618 0.041920412 -0.22964603 -0.04132417 0.06409426 0.09932119
0.14017676 -0.09710843 0.010185921 -0.03957193 0.058534782 0.068137296 -0.26539302 -0.013291783
0.05221961 0.16577488 -0.037215415 -0.021899924 0.108518906 0.05872838 0.121308 0.07308194
-0.160704 0.060795832 0.15840527 -0.07727927 -0.046724606 0.030210447 0.0026963542 0.26765722
0.1303591 0.023228055 -0.01105119 0.11409695 -0.05877304 0.060600713 -0.08608791 -0.12296865
0.05702839 -0.09484014 0.09792315 0.020151023 0.009017835 0.10536602 -0.042684242 -0.053636927
0.03290643 0.064339064 0.07753665 -0.08882278 -0.1525039 -0.107701875 0.27000436 0.16999213
-0.0072632814 0.15706848 0.16206498 0.19202225 -0.1270821 -0.011839833 -0.0336269 0.16222867
0.021931192 -0.06763635 0.02817856 -0.050764754 0.13382776 0.02119191 0.015290269 -0.08197972
0.2956007 0.0051972466 -0.10880141 -0.0720198 -0.042095017 0.06462573 -0.064186215 0.17665674
0.08873967 -0.21946527 0.04220115 -0.013434386 -0.073420785 0.08783828 0.1168242 0.15566078
-0.05606755 0.1284642 0.031980865 0.015709206 0.07112431 0.13866687 -0.007160805 -0.0019464749
-0.06489435 -0.004759929 0.021571679 0.18725091 -0.11283791 -0.008121436 -0.120741576 -0.0839361
-0.017038297 0.17080331 -0.010332629 -0.06314483 -0.0077221403 0.0886913 -0.13697337 0.0851451
-0.11406939 -0.17437851 0.18375826 0.08624812 -0.058458626 -0.18217047 0.0910364 0.16450705
0.07325934 -0.023898369 0.2953064 -0.0138838645 0.114759155 -0.09427218 -0.11774774 -0.09569713
0.06555189 -0.05358194 0.18720658 -0.18034494 0.095926665 0.18509443 -0.14894539 0.043266896
0.14945589 -0.043530386 0.084693834 -0.09586943 -0.013782413 -0.07000008 0.050782047 -0.061290804
0.06859158 -0.15936856 -0.1253745 0.07356018 -0.060144875 -0.04863279 0.099044286 -0.008943795
0.21146081 0.012014821 -0.14633648 -0.14829558 -0.062766664 0.052892443 -0.0712171 0.121913545

fo2.bias f4 [25]
00000000: 65f2 cabe 0c51 42be 18fe a1bd b558 8cbd
00000010: 30b6 9b3e 1344 b1be f63f ae3e 1247 d8be
00000020: 3cf4 9dbd 0490 2ebe 79da 82be 49c9 debe
00000030: a8a1 13bc e4d9 8ebd 46d4 8d3d 3cbc 93bd
00000040: 9c2b b6be 9e1d 8d3e 5216 963e 1014 a43d
00000050: 046d 893e 5612 0a3e a0e5 993d acd2 0ebe
00000060: d1f1 1e3d
-0.39638057 -0.1897623 -0.07909793 -0.06852857 0.30412436 -0.3462225 0.34033173 -0.42241722
-0.077126 -0.17047125 -0.25557306 -0.43512943 -0.00901071 -0.06975153 0.069252536 -0.07213637
-0.35580146 0.2756166 0.29313904 0.08011639 0.26840985 0.13483557 0.075145006 -0.13947552
0.038804833

fo3.weight f4 [14, 25]
00000000: c8bf a6be c31c d43d 980e 3cbe 2629 9abe
00000010: a7d3 473e 3e00 b4bd 4303 10bd 1c67 94bd
00000020: 1f81 b3be 87bf a13b 2d5d dc3d 373e 4abd
00000030: 9b9f e4bd 9032 47be 01ea ebbd 9760 683d
00000040: 1b70 3ebc 4857 f0bd 2f82 98bd 96f1 233d
00000050: 74e6 243e 0b1c cd3d cd6e 8dbe 278e dbbd
00000060: 2882 9d3d e4d7 79be 0728 d63d 02ad 13be
00000070: ff02 63bc 7604 b5be 017d 69be eb8d a9ba
00000080: 7d2f 9f3d ecad a4be 95d3 f1bd 74de 9b3d
00000090: bd92 92ba e4ce 29be 3f9c 62bb efb4 74bd
000000a0: 53e1 06bc e194 d83c b2f3 32be cff8 f3bd
000000b0: 27e2 033e 0eff e6bd c4e2 983d 0e42 b3be
000000c0: 8e27 293e 37a7 aebd 25d6 adbd 3053 7ebd
000000d0: f474 c2bd cbbd ae3d 7d88 e73d e4c5 463d
000000e0: 2e15 903d 493b 38bd 97a3 24be a614 423d
000000f0: 21e3 653c 1bbe 193d 6bc8 f83b a6f0 793c
00000100: 5dd6 1cbe 8557 653e 420c e03d 3d01 013e
00000110: e83a d2bd dc63 0d3e 9d5a 8e3d 10fc b3be
00000120: 329d ebbd 9596 103e 39f2 3e3d f581 8cbc
00000130: d911 223e 2832 c53d 753e 163d 6b5a 81bd
00000140: 1092 7abd b8d6 eb3c 7532 ce3d 5230 e4bd
00000150: a843 323e 28d3 0c3e 7b77 2e3d ab9a 4fbd
00000160: caa7 bebc 55f7 95bd 1202 d43d fdf0 813d
00000170: 2716 053c e7ba f2bb 65dd b23c 8f67 193e
00000180: 64b4 42be 51a9 cfbd f3d5 383d 4c71 00be
00000190: c492 babc 4b32 46be dd2e a0bd 4506 56be
000001a0: 4685 55bb 248c 1f3e aa3d f13c 8768 ebbd
000001b0: a13a 8f3e cf73 6b3d ca86 b53d 64fb e5bc
000001c0: e94d c93d 069c 203d 5473 99bb 223b d83d
000001d0: 307d 21be d52d 0c3e e344 46be 3f00 4abe
000001e0: aa43 753d 1fb0 4fbe 894e 5ebe 6f13 b6bd
000001f0: f4fd 2a3e e217 abbe 35fc 8abe 65d0 213e
00000200: 76da 6fbe ad0b efbc f1af 3d3e 9af6 c0bc
00000210: cfeb a1bd 256b b43e 1a48 f5bd c009 973d
00000220: a5e5 96be b356 613e eff2 ba3d c67d 6e3c
00000230: b4f8 a43d 97d6 83be e09a b5be 13b1 303e
00000240: c08c b5be 7a7e 3fbe 943a 61bd 0357 21be
00000250: 4c01 453c fffc bd3d 6e13 bcbd 6d0f 7dbe
00000260: e3db cdbd 2aa2 56be d886 c53d 18c3 40bd
00000270: bb8e 113e 1eb7 21be cfe8 cc3c 9632 5cbe
00000280: 4e5d 44bd 9efb d4bd 9e93 523d b986 443e
00000290: db52 d13d 0017 c73d d771 aebd 5d0c 9c3d
000002a0: 63b8 e53d 0bcb 233c e6b4 a53e a179 22be
000002b0: 32f9 93bd 64b5 d6bd 3e5d 4cbe 72c5 5bbd
000002c0: d589 5c3d 1d12 d6bb 1c94 363c 0f11 c5bd
000002d0: 897b 3cbe c07f 59bd b643 203d 85b8 b5be
000002e0: 65b4 103e 3675 d23d 358b a53d 4106 3b3d
000002f0: b786 b1bd e09f d7bc caf2 ae3d 9a0c 823d
00000300: dcf2 82bd e01e e03c 38fd b93c 29f3 b83d
00000310: e663 803d 572b 543c 8e5b a8bc 3921 173e
00000320: d598 963e fae4 6fbd 50c9 033e 3761 dcbc
00000330: 6b7a 99bc c277 3dbe 7dc4 cdbc e882 f8bc
00000340: 89d0 c9bc 4ac5 99bd 7457 3bbd e8de 583e
00000350: 8ecc cb3d 0013 0e3e 0f1e 863d 1db4 35be
00000360: 030e a63d 136d 80be 0648 c2bc ef12 27bd
00000370: 3333 02be 6faf e63d 62ea 53be 7893 1c3e
00000380: 57ae b5bd e801 2ebe 3031 44be 8056 2d3e
00000390: 7a3a 2abe 1b4a 16be 2b8a 6cbd 7d69 e9bd
000003a0: 7515 373e 40f1 b3bd 3a61 30bd 695a 0dbe
000003b0: fedd 12be 0375 873d c7cf 32bd c379 2d3e
000003c0: e04d e93d f06f 92bd 32ba dcbd d874 8f3d
000003d0: 84a0 15be e317 8b3d e108 fb3d d251 06be
000003e0: 51e6 f6bd 76ba 6ebd 4409 f2bd 65de bebd
000003f0: 1b6f 03be 4e27 2cbe 5c4b 5c3d 0895 cfbd
-0.32568192 0.10357048 -0.18364942 -0.3010952 0.19514333 -0.08789109 -0.03515936 -0.07246229
-0.3505945 0.004936162 0.10759959 -0.04937574 -0.11163255 -0.19452882 -0.11519242 0.05673274
-0.011623408 -0.117353976 -0.074467055 0.040025316 0.16103536 0.100151144 -0.27623597 -0.10720473
0.07690841 -0.24398762 0.10456853 -0.14421466 -0.013855695 -0.35354966 -0.22801591 -0.0012935972
0.077727295 -0.32163942 -0.11807934 0.07610789 -0.0011182647 -0.16582829 -0.0034577993 -0.059742864
-0.008232432 0.026438178 -0.17475775 -0.11912691 0.12879239 -0.112791166 0.07465127 -0.35011333
0.16518995 -0.085279875 -0.084881105 -0.062091053 -0.09494963 0.08532294 0.1130533 0.048528567
0.0703529 -0.044978414 -0.1607803 0.047382973 0.0140312025 0.037534814 0.007592251 0.015255129
-0.15316148 0.22396667 0.10939838 0.12598129 -0.10265142 0.13807625 0.06950877 -0.35153246
-0.11504592 0.14119942 0.04661772 -0.017151812 0.15827121 0.09628707 0.036680657 -0.06316074
-0.061174452 0.02878891 0.10068218 -0.11142029 0.17408621 0.13752425 0.042594414 -0.050684612
-0.023273367 -0.073225655 0.103519574 0.06344793 0.008122957 -0.0074075344 0.021834085 0.1498091
-0.19014126 -0.101397164 0.045125913 -0.1254322 -0.022775061 -0.19355123 -0.078214385 -0.20900829
-0.0032580658 0.15580803 0.029448349 -0.114945464 0.27974418 0.05748349 0.088635996 -0.028073974
0.09829313 0.039211296 -0.0046829376 0.10558154 -0.15770411 0.13689359 -0.19362216 -0.19726656
0.059878983 -0.20282029 -0.21709646 -0.088904254 0.16698438 -0.3341666 -0.27145544 0.15802152
-0.2342318 -0.029180372 0.18524148 -0.023555089 -0.07906305 0.35237995 -0.11976643 0.073749065
-0.2947208 0.2200573 0.09128367 0.014556354 0.08055249 -0.25749657 -0.35469723 0.17255048
-0.35458946 -0.1870059 -0.054987505 -0.15755849 0.012024235 0.09276771 -0.091833934 -0.24712916
-0.10051706 -0.20960298 0.0964486 -0.047061056 0.14214604 -0.1579251 0.025013356 -0.21503672
-0.047940545 -0.10399555 0.05141031 0.19192018 0.102208816 0.09721184 -0.08517807 0.076195456
0.112168096 0.00999714 0.32364577 -0.1586671 -0.072252646 -0.10483816 -0.19957444 -0.053655095
0.053842384 -0.006532921 0.01114371 -0.09622394 -0.184065 -0.053100348 0.039127074 -0.3549234
0.14131315 0.102762625 0.08083192 0.04566026 -0.08668273 -0.026321352 0.08542402 0.0635006
-0.06393978 0.027358472 0.022703752 0.09030754 0.06269054 0.012949786 -0.02055147 0.14758767
0.29413477 -0.05856798 0.12869763 -0.026901824 -0.018735131 -0.18502715 -0.025118107 -0.030335858
-0.02463557 -0.07508333 -0.0457377 0.21178782 0.09951125 0.13874435 0.06548702 -0.17744489
0.08108141 -0.25083217 -0.023715984 -0.04078954 -0.12714843 0.1126393 -0.20694879 0.1529063
-0.08871143 -0.16992915 -0.19159389 0.16927528 -0.1662387 -0.14676706 -0.057748955 -0.113970734
0.17879279 -0.08786249 -0.043061472 -0.1380402 -0.14342496 0.06614115 -0.043655183 0.1694098
0.113918066 -0.07150257 -0.107777014 0.07004708 -0.14612013 0.067916654 0.12257553 -0.1311715
-0.12055648 -0.05828329 -0.118181735 -0.09319762 -0.12835352 -0.16811869 0.053782806 -0.10135847

fo3.bias f4 [14]
00000000: 5028 90be c806 8b3e 227c d0bd 2c9b d7be
00000010: fb84 623e d3cd 9dbd cc10 f33e 41f4 3d3e
00000020: 6353 2dbe 83dd 03be 3d47 1abe 349c 663e
00000030: 7241 9dbe dff2 893d
-0.28155756 0.2715361 -0.101799265 -0.42110574 0.2212104 -0.077052735 0.47473752 0.18550207
-0.16926341 -0.12877469 -0.15066238 0.22520524 -0.30713993 0.06735777

fc1.weight f4 [50, 14]
00000000: 3ab2 a03c d930 95be e2c3 843d edd4 da3e
00000010: 6e39 2f3c 0dc9 2fbe 60cb 8abe b30d 2fbe
00000020: 4775 b03e 3b26 d8bd 6fef f13d 07fd 8ebe
00000030: b770 123e 6302 143e 45fd 94bd 614f 293e
00000040: c610 213e da37 633e 3a0f 093e 26b5 b53a
00000050: 1dee b73a 0435 2abe d17a e5bc 19d5 663e
00000060: c157 563e 00bb 71be 7236 3bbe d6e2 943e
00000070: 5daa 2d3c ae5e 823e 6d59 443e 3515 86be
00000080: 41ad ca3d e303 bfbd be05 0b3e 216b 713e
00000090: d812 1ebc b29f 773e a3df 143d b669 2dbe
000000a0: 3d22 07be 99e3 483e d264 ad3d ae30 ac3d
000000b0: 6ff8 16be fa50 923b 432a 203e cad2 163e
000000c0: 050a 1e3e 28b9 59be 938b ad3e cda6 3c3d
000000d0: a58d 3c3e ead6 213d 5bc9 76be 7f99 bd3d
000000e0: e595 75bc 70d1 0f3e 5850 6a3e 73b8 9fbe
000000f0: 8e41 2e3e 836f 6e3e d990 24bd 5b26 ef3d
00000100: 3180 3e3d 3a2a d2bd f6b1 d6be 7d7f 59be
00000110: 2a18 993d eb17 57be 9ed6 44bd 8077 6bbe
00000120: 6530 283e 143e cabd 7d0b 7e3e 2aa8 73be
00000130: d49b 9e3e 827c 8a3c 2cdf 1ebf dcba 453e
00000140: a1cd 67be c0f1 c43e dcbb 4dbe 0ba1 6fbd
00000150: ebf6 943e 8ed4 00bc 3bdf c33d f377 ad3e
00000160: 6af1 13be 59c4 013d 565d c63c 73e2 e9bd
00000170: edd8 a23e 657d 32be 5105 8f3e e2fd a23d
00000180: 7275 17bc 1f83 9fbe 4eee 48bd d737 ddbd
00000190: 7566 663e 6418 4fbd 0c57 94bd df17 49bd
000001a0: 9a8d 0dbe 2c95 c6be 657f 3abe 2b06 af3d
000001b0: 998a 29be f532 52be 073f 2b3e 26a5 9d3d
000001c0: d962 e23c a615 453e fadd 58be c9b7 f4bd
000001d0: 35e5 34bd 765a cb3e dcf2 81bb fe3c 603d
000001e0: e713 10bd 9a25 02bd 3be6 033e 35e3 543e
000001f0: 4e87 383e d257 413d 1460 403d bdf3 293d
00000200: 9c38 353e b191 40be 94f0 003d ca47 013c
00000210: 76ef 3d3d 4f6d 483d 5194 553e d16f 733e
00000220: c3c5 523e 9262 bfbd 3487 cfbd 9965 93be
00000230: b960 ac3e d087 f93d ed4f 5cbe 014a 8a3e
00000240: d0b8 9bbe c16a 14bf fc2c 0e3e ee4c 9b3e
00000250: f053 8f3e 3ac2 423e bffe 413e eb00 e53d
00000260: 8a57 eb39 1c6d 2dbe ead1 3a3e 8196 5d3e
00000270: 6199 4e3e 63e0 c53d 379a abbd 077b ad3c
00000280: 6e61 8d3c 4e8c 273e 8e7d f23d d135 833e
00000290: 6461 f9bd 07c8 593e 6ff8 393c 0792 6dbe
000002a0: b0e7 483e c0f2 713e a894 d23d 4d6b cabc
000002b0: 7a97 1ebc 6f79 55be 81ac f5bd 6bf6 5a3d
000002c0: 2b1d 813e 4650 823d aeb0 8cbe 8038 38bc
000002d0: 49e2 593e c5dc e6bd bd0a 4d3e 3c12 52be
000002e0: be1e 94be 0838 82bd 3838 3d3c 8778 1abe
000002f0: 0380 99bd a6a9 11be 872e 43be 9f10 833c
00000300: c404 8cbe 35a4 ecbc 481c c9be 7704 89be
00000310: 21cc f7bb c7ef acbd e9bd fcbd 5dfe 993b
00000320: 2259 4cbe aa21 f83d 8492 66bd 1cc9 3dbe
00000330: f71b 5e3c 8423 41bd a128 cfbe c41b e93c
00000340: 36f9 e3bd 162c 4d3d f770 90be 7f3d 60be
00000350: 7afa d6bd ed8c 053e 7519 26be 54f9 8abe
00000360: 6698 9bbe 04a7 61bd 6e26 84bd ced5 5fbd
00000370: 52b4 293d 2d86 11be 50c6 afbe d456 58be
00000380: 22e6 313e f295 2e3e 2de0 883c 1639 6bbe
00000390: e2ad 0f3e aa6b 733c 5ef4 393e 75dc 9b3c
000003a0: a289 713e 7b11 5ebe 6529 9b3d 8b11 35bf
000003b0: b0c5 8bbd 6618 87bc e229 d0bd 8f1f 323e
000003c0: c2fa 713d 04ca cdbe 05d1 84bd b44d 933e
000003d0: 5586 20be cebc 8abb 1c58 253e 9da0 c33d
000003e0: 9342 9a3e 2b07 8f3d 614c 4d3e 8d4a 9bbd
000003f0: e90e f4bd 5030 94be 09b4 4ebe 7151 85be
0.019616235 -0.2913883 0.06482674 0.42740574 0.010694845 -0.17166539 -0.27108288 -0.1709507
0.34464476 -0.10554167 0.118132465 -0.2792742 0.1430081 0.14454035 -0.0727487 0.16534187
0.15729055 0.22189274 0.13384715 0.001386319 0.0014032755 -0.16621786 -0.028012665 0.22542228
0.20931913 -0.23606491 -0.18282488 0.29079312 0.0105997 0.2546286 0.19174738 -0.26188055
0.09896327 -0.09326913 0.13576409 0.23576023 -0.009648047 0.24182013 0.03634609 -0.16934857
-0.13196655 0.19618072 0.084664956 0.084077224 -0.14743207 0.0044652196 0.15641122 0.14728847
0.1543351 -0.21262038 0.3389555 0.04605751 0.18413408 0.0395116 -0.24100249 0.09257793
-0.014989351 0.14044738 0.22882211 -0.3119541 0.17017195 0.23284726 -0.0401772 0.116772376
0.04650897 -0.1026196 -0.41932648 -0.21240039 0.07475312 -0.21005218 -0.048056237 -0.22994804
0.16424711 -0.09875122 0.2480907 -0.23794618 0.30978262 0.016905073 -0.62059283 0.19309562
-0.22637035 0.3846569 -0.20091194 -0.058503192 0.29094633 -0.007863177 0.09564062 0.33880576
-0.14447561 0.031681392 0.024214428 -0.11420145 0.31806126 -0.17430647 0.27933744 0.079585806
-0.00924431 -0.31154725 -0.04905539 -0.10801666 0.22500022 -0.05056037 -0.072431654 -0.04909503
-0.13823548 -0.38785684 -0.1821266 0.08546098 -0.16556777 -0.20527251 0.16723262 0.07697515
0.027635025 0.1924654 -0.21178427 -0.11949117 -0.0441639 0.39717454 -0.0039657187 0.054745667
-0.03517523 -0.03177414 0.12880795 0.20789798 0.18020365 0.047202893 0.046966627 0.041492213
0.17697376 -0.18805577 0.031479433 0.007890651 0.046370946 0.04893237 0.2085736 0.23773123
0.20583253 -0.09344973 -0.1013321 -0.2878845 0.33667544 0.12184107 -0.21514864 0.27009585
-0.30414438 -0.57975394 0.13884348 0.3033213 0.27993727 0.19019404 0.18944834 0.11181816
0.00044887915 -0.16936153 0.18244138 0.21639444 0.20175697 0.09661939 -0.083790235 0.021176828
0.017258372 0.16362116 0.11840354 0.25626996 -0.12176779 0.2126771 0.011350735 -0.23200236
0.19619632 0.23627758 0.1028226 -0.024709368 -0.0096796695 -0.20847104 -0.11995793 0.05345766
0.25217566 0.06362967 -0.27478546 -0.011243939 0.21277727 -0.11272577 0.20023628 -0.20514768
-0.28929704 -0.06358343 0.011549048 -0.1508504 -0.074951194 -0.14224872 -0.19060718 0.015999136
-0.27347386 -0.028886894 -0.3927939 -0.2676122 -0.007562176 -0.084441714 -0.1234091 0.004699512
-0.19955876 0.12115796 -0.056292072 -0.18533748 0.013556472 -0.04715301 -0.40460685 0.028455622
-0.111315176 0.05009087 -0.28211185 -0.21898459 -0.10496993 0.1304204 -0.16220649 -0.27143347
-0.30389708 -0.05509092 -0.064526424 -0.05464726 0.041431732 -0.1421134 -0.34330988 -0.21126872
0.17372945 0.17049387 0.016708458 -0.22970995 0.14031175 0.014857212 0.18159625 0.01902602
0.23587659 -0.21686356 0.07576255 -0.70729893 -0.06824815 -0.016491126 -0.101642385 0.17394851
0.059077032 -0.40193188 -0.0648518 0.2877022 -0.15676244 -0.004233933 0.16146892 0.09552119
0.30128917 0.06983789 0.20048667 -0.07582579 -0.119169064 -0.2894311 -0.20185865 -0.26038697

fc1.bias f4 [50]
00000000: 26c6 40be ed54 cd3e 461c 713e 9546 2cbe
00000010: d99e 08be 9b3a b53d 3fcc 8c3c eba1 2cbe
00000020: d630 c3be 094c 2ebe 9295 593e a17d 97be
00000030: 1122 043e 4e8b 4ebe 95d5 60bd 8a0d 2d3d
00000040: b463 6f3e 652c c7be f89a 8cbd f8e2 f53c
00000050: ce66 0f3f 932b f53c 7a22 2e3e 8d43 88be
00000060: 359f 8d3e 92e7 b03e a087 77bc b274 acbd
00000070: 85cc 5abe 3e5e 40be 3bdc 1ebc 8a6d a33e
00000080: 3bc0 cebe 0ef8 e83d 7406 f03d bc3d 68bb
00000090: a228 7cbe 9931 1ebe 9fdf c4be 0fff 54be
000000a0: 83d7 ebbe 9957 f9bc 0cf3 5dbd df86 093f
000000b0: 5700 fa3e 09e6 e6be 7ec4 153e 0c5f cfbd
000000c0: 958d 0b3d e521 fabd
-0.18825588 0.40103856 0.23545942 -0.168238 -0.13341846 0.08849069 0.017187236 -0.16858642
-0.38123196 -0.17021193 0.21248463 -0.29588035 0.1290362 -0.20170328 -0.054891188 0.04224924
0.23377877 -0.38901058 -0.068654954 0.030015454 0.5601624 0.029928004 0.1700534 -0.26614037
0.27660528 0.34551674 -0.015108019 -0.08420695 -0.2136708 -0.1878595 -0.009696062 0.3191951
-0.40381035 0.11375438 0.11719981 -0.0035437187 -0.24624875 -0.15448608 -0.3845186 -0.20800422
-0.4606286 -0.030437278 -0.054186866 0.5372142 0.48828384 -0.45097378 0.14625737 -0.10125551
0.03407057 -0.12213496
