JEDInet_HLS_30p/model_1/IN_kFold_30/IN_sumO_bestmodel_30p.params (torch, 13487 bytes, 18 tensors)

fr1.weight f4 [20, 32]
00000000: d116 e33c bb8b 0cbc d046 abbd 0bee 993d
00000010: cde8 833d e9f1 28bd be0a 4d3e 81cb c8bd
00000020: c2a6 cb3d 97df 893d c503 10bd 2a94 113e
00000030: 181f ddbf e409 1abf 74a3 b8bd 1877 033e
00000040: 9ee1 c6bd f177 bfbc b9b9 af3d a61c 41be
00000050: b21e d23c d30a 26be e655 9e3e 8102 e33d
00000060: 4d3a 80be 1195 913e 2329 683c e74c 77bc
00000070: 02b0 fcbe 4456 a9bf c413 cdbd 8ce7 2bbc
00000080: e529 603d 55dd a6bc 5933 d53c 96f5 9fbd
00000090: f1ef ffbe d6b7 033e bc54 96be 934d 15be
000000a0: a116 50be 8d49 96bb 5bad 703d 1008 573e
000000b0: e5d3 403e bd74 0940 8cde 4bbc 648c d939
000000c0: 1c4e 93bd b77f a2bc f19b a4bc a4ba ad3c
000000d0: f84a 0bbf cd70 9e3d a2be ddbe 995f d3bd
000000e0: c907 b1be 2def b33d daf8 b33d aafe 09be
000000f0: 3626 55bf ab8d a040 b513 06be fef4 18bd
00000100: 6bf3 2c3e 5ee3 3e3d 8278 01be 0268 a9be
00000110: 3b1d 023e 66ae 88be dc16 c73d 4ab1 3d3d
00000120: f2b5 043e 90de ef3d 4c52 6f3d 549c e4be
00000130: 1fd2 abbf 85e8 a13f 07b3 77bd b859 62be
00000140: 1cdf c23a 8595 5dbb b9f5 7c3b e35f c43a
00000150: 622a 973e 83b5 ccbb 504d 2d3e 1525 0cbe
00000160: 17f8 9fbe 138f 383d df2c dc3e 396c 743e
00000170: a50f 703f 1abf 10c0 48f3 1cbe f28a 5ebd
00000180: 5eb8 413d da1e 253d b73d 233d 3e7e 1ebe
00000190: 32d6 f7be e73a f4bd 2f6c 35be 2d80 8bbc
000001a0: eca9 9a3d 10d6 0c3e 29e4 efbd 78e7 3ebd
000001b0: 5ccd fd3e 69a9 033f 0bbb e73d bec6 d5bd
000001c0: 3ac6 10bd e705 0bbd 5d94 0fbd 80b6 1e3e
000001d0: 14aa 21be 659e b23a bad8 24be 0e9a 113d
000001e0: e4fb debd 39c3 2cbd a117 ad3d 7f7f 0c3d
000001f0: b19d 3ec0 5caa b340 6bfa 8abd 5dbb b5bd
00000200: fe8c 883c b568 443c 3d52 b03b 8818 853c
00000210: 8756 d2bf 175f 363d bf45 efbf 5fd7 1b3e
00000220: 255e 17be 1758 d93c 9c2c 3fbd 40f1 77bd
00000230: b0e9 823f ca0e a03f 8a8c 16be 261d 30be
00000240: bc38 4abc 7559 d8bb 52ed 0abd 3312 233d
00000250: 79c2 a9bf 38c6 a63d 4c8e b7bf 28f7 3e3e
00000260: 9b17 233d 2be2 70bd 5973 6e3d 2054 20bd
00000270: b82f 17bf faed 0b3f c3e7 d7bc a67d 553d
00000280: a289 a73a 8e89 4fbc 5128 6b3c c1dc 5abc
00000290: 38c4 b2be 1396 743c d122 c7be 17e6 3cbe
000002a0: 5ad0 2b3e aceb 5c3d 1025 373d a310 7d3b
000002b0: 72ca 11c0 0e3f 88bf 062b c9bc bd8c d43d
000002c0: c507 acbb b034 ea3b 8ec5 38bc b790 773c
000002d0: 93d8 e5be 9644 0cbc d8b2 dcbe 7092 8bbe
000002e0: dfa0 ffbe f913 6bbc 8347 d5bc a0a5 8abe
000002f0: 373f 853f ae1e 0fc0 7fca 9e3d 9575 4fbd
00000300: 04e6 873c b843 df3c 6dfa 553c 06da cfbc
00000310: 0e13 3f3f 1af1 91bd be4f d43e 1bbc 74bd
00000320: d997 573d a235 193e 8b36 8bbd e2c9 6a3d
00000330: 5a32 4a3e 7793 dcbf fa58 c53d 8937 ecbd
00000340: d4c3 1fbc 8a89 76bc 95a8 b4bc 004b 933d
00000350: fb2a 8a3e f3d8 173c 3189 dd3e d99a 1c3e
00000360: 507a c1bd 99a3 133c 9121 543d 604a d63b
00000370: 86f1 1340 e576 cfc0 4798 9abd c174 43bd
00000380: 296a f1bc e98e ffb9 b79d f13c 6c23 65bd
00000390: 3e65 efbe f10b d1b7 0945 1fbf c416 36bc
000003a0: d69c 473d 0471 f33d 41db 7abd 08cf c2be
000003b0: 0c09 963e 75fe 0540 a087 0abe b9c6 44be
000003c0: 72e5 8f3d c78d cb3d d854 86bd 7661 0b3e
000003d0: e17a dabe a3fb c93d e7e4 dbbe e6b9 443e
000003e0: b88f 69bd f3f2 093e e8d6 99bc 4fa6 a13e
000003f0: 8cc2 b3bf f615 b940 ac52 5abc 4131 8d3d
0.02772084 -0.008578236 -0.08363116 0.07516106 0.064408876 -0.04124633 0.20023629 -0.0980444
0.09943916 0.067320995 -0.035159845 0.14216676 -1.7275114 -0.6017134 -0.09015551 0.128384
-0.09711002 -0.023372622 0.08580346 -0.18858585 0.025649402 -0.16215067 0.3092491 0.11084462
-0.2504448 0.2843404 0.014169964 -0.015094019 -0.49353033 -1.3229451 -0.100135356 -0.010492217
0.054727454 -0.020369211 0.026025461 -0.07810514 -0.49987748 0.12863097 -0.29361522 -0.14580373
-0.20321132 -0.0045864047 0.058759075 0.2099917 0.18830831 2.1477501 -0.012443196 0.00041494064
-0.071926326 -0.01983629 -0.02009389 0.021207161 -0.5441127 0.07736359 -0.43309504 -0.10320968
-0.34576252 0.087858535 0.08787699 -0.13476053 -0.8326143 5.0172935 -0.13093455 -0.037343018
0.16889732 0.046603553 -0.12643626 -0.33087164 0.12706463 -0.26695555 0.09721157 0.046311654
0.12960032 0.11712372 0.058428094 -0.4465052 -1.3423499 1.2649084 -0.06047347 -0.22104537
0.0014867517 -0.0033811044 0.003859861 0.001498219 0.29524523 -0.006247224 0.16924024 -0.1368602
-0.31243965 0.04505832 0.43002984 0.23869409 0.9377387 -2.261664 -0.1532718 -0.054331727
0.047294967 0.040312625 0.039853778 -0.15477845 -0.48405606 -0.11925297 -0.1771705 -0.017028892
0.07551941 0.13753533 -0.1171344 -0.046607465 0.4957074 0.51430374 0.113149725 -0.10438298
-0.035345294 -0.033941176 -0.0350536 0.15499306 -0.15787536 0.0013627528 -0.160983 0.03554731
-0.10887888 -0.042178366 0.084517725 0.034301277 -2.9783747 5.614546 -0.06786045 -0.08873627
0.016668793 0.011987855 0.0053808973 0.016247049 -1.6432656 0.04452428 -1.869316 0.15218876
-0.14782007 0.026531262 -0.046673402 -0.06053281 1.0227566 1.2504513 -0.14702049 -0.17198619
-0.012342628 -0.006602461 -0.033917733 0.039812278 -1.3262473 0.08143276 -1.43403 0.1864897
0.039817434 -0.05880944 0.058215473 -0.039142728 -0.5905719 0.5466 -0.02635563 0.05212178
0.0012782107 -0.012667073 0.014352874 -0.013358296 -0.34915328 0.014928359 -0.3889375 -0.18447147
0.16778699 0.05393569 0.04471308 0.0038614653 -2.2779813 -1.0644243 -0.024556648 0.10378406
-0.0052499496 0.007147394 -0.011277569 0.015110186 -0.44891796 -0.008561274 -0.43105197 -0.2726016
-0.49927422 -0.014348024 -0.026035076 -0.27079487 1.0409917 -2.2362475 0.07753467 -0.050649244
0.016589172 0.02725397 0.013060194 -0.025372516 0.7463845 -0.071260646 0.41467088 -0.059749704
0.052635048 0.14961866 -0.067975126 0.057321437 0.1974577 -1.7232503 0.096361116 -0.1153403
-0.009751279 -0.01504744 -0.022053042 0.071920395 0.26985916 0.009268033 0.4326873 0.15293445
-0.094471574 0.009011173 0.051789824 0.006539628 2.3116164 -6.4832635 -0.07548576 -0.047718767
-0.029469566 -0.00048743867 0.02949415 -0.055941984 -0.4675693 -2.4920302e-05 -0.62214714 -0.011113826
0.048733555 0.118867904 -0.061244253 -0.38048577 0.29303777 2.0936558 -0.135283 -0.19216432
0.07026185 0.09939151 -0.065591514 0.13611397 -0.42671874 0.09862449 -0.42948076 0.1921154
-0.057021827 0.13471584 -0.018779233 0.31572196 -1.4043746 5.783931 -0.013325375 0.0689416

fr1.bias f4 [20]
00000000: ac19 ff3e da34 dfbe 7eab d03f 3710 84be
00000010: 4323 1abf dda9 383f d73a ed3e 5bcb bebe
00000020: 993f 20bf dcf4 ce3d 09c7 883e 71b3 88bd
00000030: 157c ed3e a65e 7d3e 4b4a a2be 65cd e23e
00000040: 59c0 b13e 6fe1 553e 3686 c53f c600 6d3f
0.49824274 -0.4359501 1.6302335 -0.2579362 -0.60210055 0.7213419 0.46333954 -0.37264523
-0.6259704 0.10105297 0.26714352 -0.06674851 0.4638373 0.24743137 -0.31697306 0.4429733
0.34717062 0.20886777 1.5431583 0.92579305

fr2.weight f4 [10, 20]
00000000: 0a45 9fbe 9146 863d 6cc7 34ba c5b8 383e
00000010: b951 b4bd 4892 d93d 9154 683d c82f d43d
00000020: e963 913c c87c 5a3d 667a 95be b9f2 193e
00000030: da72 003c 0626 f53c 209c b03d cf78 d03d
00000040: 6e68 75be e5ec 8dbd 8ee3 55be 45f9 86bd
00000050: 5aeb fb3d 5bcc 853b 7522 a73b f633 f03d
00000060: 246c 233e f4b9 393d 00c3 95be e1c3 e43d
00000070: e3d9 463d 7999 eabd da2f 16be d96c bc3d
00000080: 7050 e2bd cf74 a4bb c7c5 1a3d 4424 e4bd
00000090: 32df 6dbd 3059 263d fb5c 7a3e 1663 b3bd
000000a0: 6200 ffbe c3e2 06be f86c 01bc 7c38 973d
000000b0: 0c52 56bc 091a 88bd 50bb 143e 578e f7bd
000000c0: 0c13 893d a388 853c d8a7 583d 8b86 873e
000000d0: 0b43 313e 484e 083d 72d7 c8bb 82e9 1a3e
000000e0: a169 403e d649 3abf d9d5 8b3e 0ae4 443d
000000f0: 9452 5dbe c9e5 673c aede 193d 4dc7 453e
00000100: 7a9a 8b3d 8c7b 093e 50ef 4ebe ef2d 46bc
00000110: 72b2 bebd adff 04bd 46b2 3abe ad05 843e
00000120: f2bb e53c 7882 99bd 8e7b 243e 9756 28be
00000130: 7ce0 05be 0546 89be 0171 453e 6c7b 81be
00000140: 4218 403c db54 0dbb 484a 8e3c 7174 84bd
00000150: b35d f1bd f039 f2bd 43cb 843e 0b11 0bbe
00000160: 7c32 1d3e e1ea 9bbd 3c15 113e 1d41 e53d
00000170: c388 dc3d 5ca5 a9bd da48 10be 9531 b7bd
00000180: 4079 3d3e 9e3a be3d bb12 e83e 5572 9cbe
00000190: 6359 b6bd 0131 fd3d f941 203d a30b 22be
000001a0: f718 acbe 26e3 27be de45 2cbf 0131 a93d
000001b0: bbb4 92be 585b 6c3d 3bc7 5abe a33b a63e
000001c0: 58d7 1dbe 3771 a93d 23f1 353e 08ee 483e
000001d0: d6ed 2cbe 130a 693d 15f7 42be 9003 513e
000001e0: 3a16 1fbe 5e6a dabc 5c6d 483d bed7 953d
000001f0: c784 093e ea59 c3bc eb0b 3c3e a86a 1fbe
00000200: 47bd 03be 7c31 983d cefc e93c ce60 323e
00000210: 09c4 393e 01d7 163d 9adb b4bd 271f 2c3e
00000220: f469 10be 9b2c 8ebd dfd3 9cbe 50d2 2bbc
00000230: 22a8 5c3d 9364 7b3e 2687 8b3d d39e 99bd
00000240: fe93 ab3d 9b7b 17be 288e 5abe b527 723e
00000250: 1dbe d73d 49d3 dabc 8061 b1be 082b 96bd
00000260: 78f8 14be 1e91 8f3d 20ee 823e f5ab 68bb
00000270: a107 fc3b f5f0 cbbd 2e8d 9abc bfd7 883e
00000280: d408 75be c829 d63d e4a7 19bf 96b8 2f3e
00000290: 079a 073e 7ee7 dcbd 0418 a2be 0751 4e3e
000002a0: a108 e43d 851b 6dbd f4ec 5cbe 130f 6e3d
000002b0: 802e 06be 14e4 2fbe e697 ca3d 0a19 d5bd
000002c0: 3886 92be 7a5f d4bb ed08 24bf b088 0abf
000002d0: 85b1 b9bd 4828 f0bd 397f 8ebd a344 12be
000002e0: 9d34 763e c5ff 073d f310 2c3e 967f 7bbe
000002f0: 4014 043e d5ad cebd fb30 a93e 4c0f 893e
00000300: c496 583e 406f 0cbe c900 8b3d 572f 0cbe
00000310: ae7e 7b3e 1f33 29be 63cd f7bc 4cd2 ddbd
-0.3110736 0.06556428 -0.0006896171 0.18039234 -0.0880465 0.10623604 0.056721274 0.10360676
0.017747836 0.053341657 -0.29194945 0.15033998 0.007839883 0.029925358 0.086235285 0.101792924
-0.23965618 -0.0692995 -0.20887586 -0.06590513 0.12300749 0.004083199 0.005100543 0.11728661
0.15959221 0.045343354 -0.29250336 0.111701734 0.048547637 -0.11455054 -0.14666691 0.092004485
-0.110504985 -0.0050188075 0.03778627 -0.111397296 -0.058074184 0.0406124 0.24449532 -0.087591335
-0.4980498 -0.1317244 -0.007899515 0.073838204 -0.013081085 -0.06645591 0.14524579 -0.12087696
0.06693086 0.016300505 0.052894443 0.26469836 0.17310731 0.03327778 -0.0061291987 0.15128139
0.18790294 -0.72768915 0.2731159 0.048069037 -0.21613532 0.014153906 0.03756588 0.19314308
0.068165734 0.13426036 -0.20208478 -0.012095912 -0.093113795 -0.032470394 -0.18232068 0.2578558
0.02804372 -0.07495588 0.16062757 -0.16439281 -0.13073915 -0.26811233 0.19281389 -0.25289476
0.0117245335 -0.002156547 0.017369404 -0.06467522 -0.1178545 -0.11827457 0.25936326 -0.1358072
0.1535129 -0.07613159 0.14168257 0.1119406 0.10768273 -0.08283493 -0.1409029 -0.08945004
0.18503284 0.09288524 0.4532679 -0.30555978 -0.08903768 0.123628624 0.039125416 -0.15824752
-0.33612797 -0.16395244 -0.6729411 0.082613 -0.2865351 0.0577043 -0.21365063 0.32467374
-0.15414178 0.08273547 0.17767768 0.19622052 -0.16887602 0.056894373 -0.19039567 0.20411515
-0.15535823 -0.026662048 0.04893242 0.0731654 0.13429557 -0.023846585 0.18363921 -0.1556803
-0.12865172 0.074313134 0.02856293 0.1741974 0.18141188 0.036826137 -0.08830948 0.16808759
-0.14102918 -0.069421016 -0.30630395 -0.010487154 0.05387128 0.24550085 0.06812887 -0.075009964
0.08377837 -0.14793245 -0.21343291 0.2364796 0.10534308 -0.026712077 -0.346447 -0.07332426
-0.14547908 0.07010101 0.255723 -0.0035502885 0.007691339 -0.09958068 -0.018866148 0.267271
-0.23929149 0.10457188 -0.60021806 0.17160258 0.1324235 -0.10786341 -0.31658947 0.20148097
0.11134458 -0.057887573 -0.21574765 0.058119845 -0.13103676 -0.17176849 0.098922536 -0.104051664
-0.28618026 -0.0064811083 -0.6407612 -0.5411482 -0.09067062 -0.11726433 -0.069578595 -0.14283995
0.24043508 0.033202905 0.1680334 -0.24560389 0.1289835 -0.100917496 0.33045182 0.26769483
0.21151263 -0.13714314 0.06787259 -0.13689934 0.24560043 -0.16523407 -0.030249303 -0.108311266

fr2.bias f4 [10]
00000000: 3f7e 2bbe 13a5 65bd 1cdd ea3e c4e0 bf3c
00000010: fc14 ad3e ac02 9c3d e616 f53e 50b6 39be
00000020: 3728 0fbf 4ade 3c3d
-0.16747378 -0.05606563 0.45871818 0.023422606 0.33805072 0.07617697 0.47869033 -0.18135953
-0.5592074 0.04611043

fr3.weight f4 [8, 10]
00000000: 41a6 e03e 264b 80bd f8eb 05be 135d ddbd
00000010: 66e6 1abd 03df 563e 38ec e7be 7c1c 8e3d
00000020: 25be ed3e 4f5f 01c0 1ff1 933e 9bd2 dc3d
00000030: 621e 1bbe 5426 7e3d ce6e 84be d3f5 433e
00000040: 0acd ba3d 4323 863d facf 94be 79e6 19be
00000050: d404 8c3e fecb 853d 1ce1 72be 1958 803e
00000060: 2461 9fbd d47d af3d ec23 74bb 4293 1f3e
00000070: d3b0 eebd a64f df3d 1ae6 203e 46ef 3c3e
00000080: d955 39bd 5f09 763e aedc 94be 0d87 a3bc
00000090: c277 fd3d 1e6a 703e dca3 913f 137e adbe
000000a0: 4676 4abe 076c 97bd 4043 183e 02c1 5b3e
000000b0: bc52 c7bc 8a68 5bbf cebb fe3d 910c 3d3e
000000c0: e3d8 d8bd 4032 273c 79f9 14be ad13 f7bd
000000d0: 8ecf 37bd 5241 913d 091a 61bd 6f3c 47bf
000000e0: e045 103e 4a6a 543c 6778 d9be a86e a03e
000000f0: f70d c23e 7c04 6d3e 8aef bdbe 7989 e2be
00000100: c4eb a83e 3ae0 853e e13a 42be 1f2d 4dbe
00000110: 24b9 313e 37eb afbe 6547 683d dce2 65be
00000120: 4ca5 30be 8de1 8dbe be57 6fbe 5c5b 8c3d
00000130: 7a97 ac3e 5861 283e 7ee9 f63e faf1 e83d
0.43876842 -0.062643334 -0.13078296 -0.10808768 -0.03781738 0.2098351 -0.45297408 0.06939027
0.4643413 -2.0214422 0.28894898 0.10782357 -0.15148309 0.06204827 -0.25865787 0.19136743
0.09121139 0.065496944 -0.29064924 -0.15029325 0.27347434 0.06533049 -0.23718685 0.25067213
-0.077822 0.08568922 -0.0037252856 0.15583518 -0.1165482 0.109038636 0.15712777 0.1845065
-0.045247886 0.24027012 -0.29074615 -0.019961858 0.123763576 0.2347798 1.1378131 -0.3388525
-0.1977168 -0.073936515 0.14869404 0.21460345 -0.024331443 -0.8570639 0.12438165 0.18461825
-0.10588243 0.010204852 -0.14548291 -0.120643 -0.044875674 0.07092537 -0.05495647 -0.7782659
0.14089155 0.012964794 -0.42474672 0.31334424 0.3790128 0.23146242 -0.37096816 -0.44245508
0.32992375 0.26147634 -0.18967773 -0.20036744 0.17355782 -0.34359142 0.056708712 -0.22449821
-0.17250556 -0.27711144 -0.23373315 0.06853363 0.33709317 0.16443384 0.48225015 0.11374278

fr3.bias f4 [8]
00000000: 10ad 64be 0457 be3e 0a97 f7be cb68 eb3d
00000010: f20d b83a 2a50 06bd e0a6 8f3e 537a 713e
-0.22331643 0.37175763 -0.4835742 0.11494597 0.0014042242 -0.032791294 0.28057003 0.23581819

fo1.weight f4 [20, 24]
00000000: a405 8a3b 0514 92bb 367c d73a bdfc 07bd
00000010: 0bf0 61c0 9612 dbbc 64b1 58c0 ac25 0bbe
00000020: f16d b9bc 7694 853c fc1c 8c3c d3b2 97bd
00000030: a92e 66be 6166 8e3f edea 0d3e 3619 073e
00000040: e68c 2e3e 905c 203c 3908 a83d 8a2b 8a3c
00000050: 45e7 f33d 9a80 b83d 7279 7bbf 4a68 9e3d
00000060: 2c34 03be 8715 8dbd d65d db3d 1ffa e3bd
00000070: 96df 72be 33a5 aabc 19da b33d c915 d9bd
00000080: 6187 253e b995 0ebf 17a2 12bf 95c2 8fbd
00000090: 46ac 013f f370 5ebb c417 ccbd e365 b2be
000000a0: f971 13bf 3470 98bc 355f 31be 075a eabc
000000b0: bea5 7abe 088e cfbd 054c 13be 8eba 6c3e
000000c0: 8681 123c 6059 cf3a be77 24bd dc42 ffbd
000000d0: 5aa7 9dbe 8b20 c13d 2c6f 3ebe 3c36 773e
000000e0: 7b2f 953a f6d6 afbd 4949 88bc 73fe 4cbd
000000f0: aef3 04bf 3f21 b23e d3f6 373e 0b81 61be
00000100: f344 f7bd 8d86 e83d d34d a03b 38fe 073e
00000110: 2fbc 50be 1c01 82be 5625 dabd ffe8 acbe
00000120: b3c0 f63c 3f40 3a3d ae91 75bc eb6f 113e
00000130: 6446 a2bf e2e1 413e 3c22 b1bf 9871 3d3e
00000140: 696a 09be 9f1f a23c 1382 13be 37cd 133f
00000150: 09c4 333f e1fe 5040 ef96 d93d 2e34 0a3d
00000160: 7c99 f3bf 0407 15be 0fff a73d 26de 7abd
00000170: 7406 6f3d 91cc 02be e61b 18be 82bf 63be
00000180: 267c e3ba 643f edbb 3571 3e3b a856 b03d
00000190: b4b2 853f 57b4 17be dee0 6e3f 72de 06bd
000001a0: c72f 1c3f ddf4 a43c 058f 503d b0fb 8c3e
000001b0: 82e8 4abf 983c 0940 44b9 bc3c 13ce 3a3e
000001c0: ff15 1d3d 8a80 c33e eb6b 47be 94f7 45bc
000001d0: c7af 5bbc b819 90bd dd9a f3bb 5eda 71be
000001e0: 6f16 853c c4c4 fcbc 6738 62bb fd51 ae3b
000001f0: 88d6 b5bd 40f9 643d 68c9 cdbe d6b2 983d
00000200: b38f 4cbd e82e 943d d469 85bb 0f5b 073d
00000210: 06c9 bdbf feb8 5040 e7b4 473e 3d6f 613e
00000220: 9396 c3bd 8b14 d7be 3f7f 073e 1745 933e
00000230: a809 1f3e a6e3 2fbe 10ce 5dbd ec14 193e
00000240: 8ad9 4d3c 1be7 d73c ab27 3f3b 4f09 1a3e
00000250: 6ede 953f 3f40 f1bd 37ea ae3f d4ad acbd
00000260: 1d04 1cbf 2aed 243f ec5c ecbd 085e 723e
00000270: 2f87 c23f 8f81 0340 cefd 83bc ee0d a03e
00000280: 72ae c4bd d196 97be 3a49 eb3d 8cde 443e
00000290: d3f3 9bbe ed34 3fbe c19a bc3c 7287 453e
000002a0: 773f 2fbb 56da c73b 51c0 033c 59e1 c03d
000002b0: 7680 05bf 2343 e93d d591 e4be 5d3f 32be
000002c0: 10be 103e 3e71 973d b386 093c 6079 7a3d
000002d0: c957 5e3f 3ff7 8140 1c02 1bbe 6201 f0bd
000002e0: 7021 5fbe 3633 843a 77ad 13be ec95 513e
000002f0: 17b2 09be 8d3b cdbd 60d3 f9bd df47 063e
00000300: f578 eb3b d09f db3c 5936 7fbb 351d 823d
00000310: 75ed eeba 6c34 053e 236e 253e 11dc 5ebe
00000320: 6b55 013e 72e6 333e 2091 cfbb 8e41 28bd
00000330: bdbf 24c0 7b93 1240 1544 04be d8b0 78bd
00000340: 690f 39be 05fa 1a3e e6a9 493e 3309 113e
00000350: 220f 4ebe 1264 4e3d 053b f4bd 868b 9b3d
00000360: 1095 933a 092d 5cbb 5935 26bc 01c6 5ebd
00000370: 5cc0 0bbf 0be4 193e a58e 40bf dff7 253d
00000380: cae8 a23d 2623 763d 6f9b a0bc 46c7 973d
00000390: 3e0d f63e 24e2 47c0 0954 0fbd 6f5e e7bd
000003a0: 33b1 c73e 9810 5d3e a174 883d 82dd 54be
000003b0: aadc a63d edca 833e ee50 b5bd 06d3 40be
000003c0: 2911 103c bf21 28bb 1c44 83bc b064 f73b
000003d0: 385f 1340 a999 25be 7098 1b40 de6b f23d
000003e0: 97ed afbe 342c 9ebd 570d 74bd 480c b2be
000003f0: 1997 d1be 1640 05c0 bde0 e73d 4241 91bd
0.004212098 -0.004457953 0.0016440216 -0.033200014 -3.530276 -0.02674226 -3.385827 -0.1358859
-0.022635432 0.016306143 0.017103665 -0.07407155 -0.22478737 1.1124994 0.13859148 0.13193211
0.17045936 0.009787694 0.08204693 0.016866464 0.119093455 0.09008904 -0.98232186 0.07734735
-0.1281287 -0.06888872 0.10711257 -0.11131691 -0.23718104 -0.020830726 0.08781833 -0.10599858
0.16164924 -0.5569721 -0.5727858 -0.070195355 0.50653493 -0.0033941835 -0.099654704 -0.34843358
-0.57595783 -0.01860819 -0.17321475 -0.028607382 -0.24477288 -0.10134512 -0.14384468 0.2311804
0.008942014 0.0015819483 -0.040153258 -0.12463924 -0.30791742 0.09430035 -0.18597096 0.24141783
0.0011381948 -0.085859224 -0.016636508 -0.05004735 -0.51934326 0.3479099 0.1796525 -0.22021882
-0.12073698 0.113537885 0.00489209 0.1328057 -0.20384286 -0.2539147 -0.106516525 -0.33771512
0.030121183 0.045471426 -0.014988346 0.1420285 -1.2677732 0.18933824 -1.3838573 0.18500364
-0.13419499 0.019790469 -0.14405088 0.5773501 0.70221 3.2655566 0.106244914 0.03374117
-1.9031215 -0.14553457 0.082029454 -0.061247014 0.058355764 -0.12773348 -0.14854392 -0.22241023
-0.0017355725 -0.0072402228 0.0029059176 0.08610278 1.0445161 -0.14814888 0.9331187 -0.032926984
0.610104 0.020136291 0.050917644 0.27535772 -0.7926103 2.1443233 0.02303756 0.18242674
0.038351055 0.38184005 -0.19474761 -0.012082953 -0.013408608 -0.070361555 -0.0074342326 -0.23618457
0.016246049 -0.030855544 -0.0034518482 0.0053198324 -0.08878809 0.055901766 -0.40192723 0.07455985
-0.04994173 0.07235509 -0.0040714536 0.033045825 -1.4826972 3.261291 0.19502603 0.2201509
-0.09550204 -0.4200786 0.13232134 0.2876365 0.15531027 -0.17176685 -0.054151595 0.14949387
0.012564072 0.026355317 0.002916793 0.15042613 1.1708505 -0.11779832 1.3665227 -0.084315926
-0.60943776 0.64424384 -0.11541161 0.23668683 1.5197505 2.0547826 -0.016112234 0.31260628
-0.09603585 -0.2960725 0.11488576 0.1922552 -0.3045946 -0.18672533 0.023023011 0.1928995
-0.002674071 0.0060990257 0.008041457 0.09417982 -0.5214914 0.113897584 -0.4464251 -0.17406984
0.14135003 0.07394646 0.008393931 0.06115091 0.868527 4.0614314 -0.15137523 -0.11719014
-0.21790099 0.0010086063 -0.1442164 0.20467347 -0.13446842 -0.10021124 -0.1219852 0.13113354
0.00718605 0.026809603 -0.0038942306 0.06353227 -0.0018228727 0.13008279 0.16155295 -0.21763636
0.1263024 0.17568377 -0.006334439 -0.041078143 -2.5742028 2.2902515 -0.12916596 -0.060715526
-0.18072285 0.15134437 0.19693717 0.14163665 -0.2012296 0.050388403 -0.119253196 0.07594971
0.0011259634 -0.003359618 -0.010144555 -0.05438805 -0.5459039 0.15028398 -0.7521766 0.04051959
0.07954557 0.060092114 -0.019605367 0.07411055 0.48056978 -3.1231775 -0.03499225 -0.11297309
0.3900238 0.21588361 0.0666287 -0.20787624 0.08147557 0.25740758 -0.08853327 -0.18830499
0.008793154 -0.002565488 -0.016023688 0.0075498447 2.3026867 -0.16171898 2.431179 0.1183698
-0.34360954 -0.07723275 -0.059583034 -0.34774995 -0.4093559 -2.0820365 0.11322162 -0.07092525

fo1.bias f4 [20]
00000000: 8a37 61be 3117 923e dfdd 04bd 9a65 d6be
00000010: 200b 9fbd 607b 04be 0fd4 603e 7391 01be
00000020: 960a b0be 93af e3bc 18c6 c33d 88bd 283f
00000030: 7863 d9bd ff06 f33d f77d d4be 4021 2b3e
00000040: bdd6 033e b29d 8bbe 3d6b 99bd 8619 c63c
-0.21993843 0.2853332 -0.032438155 -0.4187439 -0.07765794 -0.12937689 0.21955894 -0.1265314
-0.34383076 -0.027793681 0.09559268 0.659142 -0.10614675 0.11866569 -0.41502354 0.16711903
0.12874885 -0.2726875 -0.07491157 0.024182092

fo2.weight f4 [10, 20]
00000000: 2ee6 b7bd 83af 833e c335 923e 2089 ec3c
00000010: e484 063e f674 933e 3638 423e 6828 843e
00000020: 30e4 2e3e e6ee d7bd a5e5 f23c 75c3 53be
00000030: 8afb ecbd 4ff8 ecbd 106a 0b3d fcab 8a3e
00000040: 332f 4c3e 14a3 533c f819 9a3c 29c7 7cbe
00000050: 111b 153f 0b9f d23e 9343 973e b78b 4b3e
00000060: 9b93 133e 0bad f6bd 943d aebd a41a 17be
00000070: 107f 54be 9126 0ebd 9713 803c 44f3 593e
00000080: ad96 553d f9b9 8f3c d1d7 4c3d 528a 933d
00000090: 9935 923e c5cd f03d ff7e 5ebe 7168 42bd
000000a0: 4d12 b3bd bb14 e7be 6c43 0cbf 2778 6ebd
000000b0: fcc3 0c3e 422d f9bc 0b01 3c3e a640 ab3c
000000c0: 845f b03d e59d f4bd c7f9 0d3d f512 003f
000000d0: d570 063b 53d1 b7be e5a2 4a3d 7d0d 143e
000000e0: e3d2 613a a9d7 bdbd e228 0c3e 617d 87bd
000000f0: 46fe 0d3c 4919 a23d 77da a8bc f917 a63c
00000100: dbaf 773b 2ac4 6fbe ea6e 5ebc 9b6c 20be
00000110: 50be bb3d 6c29 263e 2a23 833e 659f 2fbd
00000120: e56b 6f3d 2aa5 90bd c9bb 7a3d be8b 233e
00000130: dc65 3dbe 851c f43d a7f0 b1bd f8a4 433e
00000140: 6586 bdbe 0ec3 6ebd 1d1a b9bd 73fc b6bd
00000150: 47b7 763d 1304 163e b1c9 763e a430 88bd
00000160: e77f 19be 90ea 0cbe da7c 90bd 0952 3b3e
00000170: 7098 30bd b164 963e 3082 8d3c ff03 923e
00000180: 722b 7d3c c16c 103e e188 453e 0a7a 19bd
00000190: b998 7cbe 248e 143d e06a 18bd 0526 31bd
000001a0: 451c 893c 78f8 da3c ba3b 0f3e 471d 40be
000001b0: 5a2f 003e ab5b db3d 72de 73be 935a 06bd
000001c0: c146 243e e889 dc3d 661b d73c b05b ae3c
000001d0: 872b 8f3d f0f5 b03e 0166 a8bc 7ab7 8f3e
000001e0: 4a0a bd3e c6e5 1e3e ba2f 4c3d 9caf dd3d
000001f0: ea10 9cbd 10e4 cfbc 076f cc3c 3784 b23d
00000200: b8bd d6bb 7e1f 023e dcae 4abe 1abf c5be
00000210: 32ff 1f3e 10ca 36be 7a93 193e f657 773c
00000220: 4d77 4abe b048 f7bd 2df6 44bc 9591 27bc
00000230: bd58 263e 486e a33e 80ce a73e 3922 c23d
00000240: 83c8 a93e 34ef ac3e 028d 02be 4940 98be
00000250: daf7 ba3d ea07 ef3d 3c85 adbd aa4d c63e
00000260: fcef 36be b85e 20bd 1ad9 983d 4618 173e
00000270: 7b74 163f 30d1 8ebc 9d58 3d3d 7b64 0ebc
00000280: 31bf c5bd b497 9b3d 218e e03b d118 8e3d
00000290: 905b 14bc 99e4 de3d 00ea db3d 30f5 bf3c
000002a0: 8bac 4d3e 16df a9bd 1ca6 5f3e cb6c 1d3d
000002b0: fb6f 963e 8cba 823d 745b 7e3e efde 2d3e
000002c0: c254 fa3d 50f4 f13c f20e afbd 0a2b 4dbd
000002d0: f43a eebd 24e5 cabe d1e6 acbe 880c 37bd
000002e0: c3e7 fc3c ac84 85be b85a 9f3d aea3 c7be
000002f0: a616 25bd a05a a1bc 5265 dc3d 363d 453e
00000300: 7f38 1b3e 59b9 d9bd 071c 933a 723d 7c3d
00000310: f065 1c3c 1870 b43d 2287 2fbe f17e 4c3e
-0.0897945 0.25719842 0.28556642 0.02887398 0.13136631 0.28800172 0.18966755 0.25812078
0.17079234 -0.10543613 0.029650519 -0.2068003 -0.11571415 -0.115707986 0.034036696 0.2708434
0.1993988 0.012917299 0.018811211 -0.24685349 0.58244425 0.41136965 0.29543743 0.19877516
0.14411776 -0.12044724 -0.08507839 -0.14756256 -0.20751595 -0.03470475 0.015634341 0.21284205
0.05214565 0.017544733 0.050010506 0.07204117 0.28556517 0.117579974 -0.21728133 -0.047462884
-0.08743725 -0.45133004 -0.5479038 -0.058220055 0.13746637 -0.030417088 0.18359773 0.02090485
0.08611968 -0.119441785 0.034662034 0.50028926 0.002051403 -0.3590189 0.049471755 0.1445827
0.00086144934 -0.092696495 0.1368747 -0.06615711 0.008666581 0.07914979 -0.020611985 0.020275103
0.0037794027 -0.23414674 -0.013576249 -0.1566643 0.091671586 0.16226739 0.25612766 -0.04287662
0.058452506 -0.070627525 0.061214242 0.15971276 -0.18495888 0.11919502 -0.08688479 0.191059
-0.37016597 -0.058291487 -0.09038184 -0.089348696 0.06023338 0.14649992 0.24100377 -0.066499025
-0.14990197 -0.13761353 -0.070550635 0.18293013 -0.043114126 0.29373696 0.017273992 0.28518674
0.015452253 0.14103986 0.19290496 -0.0374699 -0.24667634 0.03626837 -0.0372113 -0.04324915
0.016737113 0.026729807 0.13987628 -0.18761168 0.12518063 0.10710844 -0.23815325 -0.032801222
0.16042615 0.10768491 0.026258182 0.021283954 0.06990724 0.34562635 -0.020556452 0.2806967
0.36921912 0.15517339 0.049850203 0.108245105 -0.076204136 -0.025377303 0.024955286 0.08716624
-0.006553378 0.12707326 -0.19793266 -0.3862236 0.15624693 -0.17850518 0.14997664 0.015096655
-0.19772072 -0.12074411 -0.0120215835 -0.010227581 0.16244788 0.31920075 0.32774734 0.09479184
0.3316079 0.33776248 -0.12749103 -0.29736546 0.09129305 0.11671431 -0.08472678 0.38731128
-0.17864984 -0.03915283 0.07463284 0.14755353 0.58771485 -0.017433733 0.046227086 -0.008690949
-0.096556075 0.075972944 0.0068528806 0.06938327 -0.009055033 0.10883445 0.10737991 0.023432344
0.20085351 -0.082945034 0.2184071 0.03843383 0.2938231 0.06383237 0.24839574 0.16979574
0.122231975 0.029535443 -0.085477725 -0.050089873 -0.11632338 -0.39627945 -0.3376985 -0.044689685
0.030872231 -0.26077783 0.07780975 -0.38992065 -0.040304802 -0.019696534 0.10761513 0.19261631
0.1515827 -0.106310554 0.0011223563 0.061582036 0.009545788 0.08810443 -0.17141393 0.199703

fo2.bias f4 [10]
00000000: 6da5 dfbc 2f50 03bf 3c3e f63e 03c1 353e
00000010: 7236 8cbd 33dc 863d b3d9 0cbe 2aee 9cbd
00000020: a8db 9bbd 3c5b b13e
-0.02730056 -0.51294225 0.48094356 0.1774941 -0.06846322 0.065849684 -0.1375492 -0.07662614
-0.076102555 0.3463992

fo3.weight f4 [6, 10]
00000000: 4518 8ebf c694 5a3f 47b1 03bd 2ce0 d03d
00000010: 72b6 b83b c980 c4be d183 f1be 77e9 973e
00000020: 60d3 bd3e 3a02 05bf 5279 ffbe 1b8b 2e3f
00000030: 034d 80bf 259c 11be 24d9 ecbc b6bb 9fbe
00000040: b636 963d 2307 1bbf 45d1 00bf bb8e 97be
00000050: d827 0ebe d13c 86bd 37af 063d 940a 4d3e
00000060: 1753 45bd 908f 493e 943c 893e 420e d6be
00000070: 1e91 7abe d7d0 5b3e e6cb 90bc 2557 683e
00000080: 9e58 3b3e 2d6c 9c3e bd54 abbe 9531 833e
00000090: eef4 7cbe 7953 963e f4ea 43be 1b02 f63d
000000a0: 4529 b23b dcfe 733e 6add 20be 4fd4 d13d
000000b0: ba50 61bd eb82 043e d59f 653e 5454 913d
000000c0: 6dfa 533e ca0f 94be bfc5 133e c95f a43e
000000d0: 2ee7 c6be d44f b4bd 692c f9be 24d6 ddbe
000000e0: 411f 733e f7bb 923d 715d 9abe c0ef dabe
-1.1101156 0.8538326 -0.032151487 0.101990074 0.0056369836 -0.38379505 -0.4717088 0.29670307
0.3707533 -0.5195652 -0.49897248 0.6818101 -1.0023502 -0.1421972 -0.028912134 -0.311979
0.07334654 -0.60557765 -0.5031932 -0.29601082 -0.13882387 -0.065545686 0.03288194 0.20023566
-0.048174944 0.19683671 0.2680403 -0.41807753 -0.2446942 0.21466385 -0.017675351 0.22689493
0.18295524 0.30551282 -0.33463088 0.25623766 -0.24702808 0.2936056 -0.19132596 0.1201212
0.0054370486 0.2382769 -0.15709463 0.10245573 -0.055008627 0.12940566 0.22424252 0.070961624
0.20700999 -0.28918296 0.14430903 0.32104328 -0.3884825 -0.088042885 -0.48666695 -0.4332744
0.23742391 0.07164758 -0.30149415 -0.4276104

fo3.bias f4 [6]
00000000: 3062 253e 0469 3ebf 0434 bc3d bbb4 973b
00000010: 93fa 81ba 4827 54be
0.16150737 -0.7437899 0.09189609 0.004629699 -0.0009916596 -0.2071811

fc1.weight f4 [20, 6]
00000000: f1db edbd 12e0 89bd dedb 463d 5b6f 94be
00000010: 54eb 91be eb6e cebe 156c ae3e db31 a23e
00000020: 3657 31bf 77e5 17bd 110f 203e 5889 643e
00000030: 30d7 8cbd 601d 323e b439 eabe f5e7 d0be
00000040: 3ba2 b23e 6a56 953e 6e73 ddbe 572a b9be
00000050: 3495 84be ff76 58be a782 a4bc 0a1d a83e
00000060: cfd1 5d3e 5e13 ab3d 1901 043d 2057 6dbe
00000070: 913b 9a3e e075 ecbc f38a dcbe bf02 e83d
00000080: 2f82 633d e236 bebe 1e24 3abe 4291 01bf
00000090: 10eb d23e f376 603d 1677 48be 996f e93c
000000a0: f135 87be 9de3 143e d6ea bfbd 7a1f eebe
000000b0: bec5 c4be 975a abbe 421c 613e 4e2a 193e
000000c0: d2c4 10be 319d cfbd 5894 b8be eb88 05bd
000000d0: 7707 e6be 42da 16bc 0df0 93be 4e68 263e
000000e0: 4bfa 9a3e c636 37bd 0a0e 823c d5d9 033f
000000f0: 3a37 b33d c772 0b3f 9c46 a63d dad4 cb3c
00000100: 1332 d03e 13ab a73e 146e c93e 07dc 54be
00000110: c0da 87be d4c1 96be 6621 183e aac9 3cbd
00000120: 2f5f 45bd 9a8e b73c 9ce4 033e 2087 933e
00000130: 3d43 3ebe f147 e3bd 1dd6 dfbe 5398 5d3e
00000140: 86b1 793d fb6a 12bc 36bc 933c 22bd 343d
00000150: ba5b edbc 8cf4 753e ccd5 503e 3d9e b6be
00000160: 378f 3a3c 7837 9cbe 5b14 11be 2b66 993d
00000170: 8212 113d 0acb 4abf 41fe 16be a3f3 1f3e
00000180: 9ed2 d9be 7501 d13d 9207 053e 35a1 d6bd
00000190: 8f58 693e 3fe1 c93e 2943 d83e 91fb 4dbe
000001a0: 60dd b3bd 0b7e d2be 7df6 623e dffd 563d
000001b0: 66ad de3e ce31 f4be 5403 853e d92a 943d
000001c0: f49d aabd 5d30 09bf c1f9 9fbe f758 833e
000001d0: 172d 853e 004b c53e 4c83 eabd f556 cebe
-0.11614216 -0.06732191 0.048549525 -0.28991207 -0.28499854 -0.40319 0.34066835 0.31678662
-0.692737 -0.03708407 0.15630747 0.22318017 -0.06876981 0.17394018 -0.4574715 -0.4080197
0.34889397 0.2916749 -0.43252128 -0.36165115 -0.25895083 -0.21139143 -0.020081831 0.32834655
0.21662067 0.083533034 0.03222761 -0.23177767 0.3012357 -0.0288648 -0.4307476 0.11328649
0.055544075 -0.37151247 -0.1817784 -0.5061227 0.41194963 0.05480094 -0.19576678 0.028495597
-0.26408342 0.14539953 -0.09370963 -0.4650839 -0.38432115 -0.33467552 0.21983436 0.14957544
-0.14137581 -0.10137404 -0.36050677 -0.03260128 -0.4492757 -0.00920731 -0.28894082 0.16250727
0.30269083 -0.04472997 0.015875835 0.5150426 0.08750768 0.5447201 0.081189364 0.024881769
0.40663204 0.32747707 0.39341795 -0.20787059 -0.2653408 -0.29444754 0.1485649 -0.04609076
-0.048186477 0.022406865 0.12880176 0.2881403 -0.18580337 -0.11097706 -0.43718043 0.21640138
0.060960315 -0.008936639 0.018034082 0.044125684 -0.028974403 0.24019068 0.20394057 -0.356676
0.011386684 -0.3051107 -0.14167921 0.0749019 0.03541804 -0.79216063 -0.14745428 0.15620284
-0.425435 0.10205356 0.12991169 -0.104799666 0.22787689 0.39429662 0.4223874 -0.20115496
-0.08782458 -0.41111788 0.2216434 0.052488204 0.43491668 -0.47694248 0.25979102 0.07234735
-0.083309084 -0.5358942 -0.31245235 0.25653812 0.26010963 0.38533783 -0.11450824 -0.40300718

fc1.bias f4 [20]
00000000: 623d ac3e 97d7 3cbf 624d a53e ddff 233e
00000010: 8cea 2b3e e119 273f 6c5b fbbe 6207 2dbe
00000020: aa58 c83e 7524 1abf 6907 ecbe 624e a23e
00000030: 5bb9 1d3e 4e53 673e 81c4 0a3e 1022 d93d
00000040: be48 86bd 6384 263e f2c4 dd3e 0ed2 a5be
0.3364058 -0.73766464 0.322856 0.16015573 0.16788691 0.65273863 -0.49093187 -0.16897348
0.39130145 -0.6021188 -0.46099404 0.31700426 0.15402739 0.22590372 0.13551523 0.106022
-0.06556843 0.16261439 0.4331432 -0.32386822

fc2.weight f4 [10, 20]
00000000: 6a95 763e 50c0 20be 537c a7be c756 4a3e
00000010: 0de4 afbd 1ef1 b13d 3f25 b23b 9c65 68bd
00000020: 1646 95bd 7e0f e83d 75f9 e13c 5f48 acbe
00000030: ad95 05be 21f5 133d 4ace 683d 7920 c1bd
00000040: 57a4 ae3d b937 0bbf e22e 52be 9a1e 143e
00000050: 8580 b7be 4792 b5be 3284 23bf 05ad 4fbe
00000060: 2bb6 a33d 6700 8b3e 7f66 82be 4a8b acbe
00000070: 5e6a 33be eee4 7d3e 4bdf d13d cd69 a73e
00000080: 419c 90be 6b1e a5bd fa3d eebc 434b 1dbe
00000090: 2b92 12be 5997 bf3e 11ba 933e a310 f83d
000000a0: 1247 85be b80a b1be 5d1d 85bd d4d4 423d
000000b0: 4953 c83d 5980 0f3e c5ba 74be 0216 34bb
000000c0: 8bc1 fa3d 81ca 83be 84a4 f1be 3259 0c3e
000000d0: e24b 80bc d7cb 38be 6c8a 0e3e 7b27 6b3d
000000e0: 5135 c4bd 2537 113d 1178 e13d 3dec 793d
000000f0: 96b2 71be aa56 333e 827c cfbd a298 173f
00000100: c5f6 46bd c395 b93e 77ce f4bd 7b00 edbe
00000110: 8730 583e 0160 5fbd 8202 d83d 60c7 91bf
00000120: 2ff7 70bd 6133 98bd 1a4a 1b3e c43e a53d
00000130: a650 26be d457 1dbf d945 e83d 5295 9b3e
00000140: 5305 0dbf 5be8 c4be 765b 24be 67ce eb3d
00000150: 81a6 10be 6568 7a3e c60c d53d 3d41 503b
00000160: f6d7 d0bd 9caf 60be 8be6 5abf 205c d73c
00000170: 5014 be3d cfd5 33bd fb27 303e 8c88 26bc
00000180: cf9d 4bbe ee2d ae3d 34f2 b13d 66b9 373a
00000190: 1649 2cbe d06a 5d3e 0b86 163f 6966 c0be
000001a0: c4b8 fabb 3876 3ebd a505 8e3d 9d1f 0ebe
000001b0: d388 4d3e ce34 a43b a789 cf3e e55a ecbe
000001c0: 1aea f6bd fef4 81be 3699 ac3d a250 ca3e
000001d0: 42f8 72bc b8a1 b23d 9203 123e 6774 543c
000001e0: d874 79be 706a 763e aac4 7abe 74e0 263f
000001f0: e561 70be 6f02 b53d 0546 d1bc 0ba0 113e
00000200: 12c8 8fbe ae02 ceb9 914f 24bf cdb6 f2bc
00000210: b0c9 4b3e 27bb 6e3c 17ab 933d adde 39be
00000220: 6e90 a5bd 89a2 22be 663f 663e 9a71 44be
00000230: b13a 233f 4cd9 f53e 04ed ad3d 6932 a73d
00000240: 7966 5c3d 098d 83bd 7fb0 353e 887b 37bd
00000250: 8772 44bd e643 383f f2ea 4d3e bae9 aabd
00000260: 7613 bebd a4fc 3dbe 6562 cfbd 9143 d03d
00000270: 2ed5 65be 7fc0 1a3e e62b cebe 8f47 1f3e
00000280: 077b d03c 880c 83bf 40ae 3e3f 2603 84be
00000290: 55dd ffbd 9d57 423e 6131 ebbd 912b 8cbe
000002a0: bd7c 87be a33a 923e de86 c53d c9da debd
000002b0: 07d3 8ebe 6e59 323e 8781 c33e f7db b83e
000002c0: e826 403d d6a4 a2bd e3c9 a13d cd19 203e
000002d0: 0d46 f73d cdc1 b53e 7180 42bf 7218 ec3b
000002e0: 98e2 0d3e 5cdb 05be e550 a53d 5865 ab3d
000002f0: babe 15be a541 643e 578b a33e e466 383f
00000300: 02de 223e 0bed a2bd cbb4 e63d b681 db3e
00000310: 9b68 843e f21e 5c3e 2cb1 e9bd bd1c 2ebd
0.24080434 -0.15698361 -0.3271204 0.19759665 -0.08588419 0.086885676 0.005436569 -0.056737527
-0.072887585 0.1133108 0.02758477 -0.33648965 -0.13045378 0.036122445 0.056837358 -0.09430022
0.08527439 -0.543819 -0.20525697 0.14464799 -0.3584024 -0.35463163 -0.6387359 -0.20280845
0.0799373 0.27148744 -0.25468823 -0.3370002 -0.17521045 0.24794361 0.10247668 0.32697907
-0.28244212 -0.080624424 -0.029082287 -0.15360741 -0.14313571 0.37420157 0.28852895 0.12112548
-0.26030785 -0.3457849 -0.06499741 0.04756625 0.097815104 0.14013804 -0.23899372 -0.0027478938
0.12243947 -0.25740436 -0.47195828 0.137059 -0.015661184 -0.18046509 0.13919991 0.0574107
-0.09580482 0.03545298 0.11009229 0.06101631 -0.23603281 0.17513528 -0.1013117 0.59217274
-0.04857518 0.36247072 -0.119534425 -0.4628943 0.21112262 -0.054534916 0.10547353 -1.138897
-0.058829483 -0.07431675 0.15164986 0.08068612 -0.16241702 -0.6146214 0.113414474 0.3038736
-0.5508625 -0.38458523 -0.16050515 0.115139775 -0.14126016 0.24453886 0.10402827 0.0031777166
-0.10197441 -0.2194199 -0.8550803 0.026289046 0.09281218 -0.043905076 0.17202751 -0.010164391
-0.19884418 0.08504854 0.08688775 0.00070085225 -0.16824755 0.21622777 0.58798283 -0.37578133
-0.0076514203 -0.04649946 0.0693467 -0.13879247 0.20071726 0.0050111776 0.40534708 -0.46163097
-0.1205637 -0.25382227 0.0842766 0.39514643 -0.014829697 0.08722252 0.14259174 0.012967206
-0.24360979 0.2406404 -0.24489084 0.6518624 -0.23474844 0.08838355 -0.025546083 0.14221208
-0.2808233 -0.00039293378 -0.6418391 -0.029628182 0.19901156 0.014570988 0.07210367 -0.1815135
-0.080841884 -0.15882315 0.22485122 -0.1918396 0.6376143 0.48017347 0.08492473 0.08163912
0.053808663 -0.06423385 0.17743109 -0.044795543 -0.047960784 0.71978605 0.20109156 -0.08345361
-0.09281056 -0.18553406 -0.10126189 0.10169137 -0.22444603 0.15112494 -0.40267867 0.15554641
0.025449289 -1.0238199 0.74484634 -0.25783652 -0.124933876 0.18978734 -0.11484028 -0.2737699
-0.26462355 0.2856036 0.096448645 -0.10881574 -0.27895376 0.17416927 0.3818476 0.3610532
0.046912104 -0.07941596 0.07899835 0.15634842 0.12073908 0.3549942 -0.75977236 0.0072050625
0.1385597 -0.1307196 0.0807207 0.08368939 -0.14623538 0.22290666 0.31942245 0.72032
0.15905002 -0.079553686 0.11264952 0.428724 0.25861058 0.2149618 -0.11410746 -0.042507876

fc2.bias f4 [10]
00000000: 370f d8bc 9c4b 3e3d b71b 8d3e 86a9 59be
00000010: 6732 353e e4f8 a5bd 24f3 433e 6ef5 4bbe
00000020: a499 1abe 7019 28be
-0.026374443 0.046458825 0.27560207 -0.21256074 0.17695008 -0.08104113 0.1913572 -0.19917843
-0.15097672 -0.16415954

fc3.weight f4 [5, 10]
00000000: f2ea 22be acec 37be 5f75 17bf 5d9a 873e
00000010: ac52 b23e a96a 2ebd fa1c ab3e 5a22 3d3d
00000020: d509 9f3e f0b3 d83e 8685 0bbf fac4 39be
00000030: e9cf a3bd 82b1 e03e 9a73 9cbe 6a6c 313e
00000040: fa44 863e e943 84be 4f87 f43b 2815 113e
00000050: 0e08 873e 17de 863e 4a7d 9d3e 5303 11bf
00000060: 9096 e9be 5948 0f3f ce46 efbe 491c 4dbe
00000070: e4ee 7d3e cd0e eabe e9cf b63a 74cd 783e
00000080: dc09 2b3e c0f8 243e cae7 f2be 6754 9ebe
00000090: 2bad 24be d5a6 7d3e 3238 93be ec86 e33e
000000a0: c178 463e 966b 82be 891d dd3e 33d4 a1be
000000b0: e5c0 ea3e 2aeb a33e a6fb d43c cd07 a4be
000000c0: 109e d73e efd3 e23c
-0.15909937 -0.17961377 -0.5916347 0.26484957 0.348287 -0.042582188 0.33420545 0.04617534
0.3106219 0.4232478 -0.54500616 -0.18141547 -0.0799864 0.43885428 -0.30556947 0.17326513
0.262245 -0.2583306 0.007462419 0.14168227 0.26373333 0.26341316 0.3075965 -0.566457
-0.45622683 0.5596977 -0.46733707 -0.20030321 0.24798161 -0.45714417 0.001394746 0.24297124
0.1670298 0.16110516 -0.47442466 -0.3092377 -0.16081683 0.24770673 -0.2875381 0.44438875
0.19382001 -0.25472707 0.43186596 -0.31607208 0.45850292 0.32015353 0.025998902 -0.32037202
0.4211278 0.027688948

fc3.bias f4 [5]
00000000: 1dc4 a9be dc46 033f e67c 323e 3b5e d4be
00000010: 0145 9ebe
-0.33157435 0.5128 0.17430457 -0.41478142 -0.3091202
