JEDInet_HLS_30p/model_1/IN_kFold_150/IN_sumO_bestmodel2.params (torch, 21393 bytes, 18 tensors)

fr1.weight f4 [30, 32]
-0.00082840596 -0.00083548063 0.0052530784 0.009630492 0.040031146 -0.017343614 0.04198233 -0.0962697
-0.05020278 0.12307736 -0.051901653 -0.056813236 -1.119996 -1.7636395 -0.18384981 -0.0025397455
-0.035431225 -0.030476818 -0.01528929 0.16022344 0.18680519 -0.12294745 0.33365962 -0.036487527
-0.14655237 0.12588547 0.18138319 -0.0005522046 1.0958599 -1.8915745 -0.064946726 0.14624259
-6.0297618e-05 -6.201272e-05 0.00047573852 0.00026141733 -0.13147749 0.0018132245 0.17376077 0.0006170982
0.024731511 0.016170382 -0.0011376572 0.004165376 3.0206296 -4.026813 -0.007451769 -0.005284606
-0.005115776 -0.005121679 -0.003955682 0.047984187 0.013417332 -0.030001724 0.21501626 -0.013241775
-0.052547857 -0.17245013 0.012270752 -0.031215226 -1.139295 0.15395683 0.08651548 0.089136824
0.027757667 -0.05659063 -0.046874564 0.08838323 -0.05885899 -0.012962873 -0.09716323 0.097225815
0.009821401 -0.06824389 0.08713717 0.118633494 -2.7540786 1.6963917 -0.016478306 -0.012141809
-0.037939537 0.0066180155 -0.020670818 0.09802064 -0.30018806 0.051518988 -0.32778782 -0.1037276
0.03144384 0.0899988 0.0421783 -0.13885413 0.17954691 0.96340394 0.09844418 0.056931574
0.009230647 -0.0014042893 -0.0033991926 -0.013640778 -0.1676023 0.116989985 -0.35984036 0.0103107495
0.078467205 0.042078864 -0.04618169 -0.015641073 -0.6002087 -3.1014256 0.054401737 -0.008968935
-0.014920301 0.0043026307 0.017224343 -0.13011074 -0.34688473 -0.0019954848 -0.21022585 -0.04654739
-0.10237586 0.19553453 -0.043493513 -0.022583801 -0.26340157 -0.550885 0.17013809 0.10186887
-0.002358618 0.00027420832 0.0027437923 0.09970977 0.1866318 -0.09192545 0.09018527 0.070152245
-0.05697214 0.043566793 -0.06427326 -0.028929047 0.14646262 -2.8057804 -0.012666522 0.09600026
-0.0007746777 0.03666272 -0.0133982785 -0.035056558 0.011523094 0.12569974 -0.23489647 -0.068887755
0.119579494 -0.13637266 0.12300337 -0.1514342 -1.524246 1.7833563 -0.13273966 -0.0009927206
-0.004166303 -0.004119602 -0.0019213465 -0.031521812 0.10633196 0.11755676 -0.3160277 -0.10124789
0.031952802 0.15401119 -0.015503038 -0.02320424 -0.05543993 2.2546277 -0.05284937 -0.076866515
-0.008395299 -0.005668071 -0.014860529 -0.2218649 -0.4912611 -0.26567617 -0.24578026 -0.03976022
-0.1994263 -0.03132554 0.011936344 -0.30779997 0.45754877 -1.0012525 0.08506354 -0.0033208157
-0.0072955918 -0.18162832 -0.18356088 -0.8246658 -1.185769 -1.1257539 -1.1234318 -0.16524756
0.062085565 -0.059442878 0.030789422 0.10502829 0.7188036 -1.0566489 -0.19156688 0.09913535
-0.058750078 0.078728616 0.0075583197 -0.118704475 -0.02542465 -0.19783303 0.088403724 -0.10582451
0.2766882 -0.08209017 -0.033303514 0.15258163 0.46762258 -0.72955537 0.0032622202 -0.17063822
0.008680513 -0.0040085874 -0.020922398 0.020857563 0.08899625 -0.042677667 0.29229212 0.16620845
0.14564112 0.025863064 -0.0038453913 0.08318947 -0.55298895 -1.5629739 0.18919975 -0.09853733
-0.034097325 -0.01683729 -0.005359259 0.013855164 0.31449172 -0.0012177369 0.16735186 -0.014479123
-0.069565326 -0.029866302 0.032750923 0.21798839 0.63203114 -1.251567 0.03565149 -0.21204965
00000000: 6229 59ba 2804 5bba 0422 ac3b 36c9 1d3c
00000010: b3f7 233d 3214 8ebc aaf5 2b3d 0c29 c5bd
00000020: 6ea1 4dbd fc0f fc3d d496 54bd ffb4 68bd
00000030: 075c 8fbf f0be e1bf 2043 3cbe dc71 26bb
00000040: 5520 11bd 85aa f9bc ee7f 7abc 9d11 243e
00000050: dc49 3f3e dfcb fbbd 6fd5 aa3e f273 15bd
00000060: d311 16be 1fe8 003e 84bc 393e d3c1 10ba
00000070: 2345 8c3f 1d1f f2bf ca02 85bd 9ec0 153e
00000080: 13e8 7cb8 d30c 82b8 8b6c f939 d70e 8939
00000090: 09a2 06be b8a9 ed3a 58ee 313e c2c4 213a
000000a0: bd99 ca3c c077 843c 711d 95ba b57d 883b
000000b0: ff51 4140 a7db 80c0 f82d f4bb 7d2a adbb
000000c0: 3da2 a7bb c2d3 a7bb aa9e 81bb 118b 443d
000000d0: 5fd4 5b3c 2dc6 f5bc 392d 5c3e 08f4 58bc
000000e0: 6c3c 57bd c496 30be 440b 493c 13b7 ffbc
000000f0: 6bd4 91bf dca6 1d3e 072f b13d 5e8d b63d
00000100: 0c64 e33c 94cb 67bd 8bff 3fbd 4402 b53d
00000110: 2016 71bd 3b62 54bc 84fd c6bd 541e c73d
00000120: f1e9 203c 74c3 8bbd f974 b23d 1ef6 f23d
00000130: d342 30c0 5d23 d93f 83fd 86bc 70ee 46bc
00000140: 7d66 1bbd f0db d83b d955 a9bc 0cbf c83d
00000150: 40b2 99be 9305 533d ced3 a7be 236f d4bd
00000160: 42cb 003d 4a51 b83d 27c3 2c3d c72f 0ebe
00000170: 25db 373e a4a1 763f 1a9d c93d 1531 693d
00000180: 243c 173c 2110 b8ba fdc4 5ebb 927d 5fbc
00000190: f09f 2bbe 7298 ef3d ff3c b8be 6bee 283c
000001a0: 6ab3 a03d e35a 2c3d 0329 3dbd b521 80bc
000001b0: 47a7 19bf c27d 46c0 5bd4 5e3d 71f2 12bc
000001c0: 4774 74bc 15fd 8c3b 111a 8d3c c03b 05be
000001d0: e09a b1be aec6 02bb 7245 57be 7aa8 3ebd
000001e0: 6faa d1bd 343a 483e 4126 32bd aa01 b9bc
000001f0: 92dc 86be cd06 0dbf ae38 2e3e a0a0 d03d
00000200: 0b93 1abb 9ec3 8f39 32d1 333b a334 cc3d
00000210: 681c 3f3e 6943 bcbd 0eb3 b83d fbab 8f3d
00000220: 9e5b 69bd 1873 323d b3a1 83bd 9cfc ecbc
00000230: 4cfa 153e e891 33c0 3e87 4fbc c99b c43d
00000240: be13 4bba a62b 163d 7484 5bbc 7797 0fbd
00000250: 5ccb 3c3c 6fb7 003e b388 70be 0615 8dbd
00000260: 18e6 f43d 46a5 0bbe 31e9 fb3d 9111 1bbe
00000270: 7e1a c3bf 0545 e43f e8ec 07be 2d1e 82ba
00000280: 7c85 88bb bafd 86bb b1d5 fbba 041d 01bd
00000290: 92c4 d93d 99c1 f03d 62ce a1be 0e5b cfbd
000002a0: f1e0 023d 1cb5 1d3e 7400 7ebc d116 bebc
000002b0: fb14 63bd d24b 1040 9578 58bd 316c 9dbd
000002c0: 708c 09bc 3abb b9bb 9479 73bc 8d30 63be
000002d0: 9386 fbbe b506 88be d2ad 7bbe 9ddb 22bd
000002e0: 6836 4cbe 364f 00bd a890 433c f597 9dbe
000002f0: d543 ea3e 0b29 80bf cb35 ae3d 0ba2 59bb
00000300: dc0f efbb c6fc 39be 62f7 3bbe 4c1d 53bf
00000310: 47c7 97bf b418 90bf 9dcc 8fbf a836 29be
00000320: 6f4d 7e3d 607a 73bd 193a fc3c 1219 d73d
00000330: 8303 383f 4540 87bf 1c2a 44be 7907 cb3d
00000340: eca3 70bd 783c a13d c8ab f73b 551b f3bd
00000350: 5b47 d0bc be94 4abe 030d b53d 85ba d8bd
00000360: 13aa 8d3e e41e a8bd 4469 08bd 5c3e 1c3e
00000370: 3a6c ef3e 24c4 3abf f9ca 553b c9bb 2ebe
00000380: b638 0e3c 785a 83bb 7365 abbc 7bdd aa3c
00000390: aa43 b63d c7ce 2ebd 50a7 953e 8c32 2a3e
000003a0: f222 153e c7de d33c f602 7cbb 3e5f aa3d
000003b0: af90 0dbf 870f c8bf 94bd 413e f1cd c9bd
000003c0: a3a9 0bbd 5bee 89bc b99c afbb c500 633c
000003d0: 0f05 a13e 789c 9fba 495e 2b3e d839 6dbc
000003e0: 4478 8ebd 2daa f4bc d525 063d 5938 5f3e
000003f0: cbcc 213f 5933 a0bf 4c07 123d 8b23 59be

fr1.bias f4 [30]
0.025603365 0.32092404 -0.1750659 0.11402211 0.049876165 0.00066647725 -0.0024574222 0.12522192
-0.08161083 -0.114360794 0.054251093 0.07264989 0.19979846 -0.09819604 0.26386544 -0.16146876
0.1659656 0.049009647 0.0030995177 -0.19188134 0.0007751847 -0.248064 0.28396392 -0.26434827
0.04062219 0.046675313 0.06930015 0.27310866 -0.21719259 0.09146814
00000000: 26be d13c 2850 a43e 7a44 33be 6d84 e93d
00000010: f34a 4c3d 88b6 2e3a b40c 21bb 2d3a 003e
00000020: 9423 a7bd fe35 eabd 6536 5e3d 77c9 943d
00000030: f897 4c3e 011b c9bd 5f19 873e 1158 25be
00000040: e3f2 293e 57be 483d 4721 4b3b 8b7c 44be
00000050: c435 4b3a 7d04 7ebe b863 913e a858 87be
00000060: 7463 263d 9d2e 3f3d 3ded 8d3d e6d4 8b3e
00000070: bc67 5ebe a653 bb3d

fr2.weight f4 [15, 30]
-0.08611357 0.17175737 -0.18014796 -0.13577938 0.2137189 0.007504552 -0.097613804 0.0069719856
0.12886684 -0.11092966 -0.064786196 -0.28655964 0.0524593 0.05972166 0.19349062 -0.0997798
-0.059760585 0.08876229 -0.049225494 -0.30911723 -0.025268221 -0.051638823 -0.043073066 -0.39771616
-0.049020752 -0.118676595 0.15136676 -0.14610279 -0.13651645 0.048393983 -0.13042448 0.18174085
-0.114660665 0.2012966 0.09477605 -0.015749773 -0.057515725 -0.041601814 0.03738453 -0.10196052
0.06911663 -0.053039014 0.0811563 -0.04773463 0.19165005 0.16744989 0.015416507 0.13033208
-0.15625939 -0.02454978 0.26277617 0.14952756 0.018730802 0.21228345 -0.031957127 0.06544412
-0.035285387 0.09429682 0.09075342 0.01058296 -0.014402823 -0.4570006 0.19351928 -0.087022394
0.03579343 0.21514891 0.2441005 0.060192116 -0.11425762 0.099413134 -0.098624445 0.023796333
0.15613206 -0.038124956 0.04223078 0.098375075 -0.007455326 -0.030635772 -0.030366357 0.13760848
0.025269024 -0.04197694 0.040226314 -0.08599872 0.13990167 0.02142922 -0.014445486 -0.08636728
0.042300962 -0.005465016 0.09362323 -0.20715263 0.1846291 0.1544712 -0.05549905 0.04858195
0.28493088 0.015439023 -0.09423896 0.16210733 -0.06192302 -0.023146065 0.10246045 0.063482195
-0.15832335 0.12866308 0.016947376 -0.02263679 0.06855778 -0.107573695 0.09683931 -0.22407456
0.050110005 -0.17928429 -0.015531107 -0.03260265 0.09561186 -0.090053335 -0.10123353 -0.12607652
0.0648033 0.58607423 -0.2344276 -0.09650577 -0.09295607 0.039788797 -0.10269325 0.02477577
-0.21494032 -0.19510111 0.12100188 0.060321067 -0.15791339 0.012139851 -0.20926584 -0.07910916
-0.11567622 0.040086083 0.13458835 -0.027239278 -0.226056 -0.19651614 -0.26702628 0.14154764
0.21966727 0.12830476 -0.09423279 0.0366342 0.059148304 0.11549691 -0.04229929 1.9184358
-0.1722759 0.15200624 0.13604848 -0.039061066 0.022314353 -0.00807212 0.058923844 -0.08105883
0.18046477 -0.020785907 0.13695893 0.0017419135 -0.10910422 0.107516594 0.069006704 0.00200648
-0.12070061 -0.010899135 -0.24766105 -0.05685076 0.009860269 -0.07470038 0.0027773748 -0.04026466
0.08318199 0.04558681 -0.032727268 -0.15576616 0.022783943 0.0016783801 -0.009973398 0.23602721
0.101829864 -0.17896736 -0.27036703 0.031323113 -0.068604045 -0.060561538 0.030090213 0.04539004
0.076406784 0.025316088 0.08129866 0.07908325 0.018930856 -0.14817555 0.0425078 -0.032693714
-0.07410956 -0.103265725 -0.087602176 -0.16814278 0.037243836 0.016696468 0.119975805 0.10154978
-0.18290024 -0.36217964 0.06656425 0.040004153 -0.05888754 -0.105134405 -0.14587581 0.064746946
-0.027750468 0.008609911 -0.10471886 -0.21811572 -0.015143514 0.08574975 0.02206071 0.016481293
0.108614616 -0.18363151 0.026649715 0.05015369 -0.01283495 0.04267565 -0.14264235 0.037540425
-0.13413721 0.18768698 0.1483613 0.11497993 -0.06667473 0.1867003 0.081645854 0.030229975
-0.069241166 -0.24853766 0.06957937 -0.36127973 0.03246645 -0.16695856 0.2600905 -0.08223018
0.3149625 0.054023553 -0.092412695 -0.07216134 -0.07458209 -0.11921159 0.1604407 -0.26222682
00000000: 505c b0bd 2ae1 2f3e b578 38be c009 0bbe
00000010: 21d9 5a3e bfe8 f53b bfe9 c7bd 4175 e43b
00000020: abf5 033e 172f e3bd a0ae 84bd f2b7 92be
00000030: 90df 563d b39e 743d 6822 463e 5a59 ccbd
00000040: 84c7 74bd 01c9 b53d aca0 49bd 9d44 9ebe
00000050: 4dff cebc 3b83 53bd 626d 30bd 74a1 cbbe
00000060: fcc9 48bd b70c f3bd e3ff 1a3e f89b 15be
00000070: f8ca 0bbe c538 463d ff8d 05be 461a 3a3e
00000080: 36d3 eabd b220 4e3e f219 c23d ab05 81bc
00000090: 9c95 6bbd aa66 2abd 8520 193d add0 d0bd
000000a0: 058d 8d3d 703f 59bd 4635 a63d 6385 43bd
000000b0: e93f 443e fc77 2b3e 8495 7c3c c675 053e
000000c0: 7602 20be 9f1c c9bc 998a 863e c11d 193e
000000d0: 5771 993c d560 593e 7ae5 02bd 9107 863d
000000e0: 6987 10bd b11e c13d eedc b93d 2764 2d3c
000000f0: d1f9 6bbc fcfb e9be eb29 463e cc38 b2bd
00000100: 229c 123d ff4f 5c3e 7bf5 793e 028c 763d
00000110: e6ff e9bd 1d99 cb3d 9dfb c9bd 87f0 c23c
00000120: 15e1 1f3e ea28 1cbd 2ffa 2c3d df78 c93d
00000130: cf4b f4bb dff7 fabc dec2 f8bc 3de9 0c3e
00000140: fc00 cf3c 03f0 2bbd 59c4 243d 1920 b0bd
00000150: 6242 0f3e 558c af3c c2ac 6cbc 54e1 b0bd
00000160: c643 2d3d e013 b3bb 89bd bf3d d21f 54be
00000170: 690f 3d3e b32d 1e3e f952 63bd defd 463d
00000180: 76e2 913e f5f3 7c3c 5b00 c1bd 77ff 253e
00000190: fea2 7dbd d19c bdbc c9d6 d13d f402 823d
000001a0: 841f 22be 41c0 033e 39d5 8a3c ca70 b9bc
000001b0: 0568 8c3d 994f dcbd b053 c63d cd73 65be
000001c0: 2640 4d3d 4d96 37be 2f76 7ebc 5b8a 05bd
000001d0: 27d0 c33d e26d b8bd 8653 cfbd 341a 01be
000001e0: 98b7 843d f608 163f ca0d 70be d1a4 c5bd
000001f0: c15f bebd 94f9 223d d750 d2bd 8ef6 ca3c
00000200: 5119 5cbe 96c8 47be d5cf f73d 3913 773d
00000210: 0cb4 21be 3ae6 463c c949 56be fc03 a2bd
00000220: a7e7 ecbd 4e31 243d 87d1 093e e824 dfbc
00000230: 397b 67be 873b 49be abb7 88be ddf1 103e
00000240: 75f0 603e 5362 033e 1ffd c0bd be0d 163d
00000250: 7e45 723d a589 ec3d 0542 2dbd 4e8f f53f
00000260: 1869 30be 86a7 1b3e 4b50 0b3e 7ffe 1fbd
00000270: 97cc b63c ed40 04bc 215a 713d 2c02 a6bd
00000280: c2cb 383e 3547 aabc f63e 0c3e eb50 e43a
00000290: 0972 dfbd a931 dc3d 6353 8d3d 267f 033b
000002a0: e231 f7bd 4992 32bc dc9a 7dbe 58dc 68bd
000002b0: f78c 213c 83fc 98bd 9e04 363b 8eec 24bd
000002c0: 525b aa3d 3cb9 3a3d 070d 06bd 2a81 1fbe
000002d0: 64a5 ba3c 17fd db3a 7767 23bc 1eb1 713e
000002e0: 2d8c d03d 3843 37be 8c6d 8abe aa4c 003d
000002f0: 4780 8cbd 600f 78bd c07f f63c e8ea 393d
00000300: 297b 9c3d af63 cf3c e97f a63d 66f6 a13d
00000310: e214 9b3c 55bb 17be a91c 2e3d d8e9 05bd
00000320: c1c6 97bd fb7c d3bd c568 b3bd 9f2d 2cbe
00000330: fe8c 183d 08c7 883c e0b5 f53d 55f9 cf3d
00000340: 334a 3bbe 9c6f b9be d652 883d 65db 233d
00000350: 1034 71bd b550 d7bd 7860 15be 0c9a 843d
00000360: f354 e3bc 9610 0d3c d776 d6bd ba59 5fbe
00000370: 801c 78bc 919d af3d a9b8 b43c c703 873c
00000380: 5771 de3d e609 3cbe 8150 da3c f56d 4d3d
00000390: af49 52bc aacc 2e3d d610 12be fdc3 193d
000003a0: 445b 09be 0431 403e 06ec 173e 997a eb3d
000003b0: c38c 88bd 5d2e 3f3e f135 a73d daa4 f73c
000003c0: 50ce 8dbd a880 7ebe a17f 8e3d a8f9 b8be
000003d0: 8afb 043d 2ff7 2abe 952a 853e 4c68 a8bd
000003e0: c442 a13e cd47 5d3d de42 bdbd 53c9 93bd
000003f0: 7fbe 98bd 3525 f4bd 914a 243e 9842 86be

fr2.bias f4 [15]
-0.070161395 0.024884956 -0.14938317 -0.13722678 0.0053058155 0.18196216 0.096382014 -0.047806267
0.03526405 0.22282413 0.19293274 -0.08158515 0.12440881 -0.030787522 -0.33388254
00000000: c7b0 8fbd 89db cb3c e7f7 18be 2d85 0cbe
00000010: 68dc ad3b 4a54 3a3e ef63 c53d 81d0 43bd
00000020: 0971 103d 022c 643e 2990 453e 1d16 a7bd
00000030: 0cca fe3d 1d36 fcbc a7f2 aabe

fr3.weight f4 [10, 15]
0.06673093 -0.10277249 -0.12540203 -0.2549803 0.29481447 0.09649301 -0.09109681 0.15061642
0.10691055 -0.4062767 0.10399901 0.14178444 -0.27026108 0.15054762 -0.3133104 0.092378974
-0.35635728 -0.12486263 0.1867175 0.105529 0.029146172 -0.058369055 0.07145161 0.013056713
0.35970378 0.16236918 0.055708613 0.09289229 -0.0424889 0.21331263 -0.19849549 0.041570578
-0.20897995 -0.16268225 0.20593815 0.33933657 0.14652783 -0.09144925 -0.19053139 0.07267853
-0.3226735 -0.0135178035 -0.06800754 -0.070828326 -0.016801683 -0.07833148 0.11304593 0.030749943
-0.02237635 0.018851524 -0.03406884 0.07041772 0.08877482 -0.0845766 0.16272998 0.16905436
0.08716156 0.08595007 0.10650545 -0.015300491 -0.11736575 0.14071235 0.000114212664 0.20839104
0.017942658 0.2546995 -0.18116821 -0.14946653 0.25456187 -0.12439079 -0.17663285 -0.17808424
-0.025559481 -0.016410373 0.162494 0.024936542 -0.07832056 -0.105988085 0.064043365 -0.02197885
-0.005355835 0.284617 0.003044094 0.09252164 -0.03544923 -0.043211177 -0.06710477 -0.18223299
-0.17004548 0.079261936 -0.19234048 0.016784986 -0.1650808 -0.24390389 0.2842813 -0.22557881
-0.15402912 -0.0076614013 0.27851194 -0.25343576 0.14036165 0.13991077 0.2030101 -0.13657059
0.076680765 -0.21086758 0.036032494 0.013917564 0.09641685 -0.26930803 -0.24702206 0.08145639
-0.12986977 -0.03877713 0.057091188 -0.16323417 -0.0899316 0.08645649 -0.06244054 -0.38204557
-0.19336905 -0.26353326 0.13158101 0.22574756 -0.070376925 0.2022864 -0.31217772 0.014401641
-0.18239951 0.011260643 0.108781 0.05875459 -0.12823275 0.041856658 -0.06211628 -0.05566163
-0.008949402 -0.0075169937 0.05261474 0.065526836 -0.27207097 -0.040827524 0.13071679 -0.13310623
-0.16916676 0.022881532 0.12985836 0.033079684 0.114693895 0.364018
00000000: 3aaa 883d 627a d2bd 6469 00be c78c 82be
00000010: ecf1 963e 219e c53d f790 babd 313b 1a3e
00000020: ebf3 da3d 8003 d0be 6ffd d43d f12f 113e
00000030: a95f 8abe 2829 1a3e 396a a0be 3031 bd3d
00000040: 7674 b6be fbb7 ffbd df32 3f3e 971f d83d
00000050: f4c3 ee3c 6414 6fbd 3955 923d d3eb 553c
00000060: 182b b83e 1b44 263e b72e 643d 503e be3d
00000070: d708 2ebd a06e 5a3e 6742 4bbe e945 2a3d
00000080: d7fe 55be 2d96 26be 73e1 523e 86bd ad3e
00000090: 640b 163e bf49 bbbd a91a 43be 7bd8 943d
000000a0: 7635 a5be c779 5dbc 8a47 8bbd 710e 91bd
000000b0: afa3 89bc 416c a0bd a084 e73d 4ee7 fb3c
000000c0: 9b4e b7bc 836e 9a3c c58b 0bbd 2a37 903d
000000d0: 93cf b53d 7f36 adbd b0a2 263e 961c 2d3e
000000e0: c381 b23d 9706 b03d 881f da3d e9ae 7abc
000000f0: 745d f0bd e616 103e 7585 ef38 7664 553e
00000100: 7bfc 923c f967 823e 2984 39be c10d 19be
00000110: ef55 823e 99c0 febd 3edf 34be b75b 36be
00000120: 1e62 d1bc 0c6f 86bc d464 263e b847 cc3c
00000130: 8866 a0bd 4810 d9bd 2b29 833d fd0c b4bc
00000140: 0080 afbb 52b9 913e 6c7f 473b fc7b bd3d
00000150: 3633 11bd 34fe 30bd 3a6e 89bd 499b 3abe
00000160: 6720 2ebe 1554 a23d e7f4 44be ab80 893c
00000170: f10a 29be f1c1 79be 528d 913e 22fe 66be
00000180: cfb9 1dbe 7e0c fbbb 1e99 8e3e 55c2 81be
00000190: f7ba 0f3e c544 0f3e e1e1 4f3e 29d9 0bbe
000001a0: ce0a 9d3d aced 57be cf96 133d 7f06 643c
000001b0: 3376 c53d bee2 89be 5af3 7cbe 9cd2 a63d
000001c0: 95fc 04be c5d4 1ebd 73d8 693d dc26 27be
000001d0: 0f2e b8bd 1a10 b13d a7c1 7fbd 7a9b c3be
000001e0: 8902 46be d5ed 86be 2cbd 063e 5e2a 673e
000001f0: c721 90bd 2b24 4f3e c2d5 9fbe dcf4 6b3c
00000200: f0c6 3abe 8f7e 383c 93c8 de3d a7a8 703d
00000210: 724f 03be e371 2b3d a46d 7ebd 73fd 63bd
00000220: 83a0 12bc 1d51 f6bb 8e82 573d ef32 863d
00000230: e34c 8bbe c33a 27bd 9fda 053e 004d 08be
00000240: 0d3a 2dbe 0d72 bb3c 97f9 043e 907e 073d
00000250: a2e4 ea3d 9160 ba3e

fr3.bias f4 [10]
-0.17831583 0.2231463 -0.06416737 -0.057211768 -0.3097625 0.19996639 0.29444107 0.19813967
0.10703314 -0.32552344
00000000: 6d98 36be 7780 643e 2f6a 83bd e356 6abd
00000010: 3199 9ebe fdc3 4c3e fbc0 963e 20e5 4a3e
00000020: 3134 db3d 02ab a6be

fo1.weight f4 [30, 26]
0.0019658993 -0.0123371165 0.013682531 0.12332144 -0.018389594 0.40548313 0.15364091 -0.0217734
-0.15656509 0.15334329 0.0005015599 0.21224469 -0.3377256 -2.2118952 0.19000666 0.21454667
-0.044546552 -0.082252085 -0.18586145 0.26052663 0.11916457 -0.11016665 -0.16678356 0.094430014
0.053124264 0.0046672532 -0.05639325 -0.04521272 0.009434813 -0.059300374 -0.14161472 0.31928962
0.10789612 -0.027915968 0.17194037 0.22288078 0.010154291 0.14535537 -0.3090422 0.39181626
0.041700285 0.118003845 -0.14920568 -0.014055861 -0.057631727 -0.2997805 -0.19614643 -0.101967975
0.010563001 -0.07169468 0.1217457 0.09350903 -0.011475701 0.0019490366 0.010659836 -0.060572017
0.035096757 0.21519461 -0.17057624 0.043281425 0.1408715 0.069674134 0.031808473 -0.009654091
-0.6885604 3.260493 0.012147787 0.10441387 -0.06319333 -0.072051965 0.053024482 0.0075402916
-0.04313543 -0.03662553 0.17002265 0.0732701 -0.0648867 0.29383242 0.018318359 -0.028996667
0.02152837 -0.20391439 0.18463066 -0.1484579 0.06891974 0.021040464 0.26190403 0.13466679
-0.051977888 -0.12643966 1.5152043 1.1067442 -0.069628164 0.09855313 0.19776557 -0.1479242
-0.0052337926 0.13042101 -0.06441393 -0.023835815 0.17086539 0.082759455 -0.028124219 -0.030396549
-0.004307317 0.0015314851 0.00096659124 0.16401072 0.30183718 0.30059522 0.20157088 -0.013486136
-0.019784115 0.2816818 -0.17466624 -0.21844359 1.2120378 1.7704946 -0.18007949 0.02602314
0.26645803 -0.14556094 -0.2470722 -0.12400932 -0.16315061 -0.116442636 0.09188426 -0.22249047
0.08736436 0.23196633 0.012763376 -0.042468064 -0.012701063 0.14160478 -0.17346115 0.026066437
-0.039780054 0.22003657 -0.04955634 -0.42482674 0.26089177 -0.1982691 -0.334315 -1.1962415
0.2431555 -0.38210633 0.05002625 -0.015826646 0.032424714 0.062646694 -0.103052884 0.1102784
-0.0070729195 0.044368394 -0.01584725 -0.096104294 0.06418506 -0.06952886 0.0015031946 -0.07647268
-0.11026819 -0.24891378 0.026353182 -0.025616398 0.14863193 -0.14334288 -0.009899288 -0.28742003
0.76191616 -0.92717475 -0.054998454 -0.31262174 0.07242386 0.062678784 0.044746112 -0.08946658
-0.34316823 0.08421786 0.033012204 0.09315251 -0.14331928 -0.072971836 0.1067967 0.11128932
0.028950807 -0.9412291 -1.010316 -1.2113588 -1.0043004 -0.052238703 0.089177296 -0.23159224
0.036612343 -0.18345784 0.3427022 -0.41995865 0.2179351 -0.2645208 -0.010235582 0.092476085
-0.15098262 -0.016287178 0.123791225 -0.09671699 0.24415027 -0.11244118 -0.07559298 -0.110961646
0.0021396072 -0.12182387 -0.007632525 -0.26234823 -0.25708112 -0.39772168 -0.10737695 0.027046973
0.07250334 -0.20943628 0.049795818 0.11772135 0.3362004 -0.7855966 0.21756925 -0.0060861595
-0.12861653 0.1534007 -0.056694742 -0.11945555 -0.31407937 -0.08122371 -0.062239934 0.13447368
-0.08434521 -0.07047463 -0.018164074 0.036281925 0.003402823 0.1594248 0.4269085 0.12375051
0.08974313 -0.2355263 -0.18470441 -0.05561363 -0.122638114 -0.18532504 -2.5725026 2.8206546
-0.1490836 -0.18236685 0.08248068 -0.024543718 -0.31468073 -0.08596949 0.041845784 -0.13090917
00000000: 51d6 003b 9e21 4abc b22c 603c f38f fc3d
00000010: c6a5 96bc 7c9b cf3e 0b54 1d3e 215e b2bc
00000020: 9952 20be 0606 1d3e 1d7b 033a ac56 593e
00000030: 5fea acbe b18f 0dc0 1b91 423e 1fb2 5b3e
00000040: 7276 36bd c873 a8bd 7752 3ebe bf63 853e
00000050: 8e0c f43d 0d9f e1bd 4fc9 2abe 8664 c13d
00000060: d498 593d c2ef 983b 9cfc 66bd f930 39bd
00000070: 7994 1a3c f3e4 72bd 7303 11be ee79 a33e
00000080: a4f8 dc3d 07b0 e4bc 2311 303e dc3a 643e
00000090: 2f5e 263c 0ad8 143e c73a 9ebe 249c c83e
000000a0: ebcd 2a3d 00ac f13d 60c9 18be 8e4a 66bc
000000b0: 3f0f 6cbd d47c 99be 9cda 48be 96d4 d0bd
000000c0: 7010 2d3c a9d4 92bd cf55 f93d aa81 bf3d
000000d0: 9404 3cbc d176 ff3a 98a6 2e3c 5d1a 78bd
000000e0: 9ec1 0f3d fa5b 5c3e 8aab 2ebe dd47 313d
000000f0: 9e40 103e 50b1 8e3d 9a49 023d 312c 1ebc
00000100: 7f45 30bf ebab 5040 8307 473c f0d6 d53d
00000110: 816b 81bd fb8f 93bd 3330 593d 8d14 f73b
00000120: c7ae 30bd a704 16bd 6b1a 2e3e a20e 963d
00000130: 51e3 84bd 3471 963e 6210 963c 6b8a edbc
00000140: 445c b03c efce 50be d20f 3d3e 5905 18be
00000150: cb25 8d3d 0d5d ac3c 4918 863e 17e6 093e
00000160: c4e6 54bd 6679 01be 37f2 c13f cba9 8d3f
00000170: 3699 8ebd 39d6 c93d 0f83 4a3e 7179 17be
00000180: 3c80 abbb 168d 053e 73eb 83bd 5443 c3bc
00000190: 56f7 2e3e ca7d a93d c364 e6bc 2f02 f9bc
000001a0: 6524 8dbb 1dbc c83a d762 7d3a 6df2 273e
000001b0: 678a 9a3e 9ee7 993e 9968 4e3e f4f4 5cbc
000001c0: 4c12 a2bc 9938 903e b5db 32be adaf 5fbe
000001d0: 0e24 9b3f 919f e23f c266 38be 7b2e d53c
000001e0: 306d 883e ed0d 15be 7f00 7dbe 99f8 fdbd
000001f0: f410 27be 7a79 eebd d12d bc3d 8bd4 63be
00000200: 16ec b23d 9588 6d3e 7b1d 513c fef2 2dbd
00000210: 1f18 50bc d800 113e cd9f 31be 4889 d53c
00000220: 69f0 22bd 4451 613e 97fb 4abd e482 d9be
00000230: 9b93 853e 0e07 4bbe 562b abbe 711e 99bf
00000240: c1fd 783e 71a3 c3be 53e8 4c3d e2a6 81bc
00000250: c7cf 043d e94c 803d 640d d3bd a4d9 e13d
00000260: f3c3 e7bb a2bb 353d 18d2 81bc 54d2 c4bd
00000270: 7573 833d 2665 8ebd d706 c53a b59d 9cbd
00000280: 4ad4 e1bd 41e3 7ebe a1e2 d73c 7bd9 d1bc
00000290: f832 183e 7ac8 12be a030 22bc b828 93be
000002a0: f00c 433f 535b 6dbf 0f46 61bd f50f a0be
000002b0: f652 943d bc5d 803d b347 373d 413a b7bd
000002c0: bfb3 afbe 6a7a ac3d ce37 073d bec6 be3d
000002d0: 4ac2 12be 4272 95bd 3ab8 da3d a8eb e33d
000002e0: 3e2a ed3c 64f4 70bf 0952 81bf ce0d 9bbf
000002f0: ea8c 80bf 40f8 55bd 96a2 b63d 8426 6dbe
00000300: d3f6 153d 5fdc 3bbe aa76 af3e d204 d7be
00000310: 612a 5f3e 456f 87be 24b3 27bc 1a64 bd3d
00000320: 309b 1abe b06c 85bc 4186 fd3d 8f13 c6bd
00000330: 8702 7a3e 9047 e6bd 7ed0 9abd dc3f e3bd
00000340: a738 0c3b cb7e f9bd 431a fabb 8252 86be
00000350: 23a0 83be 2da2 cbbe 72e8 dbbd 9d91 dd3c
00000360: a27c 943d 7776 56be b3f6 4b3d e417 f13d
00000370: 7522 ac3e dc1c 49bf 79ca 5e3e 686e c7bb
00000380: 0db4 03be 1315 1d3e bf38 68bd 1da5 f4bd
00000390: 03cf a0be 9e58 a6bd 4def 7ebd 78b3 093e
000003a0: 2ebd acbd 0155 90bd d3cc 94bc 5b9c 143d
000003b0: e501 5f3b 4140 233e c093 da3e e870 fd3d
000003c0: 3fcb b73d ce2d 71be 2723 3dbe 1ecb 63bd
000003d0: b129 fbbd d9c5 3dbe e2a3 24c0 9b85 3440
000003e0: 5fa9 18be 60be 3abe a1eb a83d e80f c9bc
000003f0: d51d a1be c610 b0bd 7c66 2b3d 0e0d 06be

fo1.bias f4 [30]
-0.16806073 -0.09206093 -0.13239053 -0.049139887 -0.16911514 -0.15105014 0.11789694 0.21851914
-0.056383446 -0.05193703 0.07076495 0.033828825 -0.08098896 0.15274066 -0.26500377 -0.43672502
-0.28461888 0.009244642 -0.2061604 -0.15297809 0.2085995 -0.14106555 -0.16909324 -0.1297914
-0.14843331 -0.04232583 0.049157128 -0.231944 0.049971893 0.11500883
00000000: 1d18 2cbe 718a bcbd 6291 07be e846 49bd
00000010: 852c 2dbe e3ac 1abe f373 f13d 7bc3 5f3e
00000020: 54f2 66bd ecbb 54bd 37ed 903d 1890 0a3d
00000030: 8add a5bd 0c68 1c3e 93ae 87be 6c9a dfbe
00000040: 91b9 91be d776 173c b61b 53be 4aa6 1cbe
00000050: 1b9b 553e 7d73 10be c726 2dbe 09e8 04be
00000060: e7fe 17be d95d 2dbd fc58 493d ba82 6dbe
00000070: 54af 4c3d c089 eb3d

fo2.weight f4 [15, 30]
0.075587764 0.0033447554 -0.14144912 -0.38298556 -0.23781916 -0.26988366 0.09092594 -0.24889462
-0.0040218453 0.17384338 -0.41439 -0.13382845 -0.27024323 -0.47149006 0.008067416 0.16389124
0.12578818 0.07687787 0.05560702 -0.34361118 -0.45458978 -0.03877525 0.21301423 -0.00726977
0.026998255 0.4028125 0.010693954 -0.23948702 -0.3033517 -0.10733518 0.116449095 0.2395321
-0.0024650276 0.081085175 0.15734033 0.03050385 0.022194821 -0.0022821592 0.1932607 0.02888181
-0.02393879 -0.37566125 0.069772534 -0.05694752 0.15565717 0.04064323 0.37683377 -0.047706265
-0.045161556 0.039683495 0.00032528935 -0.0871881 0.03646585 0.10383972 -0.07977102 -0.017521927
0.074276894 -0.21019112 -0.012149208 -0.11339111 0.24679716 0.22839361 0.09429204 0.11346707
0.14363599 0.024489023 -0.06806767 -0.4982959 -0.29259267 0.10095424 0.0012708779 0.0035151166
-0.45980373 -0.096482605 -0.17134501 -0.0068433285 0.044368755 -0.022935014 -0.18356675 -0.09195374
-0.22442977 0.074939765 0.2213141 -0.1327008 0.03750256 0.21119826 -0.056503743 -0.26455042
-0.12899533 0.14504255 0.08663611 0.15580213 -0.06429654 -0.060139284 0.30647722 -0.40153542
-0.38756028 -0.37393734 -0.5867476 0.10474227 -0.047894675 0.11104297 0.12199461 -0.26770562
-0.044101328 0.016590362 0.17852883 -0.32213977 -0.03884256 -0.0030270794 0.2266948 0.08414821
0.1900144 0.0041345377 -0.18756822 0.0766881 -0.10882379 0.11050531 0.10565241 -0.113621086
0.21650305 -0.065142795 0.07050664 -0.14242758 0.036600836 0.03794474 -0.099104635 -0.039969005
-0.2896533 0.08566244 0.01864475 -0.06643038 -0.06000937 0.15241554 0.22799711 0.038212564
-0.15098634 0.16176854 -0.112094246 -0.03857928 0.04954942 0.035479497 -0.03754648 -0.23401994
0.11211235 -0.10870395 -0.16098766 -0.022390833 0.18843931 -0.10313516 -0.2255388 -0.17192458
-0.096159555 0.05344467 -0.16184358 -0.010259101 0.15342614 0.08367853 0.008108235 -0.16300392
-0.17389531 -0.23135416 0.061645918 0.104830146 0.051050548 -0.030014087 -0.05390616 -0.15184814
0.038254946 -0.06923848 0.12872648 0.05209975 -0.1257524 -0.15492141 0.14469469 -0.1169522
0.069934204 0.03534852 -0.06825479 -0.0009010413 0.17742214 -0.003598407 -0.086213075 -0.3320291
-0.2912274 -0.102188796 -0.09987775 -0.12411726 -0.21219334 0.25921008 -0.1556723 -0.10452393
-0.7454409 -0.20416018 -0.05544769 -0.066207714 0.029610232 0.0063885367 -0.3341328 0.1406588
-0.2312422 0.078497514 0.006601607 -0.09594594 0.08280249 0.28607297 -0.034042984 -0.25652522
-0.5293164 0.17601372 0.06374082 0.2612655 0.14315718 0.12724528 0.18856636 -0.14106643
-0.031579435 -0.18143831 -0.086650334 -0.17116603 0.0598132 0.0674444 0.21904868 0.0068397718
0.21165267 -0.093146294 0.18114726 -0.23191817 -0.18464158 0.17165184 0.0772252 -0.06743503
-0.27612796 0.10673105 -0.16081728 -0.2537723 -0.078219414 -0.035293475 -0.083335 -0.12796423
0.0025401358 -0.102769166 0.17715737 -0.018220844 0.040497933 -0.031788345 -0.14143926 0.10724854
0.06815387 0.15884613 -0.14645465 0.07042756 0.007636044 -0.034307163 -0.09109325 -0.02336809
00000000: c2cd 9a3d af33 5b3b 0ad8 10be af16 c4be
00000010: de86 73be 312e 8abe 6137 ba3d 3bde 7ebe
00000020: afc9 83bb 0004 323e ed2a d4be 530a 09be
00000030: 525d 8abe 2567 f1be 322d 043c 1bd3 273e
00000040: 9ece 003e 2572 9d3d 30c4 633d ceed afbe
00000050: febf e8be ccd2 1ebd 6720 5a3e 4037 eebb
00000060: 722b dd3c 713d ce3e b235 2f3c 163c 75be
00000070: ea50 9bbe 8cd2 dbbd dd7c ee3d e747 753e
00000080: 4d8c 21bb fc0f a63d d31d 213e 36e3 f93c
00000090: ead1 b53c 4790 15bb 22e6 453e 8c99 ec3c
000000a0: 481b c4bc ac56 c0be e7e4 8e3d cd41 69bd
000000b0: 9864 1f3e 8479 263d 5bf0 c03e a567 43bd
000000c0: 53fb 38bd 298b 223d 998b aa39 ad8f b2bd
000000d0: 375d 153d eba9 d43d fd5e a3bd 258a 8fbc
000000e0: 7c1e 983d 573c 57be 790d 47bc 9939 e8bd
000000f0: 65b8 7c3e 04e0 693e 2f1c c13d 6c61 e83d
00000100: 5015 133e 349d c83c 1067 8bbd a420 ffbe
00000110: b5ce 95be 19c1 ce3d 9693 a63a df5d 663b
00000120: 656b ebbe ac98 c5bd 1175 2fbe 003e e0bb
00000130: 03bc 353d 36e2 bbbc ecf8 3bbe 3e52 bcbd
00000140: ebd0 65be 057a 993d 2aa0 623e b8e2 07be
00000150: 499c 193d 5b44 583e 7870 67bd 2773 87be
00000160: 5a17 04be 0986 143e 466e b13d 988a 1f3e
00000170: e8ad 83bd 9c54 76bd 95ea 9c3e 0d96 cdbe
00000180: 4d6e c6be b774 bfbe 1735 16bf 1e83 d63d
00000190: 352d 44bd 7f6a e33d 4fd8 f93d b610 89be
000001a0: 98a3 34bd 83e8 873c 43d0 363e 81ef a4be
000001b0: 6019 1fbd f761 46bb af22 683e e655 ac3d
000001c0: 2393 423e 047b 873b e211 40be a70e 9d3d
000001d0: 02df debd 9c50 e23d 4a60 d83d 2cb2 e8bd
000001e0: fab2 5d3e 9669 85bd c965 903d 89d8 11be
000001f0: c2ea 153d f26b 1b3d 5ff7 cabd 8ab6 23bd
00000200: 704d 94be ca6f af3d e0bc 983c a70c 88bd
00000210: 63cc 75bd d212 1c3e 1378 693e c784 1c3d
00000220: 2a9c 1abe a7a6 253e ab91 e5bd 4f05 1ebd
00000230: 55f4 4a3d f352 113d 56ca 19bd eca2 6fbe
00000240: 299b e53d 2da0 debd f3d9 24be fb6c b7bc
00000250: 3cf6 403e 8738 d3bd a5f3 66be ff0c 30be
00000260: 4def c4bd cce8 5a3d 53ba 25be ca15 28bc
00000270: be1b 1d3e a65f ab3d 67d8 043c 80ea 26be
00000280: 9d11 32be 1be8 6cbe 6e80 7c3d 30b1 d63d
00000290: 611a 513d 1ae0 f5bc b5cc 5cbd 147e 1bbe
000002a0: 38b1 1c3d e7cc 8dbd e0d0 033e 8c66 553d
000002b0: 3dc5 00be b8a3 1ebe d82a 143e a384 efbd
000002c0: aa39 8f3d 9cc9 103d 2bc9 8bbd dc33 6cba
000002d0: 26ae 353e 40d3 6bbb 7b90 b0bd b8ff a9be
000002e0: c21b 95be 5c48 d1bd b58c ccbd 3131 febd
000002f0: 3649 59be 2fb7 843e 8f68 1fbe a410 d6bd
00000300: 37d5 3ebf 5e0f 51be 1e1d 63bd e997 87bd
00000310: 2891 f23c ee56 d13b 7413 abbe dc08 103e
00000320: c1ca 6cbe 4ec3 a03d 4b52 d83b 4e7f c4bd
00000330: 5a94 a93d 2878 923e a870 0bbd 4657 83be
00000340: 4881 07bf f13c 343e 8c8a 823d 97c4 853e
00000350: cc97 123e 964c 023e 8a17 413e b873 10be
00000360: 7059 01bd f7ca 39be bb75 b1bd 2646 2fbe
00000370: b0fe 743d 4a20 8a3d 4c4e 603e 2a20 e03b
00000380: 7abb 583e 7cc3 bebd ab7e 393e f57b 6dbe
00000390: af12 3dbe 80c5 2f3e 3f28 9e3d 611b 8abd
000003a0: a560 8dbe cf95 da3d 49ad 24be 71ee 81be
000003b0: 8031 a0bd e48f 10bd 8aab aabd 0e09 03be
000003c0: 6878 263b a478 d2bd be68 353e e143 95bc
000003d0: 29e1 253d 7f34 02bd 74d5 10be 1fa5 db3d
000003e0: 4294 8b3d 8fa8 223e 35f8 15be 533c 903d
000003f0: c837 fa3b ab85 0cbd 198f babd 706e bfbc

fo2.bias f4 [15]
-0.30193004 -0.23872584 -0.12928629 -0.3387732 0.04359038 -0.0034199187 -0.09929528 -0.058623344
-0.07427046 0.050385524 0.09218164 0.08262982 0.069050334 0.039535444 0.07357261
00000000: 9396 9abe 8c74 74be a063 04be ae73 adbe
00000010: d48b 323d b720 60bb 535b cbbd 081f 70bd
00000020: 1c1b 98bd 0d61 4e3d bac9 bc3d d339 a93d
00000030: 436a 8d3d ebef 213d 3dad 963d

fo3.weight f4 [10, 15]
0.042293116 -0.03199177 0.11287894 0.10234327 0.021731207 -0.10620874 -0.2948198 -0.20965168
-0.19539616 -0.09357505 0.16875902 0.14042835 0.16640703 -0.02036364 -0.14396527 -0.13415775
0.0641855 0.17591122 0.031348795 0.21183933 -0.06565859 -0.13760298 -0.16678536 -0.09889552
0.063645594 0.0865095 0.16113871 -0.05681682 -0.21358384 -0.01471585 0.13470457 -0.163672
-0.05330479 -0.14673392 0.08651289 0.07270136 -0.07730711 0.04536933 -0.009857982 0.004238236
0.07043696 0.10410284 0.07764019 0.023037365 -0.13335964 0.20279214 0.056010652 -0.12784806
0.6122859 0.06245487 0.13697654 0.14931676 0.15643606 -0.23084103 0.38847533 -0.059098095
0.18461405 0.00570633 0.0996294 -0.30322883 0.270681 0.05594796 -0.16947564 0.1232916
-0.1410242 -0.07638066 -0.009084809 -0.03824732 -0.13572665 -0.13202333 -0.07876343 0.1577048
-0.0766606 0.06251281 0.073791206 0.28718585 -0.3133269 0.3615996 -0.02887902 0.008957986
-0.118856594 0.3983327 -0.09818933 0.07495031 -0.006440663 0.30475974 -0.19341546 -0.06274874
0.013502475 -0.15014379 -0.07217918 0.124171965 0.079684496 0.046324886 0.14393018 -0.2110101
0.08081212 0.14075008 -0.09430366 0.026326166 -0.17151037 -0.04901207 0.14213236 -0.110033035
0.10698773 0.32822123 0.026300872 -0.21397233 -0.08021024 0.26609322 -0.110977575 -0.59979475
0.14169008 -0.5518482 0.22145464 -0.022703078 0.04532235 -0.15337534 -0.5404377 -0.0016442656
0.85857356 -0.15300658 0.22082627 0.31148374 0.04807869 0.0531449 0.16924505 0.1535264
-0.1377307 0.23723826 0.19013466 -0.24690211 -0.006163364 -0.09558279 0.1849905 0.06342412
0.11939147 0.18672933 0.18360738 -0.1252663 0.114768416 0.058452696 0.06454416 0.07488454
-0.02850271 0.03993649 0.01803928 -0.17652197 0.03752307 0.11920322
00000000: 8c3b 2d3d cd09 03bd 132d e73d 5999 d13d
00000010: a505 b23c f883 d9bd 9ff2 96be eeae 56be
00000020: ee15 48be 47a4 bfbd 2acf 2c3e 73cc 0f3e
00000030: 9b66 2a3e a6d1 a6bc a26b 13be a660 09be
00000040: b073 833d 1222 343e 9867 003d 69ec 583e
00000050: 0378 86bd cce7 0cbe c8c9 2abe bc89 cabd
00000060: 9f58 823d e52b b13d 8c01 253e c1b8 68bd
00000070: b9b5 5abe c01a 71bc ffef 093e a299 27be
00000080: 2056 5abd 6b41 16be ac2d b13d 73e4 943d
00000090: 3153 9ebd 31d5 393d 6083 21bc e7e0 8a3b
000000a0: 4141 903d df33 d53d d201 9f3d dbb8 bc3c
000000b0: 6e8f 08be bea8 4f3e 6d6b 653d 9aea 02be
000000c0: c5be 1c3f aed0 7f3d 9443 0c3e 7ee6 183e
000000d0: c630 203e 9761 6cbe 3de6 c63e d810 72bd
000000e0: 770b 3d3e 2afc ba3b 800a cc3d cf40 9bbe
000000f0: b396 8a3e b029 653d 068b 2dbe 4e80 fc3d
00000100: a668 10be 776d 9cbd 73d8 14bc 39a9 1cbd
00000110: edfb 0abe 2031 07be b94e a1bd 5e7d 213e
00000120: 3c00 9dbd b706 803d d81f 973d 060a 933e
00000130: 626c a0be 9523 b93e b293 ecbc 84c4 123c
00000140: 166b f3bd 43f2 cb3e 7d17 c9bd 8c7f 993d
00000150: 320c d3bb 7809 9c3e b40e 46be 6982 80bd
00000160: 7c39 5d3c 4bbf 19be aed2 93bd df4d fe3d
00000170: a031 a33d 2abf 3d3d 6f62 133e 0813 58be
00000180: d380 a53d ca20 103e 4722 c1bd f9a9 d73c
00000190: 6aa0 2fbe e1c0 48bd 258b 113e 0059 e1bd
000001a0: 621c db3d 9d0c a83e ed74 d73c 901b 5bbe
000001b0: 4445 a4bd 5f3d 883e 3648 e3bd 268c 19bf
000001c0: 3417 113e ec45 0dbf 01c5 623e cefb b9bc
000001d0: eea3 393d 6d0e 1dbe 205a 0abf 6684 d7ba
000001e0: 7acb 5b3f c2ad 1cbe 4820 623e cc7a 9f3e
000001f0: 29ee 443d 77ae 593d 934e 2d3e 0636 1d3e
00000200: 4709 0dbe 96ee 723e a9b2 423e e8d3 7cbe
00000210: 0bf6 c9bb e9c0 c3bd 266e 3d3e 81e4 813d
00000220: 8483 f43d f935 3f3e 9303 3c3e cf45 00be
00000230: b40b eb3d 186c 6f3d bb2f 843d 115d 993d
00000240: 847e e9bc 7294 233d 1dc7 933c 2dc2 34be
00000250: cab1 193d d120 f43d

fo3.bias f4 [10]
-0.2030745 -0.06824008 -0.12569703 -0.16101769 -0.017468235 -0.090040326 -0.054224852 0.041702867
-0.21579464 -0.0083472775
00000000: c3f2 4fbe 74c1 8bbd b9b6 00be d2e1 24be
00000010: 8b19 8fbc 1067 b8bd e11a 5ebd a0d0 2a3d
00000020: 45f9 5cbe 05c3 08bc

fc1.weight f4 [30, 10]
-0.1901386 0.075462505 0.13649301 -0.09707903 -0.009569469 0.16289738 0.1706152 -0.34862322
0.2644104 -0.04908556 0.26613748 -0.1978418 -0.27353552 -0.02724388 0.25943518 0.1311323
0.11919607 0.12101109 -0.11996831 -0.07137531 0.12321101 0.21179847 -0.07664971 0.09668738
-0.07255917 0.088709466 0.10595176 -0.030555435 -0.28842923 0.16878027 0.030318845 0.03777887
0.15142679 -0.00908732 0.2830876 0.13955058 0.17726292 0.004670657 -0.047837757 0.06864796
0.58814836 0.23628502 -0.14081168 -0.024417931 0.11248229 -0.27907813 -0.30545577 -0.3023921
0.13110748 -0.096310414 -0.48381183 -0.109694526 0.15736952 -0.03086594 0.24171929 0.290706
0.09132882 -0.15693395 -0.03966971 -0.29467458 0.015484349 0.18212351 0.074482754 0.15136245
0.11859978 -0.45223123 -0.18600222 -0.07563299 -0.020971796 -0.07764762 0.29059654 -0.21238238
-0.29097804 0.032578167 -0.27201903 0.13718879 0.15253893 0.114630535 -0.25322756 0.077623636
-0.09047911 0.1153927 0.05683386 -0.0070977886 -0.18512158 0.015695082 0.02810056 -0.23764817
0.006175432 -0.1712059 -0.026078045 -0.20143586 0.034656554 0.06818194 0.25470582 0.13869369
0.019488696 -0.2675578 -0.0948964 -0.0759449 -0.0027457725 -0.32341602 0.10666059 -0.043002706
-0.107569985 -0.031168206 -0.26331243 0.054858856 0.14080687 -0.26505905 0.1965985 -0.01892495
-0.048314456 -0.02565623 0.14821495 -0.20470206 -0.09626987 0.28410217 -0.3000199 -0.04585579
-0.33511725 0.24200124 -0.110479124 -0.0033109642 0.11364609 0.09537641 -0.37230927 0.16715105
-0.0526073 0.0036403656 -0.1286934 -0.36132023 -0.19967692 0.08767183 -0.23151024 0.24520966
0.016301999 -0.021532064 0.08305905 0.19288383 0.104186356 -0.12437193 -0.10290125 -0.02025462
0.20773338 -0.04191575 0.03917732 0.1264541 0.29418448 -0.12418129 -0.38921577 0.14377522
-0.033494778 0.20745416 0.027696641 -0.106979646 -0.2756064 -0.28552458 0.067694634 -0.094251804
0.29404226 0.10256155 -0.009838411 0.12802179 0.23064137 -0.33237746 -0.03401288 0.100278966
-0.09144334 0.0003683834 0.2891533 -0.0143107725 0.04771163 -0.36398974 -0.018966654 0.015541356
0.05497398 0.4310417 -0.07295867 0.20581424 -0.05782168 -0.094946094 -0.011857417 -0.08464781
-0.0787063 -0.25747254 -0.07553017 0.29724503 -0.025006192 -0.099185914 0.0077132513 0.1219295
0.13554056 -0.0122824665 0.31766212 -0.3329587 -0.17960721 0.30247453 0.14682993 0.0066144234
0.046550848 0.34855026 0.16317125 0.2720392 -0.14793754 0.2520306 0.2681747 -0.033374462
-0.0004847116 -0.2582634 0.10023663 -0.514783 0.053612888 0.004469 0.22675061 -0.0634025
-0.2271989 -0.08439958 -0.087396555 0.2702325 0.15292418 0.06687385 -0.2549844 -0.23866965
0.15661141 0.11798416 -0.28533953 -0.30388117 0.022961479 -0.2817776 -0.123160064 0.055576295
0.37408578 0.025555788 -0.29237 -0.0065175234 -0.08994252 -0.21363291 -0.13584223 0.05325807
-0.3808009 0.04933255 0.25140995 -0.14170851 -0.15968616 0.27851853 0.15401365 -0.0986793
0.021797167 0.15568097 -0.1001062 -0.0924059 -0.22303748 -0.3902527 -0.17088401 -0.017802034
00000000: b1b3 42be 168c 9a3d d3c4 0b3e 5fd1 c6bd
00000010: 43c9 1cbc 92ce 263e c0b5 2e3e be7e b2be
00000020: cd60 873e f10d 49bd 2c43 883e 0a97 4abe
00000030: d90c 8cbe 8f2e dfbc b0d4 843e 8c47 063e
00000040: 121d f43d aad4 f73d f2b1 f5bd 382d 92bd
00000050: 0e56 fc3d b3e1 583e 86fa 9cbd 0804 c63d
00000060: e799 94bd 4fad b53d 3dfd d83d 644f fabc
00000070: ffac 93be bcd4 2c3e 3a5f f83c 04be 1a3d
00000080: a00f 1b3e fce2 14bc dcf0 903e 59e6 0e3e
00000090: 6984 353e 500c 993b 86f1 43bd 4d97 8c3d
000000a0: e490 163f b3f4 713e f030 10be 1d08 c8bc
000000b0: 1d5d e63d 54e3 8ebe b364 9cbe 23d3 9abe
000000c0: 0a41 063e 653e c5bd 2fb6 f7be 86a7 e0bd
000000d0: 7a25 213e 91da fcbc 4385 773e 6bd7 943e
000000e0: 9b0a bb3d 4bb3 20be b57c 22bd 96df 96be
000000f0: 11b2 7d3c 967e 3a3e 6a8a 983d c2fe 1a3e
00000100: 71e4 f23d da8a e7be 5e77 3ebe 78e5 9abd
00000110: 0bcd abbc b705 9fbd 12c9 943e c47a 59be
00000120: 13fb 94be af70 053d 1446 8bbe 387b 0c3e
00000130: 2a33 1c3e 6ac3 ea3d 0ba7 81be 24f9 9e3d
00000140: 1d4d b9bd 0253 ec3d 9fca 683d 9194 e8bb
00000150: 8390 3dbe f992 803c 2533 e63c 0b5a 73be
00000160: 475b ca3b 9950 2fbe a0a1 d5bc 3445 4ebe
00000170: 08f4 0d3d f9a2 8b3d cd68 823e b805 0e3e
00000180: c2a6 9f3c 56fd 88be 0b59 c2bd 0089 9bbd
00000190: 6bf2 33bb c996 a5be de70 da3d 9b23 30bd
000001a0: a74d dcbd 7754 ffbc e3d0 86be aeb3 603d
000001b0: ad2f 103e d2b5 87be 1e51 493e 7f08 9bbc
000001c0: 61e5 45bd 042d d2bc a9c5 173e 6b9d 51be
000001d0: 2329 c5bd d775 913e 359c 99be 48d3 3bbd
000001e0: 7d94 abbe 2ccf 773e e142 e2bd c3fc 58bb
000001f0: 48bf e83d b554 c33d 529f bebe a529 2b3e
00000200: c17a 57bd 3393 6e3b 34c8 03be f7fe b8be
00000210: 1b78 4cbe 4a8d b33d 0511 6dbe 3e18 7b3e
00000220: c58b 853c 0364 b0bc dd1a aa3d 5783 453e
00000230: a85f d53d b6b6 febd e4bd d2bd 04ed a5bc
00000240: 0fb8 543e d9af 2bbd 6678 203d 2f7d 013e
00000250: 599f 963e c352 febd 4a47 c7be d039 133e
00000260: d231 09bd dd6e 543e 11e4 e23c 2518 dbbd
00000270: 481c 8dbe 4730 92be 7ca3 8a3d 1707 c1bd
00000280: b58c 963e ca0b d23d 4931 21bc 2518 033e
00000290: 402d 6c3e 612d aabe 1751 0bbd 0f5f cd3d
000002a0: a546 bbbd 9523 c139 e70b 943e bb77 6abc
000002b0: 456d 433d dd5c babe f55f 9bbc 2ca1 7e3c
000002c0: 652c 613d 7fb1 dc3e 5b6b 95bd f8c0 523e
000002d0: 6dd6 6cbd 1973 c2bd 9d45 42bc d55b adbd
000002e0: c530 a1bd 71d3 83be 90af 9abd 8030 983e
000002f0: c9d9 ccbc fc21 cbbd 71bf fc3b 2cb6 f93d
00000300: 25cb 0a3e 663c 49bc 9ca4 a23e 9079 aabe
00000310: f4ea 37be f1dd 9a3e 965a 163e cebd d83b
00000320: 1aac 3e3d 2e75 b23e 5d16 273e b948 8b3e
00000330: f07c 17be 280a 813e 324e 893e a9b3 08bd
00000340: e420 feb9 1a3b 84be dd48 cd3d d2c8 03bf
00000350: 3099 5b3d b070 923b 5031 683e 2bd9 81bd
00000360: d4a6 68be b0d9 acbd f7fc b2bd ea5b 8a3e
00000370: 2898 1c3e 28f5 883d 518d 82be d165 74be
00000380: be5e 203e aea1 f13d 0618 92be 5096 9bbe
00000390: b619 bc3c 2745 90be 583b fcbd f8a3 633d
000003a0: 2c88 bf3e 5f5a d13c 85b1 95be f390 d5bb
000003b0: c933 b8bd 96c2 5abe 3a1a 0bbe 2225 5a3d
000003c0: 56f8 c2be ee10 4a3d ceb8 803e 091c 11be
000003d0: c584 23be fb99 8e3e c1b5 1d3e 5f18 cabd
000003e0: f98f b23c d56a 1f3e 7b04 cdbd 4e3f bdbd
000003f0: f063 64be 34cf c7be 38fc 2ebe 92d5 91bc

fc1.bias f4 [30]
-0.22971745 0.03947579 0.1497778 -0.42654127 0.10405981 0.19708684 -0.17570321 -0.06794114
0.02908462 -0.22764987 -0.20181234 0.058712408 -0.054441866 0.009611592 -0.20880656 0.13573635
-0.2780404 -0.14170904 -0.050524708 0.3770634 -0.1371474 -0.056893703 0.14671879 0.39140558
0.24172314 0.19787937 0.047785897 0.10724791 0.13533923 0.14161675
00000000: 0d3b 6bbe 5eb1 213d 5a5f 193e 9e63 dabe
00000010: 4f1d d53d 22d1 493e 8beb 33be b924 8bbd
00000020: de42 ee3c 0c1d 69be e5a7 4ebe 6c7c 703d
00000030: 6ffe 5ebd f079 1d3c 63d1 55be 78fe 0a3e
00000040: 505b 8ebe 2d1c 11be fff2 4ebd 740e c13e
00000050: 5e70 0cbe 5f09 69bd 733d 163e 5066 c83e
00000060: 4586 773e e4a0 4a3e 25bb 433d cba4 db3d
00000070: 5e96 0a3e fb03 113e

fc2.weight f4 [15, 30]
-0.3773252 -0.26927572 -0.17034583 -0.047981028 -0.4129001 -0.034914386 -0.15458356 -0.08524944
0.16718347 0.16102092 -0.112046994 -0.36746687 0.13591376 -0.083416566 -0.041697223 -0.00095891324
0.3209027 0.08181154 -0.023380812 0.17476445 -0.031094486 -0.011765797 0.23679776 0.15956406
0.07552952 0.10026265 0.020972082 0.10332884 0.0993508 0.13097699 0.040846772 0.44311178
-0.19042678 0.09650288 0.3045898 0.017989831 -0.027111432 0.13346234 -0.2359435 0.16353841
0.33606437 0.022976067 0.043594368 -0.12890981 0.2240393 -0.13062647 -0.012396666 -0.026678424
0.08749393 0.036504086 -0.058286075 0.16614565 0.30505544 -0.30417976 -0.117104664 0.176144
0.2373417 0.26021945 0.042912956 0.38072816 0.14205691 0.24363297 -0.006805958 0.13521776
0.07805532 0.08789615 0.10498451 0.030568702 0.14216477 0.10263047 0.056752183 -0.06168125
-0.033144664 -0.024966955 0.1250443 0.034215666 0.0881774 -0.10715753 -0.10919108 -0.034028053
-0.09692415 0.09830215 0.1603287 -0.14395118 -0.1763017 0.28623706 0.270185 0.20690851
-0.024886485 0.11438241 0.09521693 0.3701657 -0.14880823 0.03735318 0.072093904 -0.0042078267
0.062045828 0.1701087 0.058478862 0.16944298 0.09870431 -0.16528952 0.019178793 0.056671288
0.113278374 0.09065058 0.037766244 -0.01689602 0.21623535 0.08450253 -0.21494111 0.09030612
0.21624562 -0.2125388 -0.2215799 0.015420023 0.4818459 0.07254404 0.12995015 0.19598173
-0.1304298 0.18639767 0.01002077 0.17022245 -0.185176 -0.28137034 -0.18049715 -0.021377003
0.085473925 0.30134127 -0.091435686 -0.22674122 0.003028986 -0.067485236 0.18468511 0.10018463
0.047434703 0.009888019 0.1161161 -0.28935045 -0.054124825 0.004380362 0.29583582 -0.018811995
0.00048325458 -0.037314042 0.021505317 0.012228963 0.20089509 -0.027885446 -0.66420585 0.123467155
0.044080053 -0.00061567436 -0.16648881 -0.19618984 -0.27247763 -0.08485169 0.01958335 -0.08001371
-0.008784943 -0.25038394 0.07241847 -0.11019658 0.027817719 0.047883134 0.19460486 0.06833757
0.17012289 0.113072515 -0.038185976 -0.035347965 0.030423468 0.14467426 -0.057539187 0.06378245
0.0072043096 -0.042966865 0.14499573 0.09163063 -0.089174464 0.20606342 -0.28273937 0.0465553
0.23834471 0.07692148 -0.08178442 0.057315893 0.05984263 0.18761711 -0.049849562 0.16313489
-0.06833901 -0.04090679 0.07592619 -0.034786735 0.053211544 -0.045150496 0.06545106 -0.05726656
-0.1223976 -0.06261293 0.11470594 -0.27146447 -0.009047398 0.044273887 -0.01770181 0.017701121
0.025940001 0.048317134 0.10957615 -0.26060393 0.03272468 -0.16186102 -0.04082805 -0.048945393
-0.24760994 -0.12888628 0.01498622 -0.2504217 0.046443205 0.23654957 -0.0075125135 0.06637202
-0.14863256 0.12254408 0.021304995 -0.16922332 -0.16723108 -0.14829165 0.041559085 0.024310824
0.08166734 0.18643676 0.018346112 -0.11163556 -0.15457907 -0.38973898 -0.20709497 -0.15098727
-0.015153201 0.0858219 -0.06531083 0.10464794 -0.004693833 -0.00035311014 0.06161831 -0.04275294
-0.118823186 0.019887943 -0.07189451 0.07436071 0.0012818226 0.14873424 -0.012116335 -0.06330102
00000000: c530 c1be 82de 89be 236f 2ebe c187 44bd
00000010: a467 d3be 6302 0fbd 274b 1ebe 4297 aebd
00000020: 2532 2b3e abe2 243e e578 e5bd 9e24 bcbe
00000030: fa2c 0b3e 4ed6 aabd b5ca 2abd 945f 7bba
00000040: 5c4d a43e cf8c a73d 1e89 bfbc 74f5 323e
00000050: ddb9 febc 54c5 40bc 1d7b 723e c364 233e
00000060: 39af 9a3d 8156 cd3d a5cd ab3c 129e d33d
00000070: 6f78 cb3d d51e 063e f24e 273d 8cdf e23e
00000080: 3dff 42be 4da3 c53d 32f3 9b3e 695f 933c
00000090: cb18 debc 5aaa 083e 2c9b 71be 9d76 273e
000000a0: a110 ac3e 4e38 bc3c 0290 323d ef00 04be
000000b0: 8f6a 653e f2c2 05be 631b 4bbc b68c dabc
000000c0: 0430 b33d 4f85 153d 61bd 6ebd 1622 2a3e
000000d0: 3a30 9c3e 73bd 9bbe 92d4 efbd 185f 343e
000000e0: b409 733e 7c3b 853e 7fc5 2f3d cdee c23e
000000f0: 5e77 113e ec7a 793e 8404 dfbb 8676 0a3e
00000100: 78db 9f3d e602 b43d 1e02 d73d 376b fa3c
00000110: a493 113e ed2f d23d fa74 683d 7aa5 7cbd
00000120: b3c2 07bd 8087 ccbc 9d0b 003e ba25 0c3d
00000130: 5a96 b43d 6875 dbbd 939f dfbd 0061 0bbd
00000140: 2b80 c6bd a352 c93d 352d 243e f067 13be
00000150: 6f88 34be aa8d 923e b055 8a3e d3df 533e
00000160: bede cbbc 5341 ea3d 1801 c33d 5c86 bd3e
00000170: 2f61 18be a6ff 183d f8a5 933d cfe1 89bb
00000180: c423 7e3d fa30 2e3e 8887 6f3d 7682 2d3e
00000190: 7c25 ca3d a841 29be d81c 9d3c 2720 683d
000001a0: 7efe e73d 03a7 b93d c7b0 1a3d 8669 8abc
000001b0: cd6c 5d3e aa0f ad3d 8619 5cbe 6af2 b83d
000001c0: 7e6f 5d3e c5a3 59be d7e5 62be 44a4 7c3c
000001d0: 81b4 f63e f891 943d a711 053e 6faf 483e
000001e0: 648f 05be 08df 3e3e 282e 243c cb4e 2e3e
000001f0: c79e 3dbe c60f 90be 3fd4 38be d31e afbc
00000200: f40c af3d 6749 9a3e a242 bbbd da2e 68be
00000210: f481 463b b335 8abd 181e 3d3e 992d cd3d
00000220: e44a 423d 5c01 223c 47ce ed3d be25 94be
00000230: feb1 5dbd 2489 8f3b cb77 973e 9d1b 9abc
00000240: 555d fd39 9cd6 18bd eb2b b03c fd5b 483c
00000250: 71b7 4d3e 0570 e4bc 6509 2abf 59dc fc3d
00000260: 498d 343d 3565 21ba 0b7c 2abe fde5 48be
00000270: 3082 8bbe b9c6 adbd 436d a03c 3ade a3bd
00000280: b9ee 0fbc 5332 80be 2350 943d bfae e1bd
00000290: fce1 e33c 1b21 443d 7f46 473e 91f4 8b3d
000002a0: b234 2e3e 9092 e73d e668 1cbd 07c9 10bd
000002b0: a33a f93c 7d25 143e 36ae 6bbd 60a0 823d
000002c0: 2112 ec3b 06fe 2fbd c379 143e d7a8 bb3d
000002d0: 1aa1 b6bd 4a02 533e 37c3 90be c5b0 3e3d
000002e0: a310 743e 0289 9d3d 977e a7bd 12c4 6a3d
000002f0: 8c1d 753d b31e 403e 0e2f 4cbd d50c 273e
00000300: 53f5 8bbd e18d 27bd 317f 9b3d 897c 0ebd
00000310: 59f4 593d baef 38bd 350b 863d 5790 6abd
00000320: 98ab fabd 353b 80bd f3ea ea3d 64fd 8abe
00000330: 8a3b 14bc 8958 353d 6303 91bc f101 913c
00000340: 2080 d43c 30e8 453d 7669 e03d e16d 85be
00000350: 500a 063d e5be 25be 503b 27bd f77a 48bd
00000360: 768d 7dbe c4fa 03be c388 753c 4637 80be
00000370: 3b3b 3e3d 0d3a 723e 882b f6bb 0eee 873d
00000380: 2233 18be 64f8 fa3d d087 ae3c e148 2dbe
00000390: a03e 2bbe c4d9 17be dc39 2a3d 7e27 c73c
000003a0: 3541 a73d 47e9 3e3e 964a 963c 2fa1 e4bd
000003b0: fa49 1ebe de8b c7be b410 54be 689c 1abe
000003c0: 2245 78bc 64c3 af3d afc1 85bd a951 d63d
000003d0: bace 99bb a421 b9b9 7b63 7c3d b51d 2fbd
000003e0: 9259 f3bd 0aec a23c 6e3d 93bd 6e4a 983d
000003f0: d402 a83a ca4d 183e 9883 46bc f7a3 81bd

fc2.bias f4 [15]
0.20154767 -0.28933313 -0.33683378 -0.24410999 -0.25405434 0.07616941 -0.16007923 0.2658311
-0.11574746 -0.03516452 -0.42730516 -0.22212906 -0.0944258 -0.27088398 0.0004202996
00000000: 8362 4e3e 7923 94be 7a75 acbe f8f7 79be
00000010: 6913 82be b5fe 9b3d cfeb 23be 041b 883e
00000020: 010d edbd ac08 10bd bec7 dabe cd75 63be
00000030: 5062 c1bd 4eb1 8abe a85b dc39
