JEDInet_HLS_30p/model_1/IN_kFold_150/IN_sumO_bestmodel4.params (torch, 21393 bytes, 18 tensors)

fr1.weight f4 [30, 32]
000000 45 c5 fa 3a 65 89 8a ba f7 55 db 3b 4f d1 14 3c
       0.0019132277 -0.0010569511 0.0066935974 0.009083106
000010 96 29 04 3e 20 c9 8d bc 42 8f 75 3e 99 5e 9d bd
       0.12906489 -0.017307818 0.2398043 -0.07684059
000020 ad c3 16 3d 78 d5 f2 bd a5 0f ef 3c ae c6 56 bd
       0.036807705 -0.11857122 0.029182265 -0.05243557
000030 9f 8f c9 3f 88 f9 1c 40 f9 06 9f 3c 34 9d d5 3d
       1.5746955 2.4527302 0.019412505 0.10430375
000040 8f 94 ba bb c0 8d e5 3d 39 66 fc bb 95 7e 9f bb
       -0.005693979 0.11208677 -0.0077026156 -0.0048673847
000050 94 33 f5 bd 35 39 80 3e 72 83 82 bc e9 9a b6 bc
       -0.11972728 0.25043646 -0.015931819 -0.022290664
000060 68 3d d4 bd 13 44 60 3d d7 0a 1b be a3 7f 40 3e
       -0.10363275 0.05475242 -0.15140854 0.1879869
000070 53 42 04 3f 29 1e 9a 3e be 17 56 3d fe da 07 be
       0.516637 0.30101135 0.052268736 -0.13267133
000080 be 2a 4f 3d d0 d7 88 3c d7 3d 98 3b 75 39 c8 3b
       0.05057787 0.01670447 0.0046460438 0.006110365
000090 32 a2 e0 3d 2d 22 46 3d 01 a8 5d be b7 e9 dc 3d
       0.10968436 0.048372436 -0.2164612 0.10786765
0000a0 5e 41 91 bd 29 7f 13 3e 1a 57 b3 3d c3 d1 53 bd
       -0.07092546 0.14403977 0.08756848 -0.051713716
0000b0 15 d6 86 bf c2 63 54 40 eb 8c c8 3d 3d 39 c7 bd
       -1.0534083 3.3185887 0.09792503 -0.09727714
0000c0 e4 6f c5 bd 7a 4d c9 3d 8f 79 39 bd 67 74 1c bd
       -0.09640482 0.098292306 -0.045281943 -0.038196947
0000d0 c9 b9 64 be 48 0d 90 3d a9 29 94 be 28 5d a9 bd
       -0.22336496 0.07033783 -0.28938034 -0.08269721
0000e0 65 d3 33 3a 1e 27 d4 3d 21 65 b5 bd 8f 7d 87 bd
       0.00068598083 0.103590235 -0.088571794 -0.06615745
0000f0 ad a3 70 3f 4a 43 79 3f d7 3d b5 3a 83 ef ba 3d
       0.9399975 0.973683 0.0013827634 0.091277145
000100 19 fd 38 3b e8 07 67 bb 5f 59 ef b9 00 94 2e 3b
       0.002822703 -0.0035252515 -0.0004565222 0.0026638508
000110 a7 b0 78 3e 32 1d d6 bb 5a e5 0e be 9d ab 10 3e
       0.24286138 -0.006534242 -0.13954678 0.14127965
000120 e7 18 f5 3c 1e b1 39 3e 5a 5a a8 3d c9 da e2 3d
       0.0299191 0.18133971 0.08220358 0.11076886
000130 dd b3 24 c0 cc b9 ac bf 37 77 73 bc da 95 93 bd
       -2.573478 -1.3494201 -0.014859966 -0.07206316
000140 17 20 d9 bb d1 1b e0 3c 8b f1 29 bd 94 6c 67 bd
       -0.00662614 0.027357014 -0.04149012 -0.056500033
000150 93 d4 4c be 2b b8 93 3d 35 b1 22 be be ba 10 3e
       -0.20002966 0.072128616 -0.15887912 0.14133736
000160 52 88 9d 3e 85 3b 45 bc 1e 51 99 bc b4 c9 a0 3c
       0.30768067 -0.012038116 -0.018715438 0.01962743
000170 58 4a 9b bf 9e f8 07 bf fb 6c dc bd 3c 46 ef bd
       -1.2132063 -0.53113735 -0.10762974 -0.11683318
000180 73 ca 4c 3a ca d1 b9 ba ea 5c d8 3b 29 64 a7 bc
       0.00078121497 -0.0014176902 0.006602873 -0.020433502
000190 a2 72 53 bb 8b 60 01 3c be d8 c2 bd 8b c9 0d 3e
       -0.0032264371 0.007896553 -0.095139965 0.13846414
0001a0 9c 08 3d 3d 3b a8 04 3e 6c 1d f7 bc 4d 0b df 3d
       0.04615079 0.129548 -0.030165397 0.10890827
0001b0 76 71 00 3f 86 4d fb 3f d1 6b 02 3d 55 81 e5 3d
       0.5017313 1.9633033 0.031841103 0.11206309
0001c0 fb 49 0d bd 5a 00 b1 bc d3 d8 5b be 31 28 c3 be
       -0.03449438 -0.021606613 -0.2146943 -0.381166
0001d0 00 2a 49 be e1 b9 11 bf 4a 40 5c be ab 66 8f 3b
       -0.19644928 -0.56924254 -0.215089 0.0043762526
0001e0 5a 2e 38 bd f0 a9 ab 3e ee e4 42 bd 6d c4 db be
       -0.04496608 0.3352809 -0.047581606 -0.42923298
0001f0 9b 4c ce 3e 93 cd 28 be 66 8c a2 3c a9 d0 1a 3f
       0.4029282 -0.1648467 0.019842338 0.6047464
000200 cb 24 8a bb 12 fe 88 bb ea 60 9f 3d 37 18 c6 bd
       -0.004215812 -0.004180678 0.07782157 -0.09672587
000210 d4 5f d2 be 64 23 50 3d 88 08 c8 be 4b 15 6a be
       -0.41088736 0.050815 -0.3906901 -0.22859685
000220 0c 7e 07 3e dd d3 fe 3d a4 7d 9d bb 31 e5 14 3d
       0.13231677 0.124427535 -0.0048062373 0.036351386
000230 a3 b8 c0 bd 16 21 c6 3f bf 4f 0c be d0 e3 0c 3c
       -0.09410217 1.5478847 -0.13702296 0.008599237
000240 60 1f 14 3d 16 04 d2 bd e6 58 60 ba 66 90 2d 3d
       0.036162734 -0.102546856 -0.0008558169 0.042374037
000250 cb 88 dd be f0 a1 85 3e 6e e6 49 be c8 d2 3d be
       -0.43268427 0.2610011 -0.19716808 -0.18537438
000260 95 9b 65 be 45 68 b4 bd 65 0b 02 bd 68 a6 ae 3d
       -0.22422631 -0.0880895 -0.031749148 0.08527833
000270 e6 a1 47 3e 40 dc 9a be 9c da 43 bd 11 f5 37 be
       0.19495353 -0.30246162 -0.047815904 -0.17964579
000280 74 3e be bb 52 bd e8 ba 42 c3 29 3c 0c c9 66 bc
       -0.005805785 -0.0017756617 0.0103614945 -0.014086019
000290 19 42 82 3d 0e 68 db 3c 38 dc c4 3d d2 6a 99 3b
       0.063602634 0.026783016 0.09612316 0.0046819234
0002a0 41 a7 0d be 84 36 d2 bd c5 3b 09 3c b4 5e 25 3e
       -0.13833334 -0.10264304 0.008376067 0.16149408
0002b0 bd 11 38 3e f9 33 18 c0 c1 46 f1 bd ac 94 99 bd
       0.17975517 -2.3781722 -0.11781073 -0.0749906
0002c0 ec 73 d6 bc c1 55 e7 3d 7e d4 8d bc e1 20 bb bb
       -0.026178323 0.11295653 -0.017313238 -0.0057107066
0002d0 1f 6a 0a be 7f 91 e6 3d 4f 18 e6 bd 52 cd 60 3e
       -0.13517044 0.1125822 -0.11235105 0.21953323
0002e0 57 d4 30 3d 1a 14 c2 3d c8 33 8a bc 5e 92 3e 3d
       0.043171253 0.0947649 -0.016870394 0.046526305
0002f0 ca 89 75 bf 6c e7 6d bf af ba 08 bd 9e 07 04 be
       -0.95913374 -0.92931247 -0.03338116 -0.1289353
000300 5f db 1b bb 86 31 d4 ba f5 5b 0f 3c 9b b5 5d bc
       -0.0023781878 -0.0016189076 0.008749952 -0.013532068
000310 c4 20 a1 bd 33 fc 58 bb d3 58 43 be a1 d8 07 be
       -0.07867578 -0.0033109307 -0.19076853 -0.13266231
000320 d4 e4 88 3d 74 1c 20 3d ce d3 d9 3d ba 97 ae bd
       0.066842705 0.039089635 0.10636102 -0.08525033
000330 d8 06 92 be de 48 c6 bc 69 5f 4d bc 1b 3e 13 be
       -0.28520846 -0.024204668 -0.012534955 -0.1437916
000340 1d 8a e7 3c 90 3a 69 bd cc af 05 3e 88 b8 59 3d
       0.0282641 -0.056940615 0.13055342 0.0531545
000350 24 34 d4 3e e2 be 42 be 72 99 7a 3e 83 66 f0 bc
       0.4144603 -0.19018129 0.24472597 -0.029345756
000360 44 f7 66 bc 35 64 3c 3e 35 73 83 3d 3d f2 5e 3d
       -0.014097039 0.18397601 0.06418458 0.054430235
000370 46 09 42 3e 58 3a 3a 3f d4 16 04 bd f2 e3 70 3e
       0.1894885 0.72745275 -0.032248333 0.23524454
000380 12 11 a5 3c 0a 3b 61 3d 4c 09 5d 3d eb eb 82 3d
       0.020149741 0.054987945 0.053963944 0.06392654
000390 13 bf 47 3d 10 f2 90 3d be 85 67 3d dd 88 d4 bd
       0.048766207 0.0707742 0.05652403 -0.10377667
0003a0 53 b0 98 3d 62 a1 79 bc 40 5f 37 3d ff d1 9d bd
       0.07455506 -0.015236231 0.04476857 -0.07706069
0003b0 fa 86 1e 40 28 a6 84 c0 5e 2c e8 3d 69 4f 62 3e
       2.4769883 -4.1452827 0.11336587 0.22100605
0003c0 22 a6 6d bc 16 a4 de 3c 60 c8 14 3c 92 97 54 3d
       -0.014504941 0.027177852 0.009080976 0.05190236
0003d0 6b 2e 37 3e c7 07 fe bd 0c 98 bd 3e 50 f6 02 be
       0.17888801 -0.12403827 0.37030065 -0.12789273
0003e0 9a 69 08 3d f9 25 a9 bc 48 95 d6 bd af aa f2 3d
       0.033303834 -0.02064799 -0.10477692 0.118489616
0003f0 7b e7 58 bf bd 21 60 bf 0b 3d 09 3e 72 7d be 3d
       -0.8472821 -0.8755148 0.13402192 0.093012705

fr1.bias f4 [30]
000000 44 34 dd bd 7d d2 19 3d a6 08 9c 3d 63 11 de 3d
       -0.108009845 0.037554253 0.07618837 0.1084316
000010 23 80 33 3a 11 a8 5c 3e 51 ef 33 3e 71 44 86 3d
       0.0006847402 0.21548487 0.1757176 0.06556023
000020 c6 48 9a 3e 72 c0 12 3c 35 12 13 bd 9c 18 50 3b
       0.30133647 0.008957015 -0.035906035 0.003175295
000030 61 fe 3a be e9 8f 2b be fe b6 22 3e d6 d2 91 be
       -0.182611 -0.16754116 0.15890118 -0.28481168
000040 2a 21 fc bd 74 3f 56 bd ad a3 c4 bd fd 9d 8b bd
       -0.12311013 -0.052306607 -0.09601531 -0.06817243
000050 69 92 18 be 61 a9 28 be 1f 1c 80 3b 52 86 e7 3c
       -0.14899601 -0.16470863 0.0039096023 0.028262291
000060 3c c2 95 bd aa 51 c8 3d 2a 1f c1 bd d0 d8 37 be
       -0.07312438 0.09781201 -0.09429772 -0.17953801
000070 6d 9d c5 3d b7 c4 a2 3e
       0.09649167 0.31790707

fr2.weight f4 [15, 30]
000000 b0 75 2d 3d 10 36 b9 bc ba bf 18 3d a6 08 be bd
       0.042348564 -0.022608787 0.03729222 -0.09278993
000010 1f 4b 88 bd 4e c4 71 3c 0f 49 d5 bd 7a 0b db bd
       -0.06654953 0.014756275 -0.104143254 -0.10695548
000020 bd f9 4a 3e 0c 28 d2 bd bc 76 a5 3d 5b 20 3c bc
       0.1982183 -0.102615446 0.080792874 -0.0114823235
000030 b1 59 ef bd e4 30 1b 3e 46 30 c1 bc 69 81 23 3e
       -0.11687029 0.15155369 -0.023582589 0.15967335
000040 0a 95 9b bd e7 4d 9a bd 8c b0 d7 bd cc d4 f2 3b
       -0.07596786 -0.0753439 -0.105317205 0.0074106213
000050 a2 8d 4e bd a1 7e b6 bd 86 4b 81 3e 84 c5 a3 bd
       -0.05042804 -0.08910871 0.25252932 -0.079966575
000060 63 71 f0 bd 29 e6 c4 bd d9 6d fa ba 13 80 bc bd
       -0.11740377 -0.09614212 -0.0019106223 -0.09204116
000070 ce 6b 93 bc ce ef f8 bd ac cf e5 bd db 76 21 bd
       -0.017995741 -0.12155114 -0.11221251 -0.03941999
000080 c7 4d 3e 3e 47 41 61 3e 41 70 a9 3c 82 b5 d5 3c
       0.18584357 0.21997558 0.02068341 0.026087526
000090 02 93 1e 3e 21 43 99 bc 44 9f 00 3d 69 a1 8a 3e
       0.15485767 -0.018708767 0.031401888 0.2707627
0000a0 0d 7f bd 3d 1b 04 25 3d 8d 86 61 bd e2 1d ba 3c
       0.09252749 0.04028712 -0.05505996 0.022719327
0000b0 2a 0e cd 3d 46 55 e3 bd b6 68 d9 bd c7 13 4e bd
       0.10012467 -0.11100249 -0.10615675 -0.05031183
0000c0 7c f9 aa bd fe 37 eb 3c cc a5 02 bd 62 dd b7 bd
       -0.083483666 0.028713223 -0.031896397 -0.08977772
0000d0 09 94 54 3d 39 1c 9c bc 20 2a b1 3c 92 e7 18 3e
       0.05189899 -0.019056426 0.021626532 0.14932087
0000e0 99 63 d2 bd 9c e4 30 3e 4b 03 f7 3d 7b b7 c2 3d
       -0.10272903 0.17274708 0.12061175 0.09507652
0000f0 31 3a 44 be 3b ad 51 be 41 c4 47 3e 67 15 92 bd
       -0.19162823 -0.20476238 0.19508459 -0.071329884
000100 9d a6 68 bc 7c 9f 75 3d d4 2c 76 bd fd e7 20 3e
       -0.01419988 0.05996655 -0.060101345 0.15713497
000110 13 c5 8b 3d 2c 97 81 be 21 79 22 3e b9 52 49 3d
       0.06824698 -0.25310647 0.1586652 0.049151156
000120 8c ec 78 bd 13 37 7d be 01 cf 5b bd eb 01 81 be
       -0.060772464 -0.2472804 -0.05366421 -0.25196776
000130 51 46 dd 3c 6a df 04 be 1a 48 87 3e d4 04 d8 bd
       0.027011069 -0.1297585 0.26422197 -0.10547796
000140 50 5c a2 bd 98 a9 2e bd b7 f6 08 be 7a 60 8e be
       -0.079277635 -0.042642206 -0.13375364 -0.2780798
000150 cf 5b 04 3c 4a d0 bd bd 55 b5 25 bd 92 00 1e 3d
       0.0080785295 -0.092682436 -0.040456135 0.038574763
000160 03 9a 35 3d b6 91 08 3e 3d a4 3c 3e d4 c6 a6 3d
       0.04433633 0.13336834 0.18422027 0.08143392
000170 24 19 ab 3d cc 34 2a 3e 83 ee 40 3e 5d c8 7a 3d
       0.083544046 0.16621703 0.18840985 0.061226238
000180 4a 20 5e 3c bd 16 14 be de 6c 99 bd 97 a0 6a 3d
       0.013557503 -0.14461799 -0.07491468 0.057282057
000190 2e b2 11 3c 29 3c 02 3d e6 ff 1a be 85 8e 56 3e
       0.008892579 0.031795654 -0.1513668 0.20952804
0001a0 f9 5a ed 3d 2d 96 50 be 5d 7f 21 3e 3b c9 a1 3c
       0.11589617 -0.20369788 0.15771241 0.019749274
0001b0 29 e9 18 be 98 ff b0 bd 53 42 8e 3d 3e 50 00 3e
       -0.14932694 -0.08642501 0.06946244 0.1253061
0001c0 f8 50 6d bd 89 71 3f be 75 58 d8 3d f1 79 6a 3d
       -0.057938546 -0.18695654 0.10563747 0.0572452
0001d0 3a aa 04 3e e7 cc 3b 3d f6 17 03 3e f8 1c eb bd
       0.12955561 0.045849707 0.12802109 -0.11480135
0001e0 61 a1 f0 3d 8d 98 d4 bd 8e 9c b1 bd b4 47 9d 3e
       0.117495306 -0.10380659 -0.086724386 0.30718768
0001f0 c4 ee b9 bd 8e 27 e6 bd eb 5b 75 3e fa 80 20 3e
       -0.09078744 -0.11238013 0.23960845 0.156742
000200 3e 45 be 3d 47 d7 48 bd 9e c4 e8 3d 80 dd db 3d
       0.09290551 -0.04903343 0.11365627 0.10735607
000210 74 83 4a bd af 10 6c bd 61 b2 8f 3d 5f 4f 09 bd
       -0.04944177 -0.0576331 0.07016445 -0.03352296
000220 c9 e5 9d bd ad c8 3d 3e d5 ae 88 bd 7d e0 94 bc
       -0.07709844 0.18533583 -0.066739716 -0.01817345
000230 b5 f4 bd bd dd 46 47 be 42 2b 97 bd 8f 71 80 3d
       -0.0927519 -0.19460626 -0.07381298 0.062716596
000240 30 18 de bd 05 50 9c 3d 47 6d 19 bd 6d 77 05 3d
       -0.10844457 0.0763245 -0.03745773 0.032584596
000250 53 83 8d 3d 2c 2b 26 3e ff 3f da 3b 4f 58 06 bd
       0.06909814 0.16227406 0.006660461 -0.03279906
000260 b5 85 0d be 5b f0 84 bd 31 21 be 3d e4 75 12 3e
       -0.13820536 -0.06491157 0.092836745 0.14302784
000270 f5 50 74 bd e9 72 98 3d 78 d4 87 3c 75 6e c8 bd
       -0.05964752 0.074437924 0.016580805 -0.09786693
000280 a1 9e e4 3d 44 df 2d 3d e5 83 07 bd 76 12 77 be
       0.111630686 0.04244925 -0.03308477 -0.24128136
000290 bd ef 81 bd 71 56 56 bb fc f7 79 3b d7 d6 eb 3d
       -0.063445546 -0.0032705332 0.0038142195 0.11515587
0002a0 6f 5a a1 3e 7c d1 7d bc 46 83 00 3e e5 ac 88 3d
       0.31514308 -0.0154918395 0.12550077 0.06673602
0002b0 82 5d 78 be 0e f6 33 3d af 02 f2 bd 1e f8 c7 3d
       -0.2425442 0.043935828 -0.11816918 0.097641215
0002c0 ea 48 b8 3d 5e 29 81 bd f5 77 fc bd 1a 14 a0 bd
       0.08998282 -0.06306718 -0.123275675 -0.07816334
0002d0 6d 59 2b 3e 65 b5 5d 3d a1 ec 24 be 71 b8 2c 3d
       0.16733332 0.05412807 -0.16105892 0.042168085
0002e0 1e be fe bc fd 6d d0 bd 2c 98 4c 3d f4 1e 70 3d
       -0.031096514 -0.101772286 0.04994981 0.05862327
0002f0 f1 95 41 3d 39 b7 fc bd ab ed 7a bd cb 7a d1 3d
       0.047262136 -0.123396344 -0.061261814 0.10228499
000300 28 b7 ec bc e8 c7 10 be 43 0b bb 3d 0e 99 8d be
       -0.02889593 -0.14138758 0.091330074 -0.27655834
000310 b3 02 86 be 7a f0 9b 3e e0 77 24 3e e2 fd 11 be
       -0.26173934 0.30456907 0.16061354 -0.14257005
000320 7b 42 55 3c d4 65 30 be 4d ef 20 be 67 10 b2 bd
       0.013016338 -0.17226344 -0.15716286 -0.08694535
000330 42 51 50 bd e8 1a c4 bc 8e 72 51 bc ea 01 d9 bd
       -0.050858743 -0.023938611 -0.01278366 -0.10596068
000340 a8 c3 fb b7 cf 4b 39 3e 31 cf bd 3d ed e1 63 bd
       -3.0012641e-05 0.18095325 0.09268034 -0.05563538
000350 4c dd 57 bc 88 d9 7d be ed a1 43 bd 4e fb 52 3c
       -0.01317532 -0.24790013 -0.047761846 0.0128772985
000360 fc 21 8d 3d dd b4 37 3d 23 70 dc 3c 75 fc cf bd
       0.06891248 0.04485022 0.02690894 -0.10155574
000370 7f da 56 bc 2b fb ef bd b8 9a 84 bd 91 1f 0b be
       -0.013113617 -0.11717828 -0.06474823 -0.1358626
000380 d4 fd 55 bc 83 b3 9f bd 38 86 01 3e b9 e3 12 be
       -0.013061006 -0.07797911 0.12648857 -0.14344682
000390 fd 53 65 bd 7f 9f bd 3c 68 db c9 3d c5 e2 3e be
       -0.0559883 0.023147343 0.098563015 -0.18641193
0003a0 be f1 d0 3d 87 9f 30 be c1 4a 16 3d 8f 46 41 3e
       0.10202359 -0.17248355 0.036692385 0.18874572
0003b0 90 ca 24 bd 3a e7 82 3e 8b 7e 2a be b3 d8 35 be
       -0.04023224 0.25567037 -0.16649835 -0.17758445
0003c0 38 b8 86 3d 55 73 04 bd 1a c7 42 3d a4 0c b5 bd
       0.06578106 -0.03233655 0.04755316 -0.08840302
0003d0 1d 86 df bd c7 d8 ad bd 76 b7 4f bd 8b 0f 34 3d
       -0.10914252 -0.084886126 -0.05071207 0.043960135
0003e0 7d 11 b2 3d 4f 9d 4b be db b4 1f 3c d8 09 af bc
       0.08694742 -0.19884227 0.009747709 -0.021366999
0003f0 40 d2 20 bd f0 55 18 3e c5 fd ad 3c e9 9a ef bd
       -0.03926301 0.14876533 0.02123917 -0.11699469

fr2.bias f4 [15]
000000 ca 31 0e 3e 60 c1 79 3e c3 17 d6 3d 03 12 49 3d
       0.1388618 0.24390173 0.10453751 0.049089443
000010 c1 85 0e 3d 98 62 a0 3d a6 11 84 3e 78 2b 52 3d
       0.034795526 0.07831305 0.25794715 0.051310986
000020 0a 4a 08 3e 66 e1 b3 bd da ac 39 be 0e 7c ed 3d
       0.13309494 -0.08783226 -0.18132344 0.11595927
000030 04 b7 8a be d2 21 f3 bb 7e 95 83 be
       -0.27092755 -0.007419803 -0.2569999

fr3.weight f4 [10, 15]
000000 a1 2b ac 3d 2f e4 bc bd 07 ee 44 3d 30 e2 e7 3d
       0.08406759 -0.0922321 0.048078563 0.11322439
000010 3a 4f 82 3d 64 55 9b 3d 78 7c b3 be ce 2f 36 bd
       0.063627675 0.07584646 -0.350559 -0.044479184
000020 ab a0 57 be b6 13 98 3d 84 2f 8a 3e 37 d3 11 3e
       -0.21057384 0.074256346 0.26989377 0.14240728
000030 d9 2a 90 3e a1 db 1e 3b e9 8f 40 3d c1 13 42 be
       0.2815769 0.0024239796 0.047012243 -0.18952848
000040 c4 27 05 be a9 c8 92 be 87 35 18 3e 4c 5e 87 3e
       -0.1300345 -0.28668717 0.14864169 0.2643913
000050 13 b0 25 3d e1 bb 5a 3c 11 fe b4 bd a5 45 72 3e
       0.04045112 0.013350458 -0.08837522 0.2365938
000060 49 01 f7 bb ff 2d ce bc 91 91 88 be 38 fe bf bd
       -0.007537995 -0.025168417 -0.26673558 -0.0937466
000070 bc f7 44 3e ec 8a 7d bd 60 aa 0e 3e 1c 10 52 3d
       0.19235128 -0.061900064 0.1393218 0.051284894
000080 2f f6 1f 3c 83 53 01 bc a4 b7 43 3e ff 13 5d be
       0.009763285 -0.007893446 0.19113022 -0.21589659
000090 9f 85 8b bd b5 89 8a 3e 7a 08 c3 bc d1 cd 99 3d
       -0.068125956 0.27058187 -0.023807753 0.075099595
0000a0 f8 21 e2 bb 7e 70 68 be 5b b5 82 3d 81 b7 61 bd
       -0.006901022 -0.22699162 0.06382247 -0.055106644
0000b0 21 f5 1b be a0 d9 18 3e a0 e8 1f 3e 49 4a 3c 3e
       -0.15230228 0.14926767 0.15616083 0.18387713
0000c0 77 70 e7 bd a2 09 5b 3e 9a 74 25 bd 3c 79 ef bd
       -0.11300748 0.21390393 -0.040394403 -0.116930455
0000d0 7e 19 27 3c 66 ff 03 3e e6 09 14 be a6 23 47 3e
       0.010198949 0.12890396 -0.14456901 0.19447193
0000e0 b2 78 61 bd 00 cb 8d 3d e1 99 86 bd 63 12 8c 3d
       -0.055046745 0.06923485 -0.06572319 0.068394445
0000f0 11 65 27 3e b4 5a fd bd 10 7c e4 be 2c 6a 3b 3e
       0.16347148 -0.12370816 -0.44625902 0.1830222
000100 e7 6c f6 bd cd cb 67 3a 82 dc 59 be cb bf 29 be
       -0.1203249 0.00088423194 -0.21275523 -0.1657707
000110 e2 c5 7d 3e b2 be 3e bd 2e ba 48 bd 73 15 1d be
       0.24782518 -0.04656858 -0.04900568 -0.15340213
000120 66 0d 01 3e 2e 22 39 b8 a4 8d 0c 3e 73 af 81 bd
       0.12602767 -4.413927e-05 0.13725907 -0.063322924
000130 d3 84 4a bc cc 34 a3 3e f2 50 5b 3b 19 6b c9 bd
       -0.012360769 0.31876218 0.0033464995 -0.098348804
000140 2c e7 07 3e 58 17 d4 3e d9 cd c7 3d 1a 56 c4 3d
       0.13271779 0.4142406 0.09756059 0.09586735
000150 de 3f e4 bc 6e 19 09 be 33 d1 d3 bd b4 07 62 3e
       -0.027862485 -0.13388607 -0.10342636 0.22073251
000160 57 1b 3d 3d ff fd fd 3d cd c0 3c be 88 33 05 be
       0.04616865 0.124019615 -0.18432923 -0.13007939
000170 d6 53 19 3e 74 60 8f bd 75 69 fb bd 1d 76 89 3e
       0.14973387 -0.07000819 -0.12275974 0.26847926
000180 5c 37 21 be 22 2b 02 3e 60 78 88 bd 2b 88 92 3e
       -0.15743774 0.12711766 -0.06663585 0.28619513
000190 52 26 d5 3d 5e 0f 26 3d 5b 3f 5c be 8f b2 f7 3d
       0.104077 0.040542 -0.21508543 0.12094604
0001a0 85 f2 d2 3d 8b eb da 3c 68 14 bf 3d b3 04 60 3e
       0.10300163 0.026723644 0.09330064 0.21876793
0001b0 cd 5f 38 3e d1 fb ac bb ac ab 27 be 78 9e 31 be
       0.18005295 -0.0052790423 -0.16374081 -0.17345607
0001c0 ef 75 83 be a9 02 5c 3e db 5e 68 3e d5 6f 85 be
       -0.25675914 0.2148539 0.22692434 -0.26061884
0001d0 2a 1a 71 3e fa fc 69 3e 72 1f 0e 3e 26 a0 a4 bc
       0.23545137 0.22850409 0.13879183 -0.020095896
0001e0 ea b4 49 3b 2e da cd bd 9d 35 6d 3e cf aa a7 bc
       0.0030778 -0.1005138 0.23164983 -0.02046719
0001f0 2c 31 6d 3d 48 9d a6 3d ef 6b 07 3e 3c 7f f0 bd
       0.057908222 0.08135468 0.13224767 -0.11743018
000200 77 31 1c be f0 7c df bd 0d 4b 22 3e f1 f2 5f 3a
       -0.15253244 -0.10912502 0.15848942 0.0008542976
000210 db cf 6d bd 6d 0e 21 be 8e 78 27 be d4 b9 0e be
       -0.058059555 -0.15728159 -0.16354582 -0.13938075
000220 e4 f1 a2 3d 9f f9 c6 3d 8e 49 e6 bc 6c 71 4f 3d
       0.07956293 0.0971558 -0.028111245 0.050645277
000230 bc 66 af bc 22 83 d4 be 53 69 01 be 23 9c 56 be
       -0.021411292 -0.41506296 -0.12637834 -0.20957999
000240 9d 2c 8c 3e 08 9e aa bd 61 64 c0 bd 5c 75 7d bd
       0.27377787 -0.08330923 -0.09394146 -0.0618795
000250 d5 91 d1 3d 47 91 bf bc
       0.102328934 -0.023384703

fr3.bias f4 [10]
000000 ff a3 7c bc 8d f1 d2 3d b2 26 65 3e 4d 90 9b bd
       -0.015419959 0.102999784 0.22378042 -0.075958826
000010 d6 44 27 be d2 93 b8 3d c7 91 37 be c5 97 65 3e
       -0.16334853 0.090125695 -0.17926703 0.22421177
000020 45 6f 8b 3e c4 ca 2f 3e
       0.2723333 0.17167193

fo1.weight f4 [30, 26]
000000 19 83 8c bc 58 e4 d2 bc b0 09 83 3c 6f e7 34 3b
       -0.017152356 -0.025743648 0.01599583 0.0027603765
000010 20 e7 4b be d8 fc a5 3e 9c 1f 96 bd 19 c3 5e 3c
       -0.19912386 0.32419467 -0.07330248 0.01359632
000020 ee 71 7b be 36 53 17 bf 1c 6e cd 3d af 4c d6 3d
       -0.2455518 -0.59111345 0.10030767 0.10463845
000030 0c 3b 21 40 67 45 98 bf d3 a7 3f 3e ed de b4 be
       2.519229 -1.189618 0.18716364 -0.3532633
000040 ac 74 e0 3c 76 f9 10 3d b9 de 23 be 4c 23 7c 3e
       0.027399383 0.035394154 -0.1600293 0.2462284
000050 27 37 be bd 47 7c 1a be 4e 5f 25 bd 39 d7 f8 bd
       -0.09287863 -0.1508647 -0.040374093 -0.121504255
000060 12 eb 58 3e cf 94 df 3c c9 39 10 3d 95 a8 80 3c
       0.21183422 0.027292637 0.03521136 0.015705386
000070 67 f4 a0 3b 3b 4b bf 3d cd 6e 6e 3e df d1 3d 3d
       0.0049119475 0.09340521 0.23284455 0.046342727
000080 38 ec ca 3c 4e c4 85 bd 71 ce d6 3d 33 9b 00 3e
       0.024770841 -0.06531583 0.10488594 0.12559204
000090 ef 46 24 be 2e 43 f0 3d 19 9f 1f 41 07 bb 52 c0
       -0.16042684 0.117315635 9.976342 -3.2926652
0000a0 a9 d5 8a be 91 e1 43 bd 22 64 40 3e 06 8c 6c be
       -0.27116135 -0.04782254 0.18788198 -0.2310029
0000b0 39 3b 81 3d 17 10 7f 3e d1 29 0b bf c7 bb 2e be
       0.06310124 0.24908482 -0.5436068 -0.17063819
0000c0 ff 34 80 3c 2d 87 33 bf 18 42 c2 3e c7 56 38 be
       0.01565027 -0.70128137 0.3794105 -0.18001853
0000d0 6e d1 90 bd f6 11 7b 3c df 55 b3 3d 9d 43 15 bf
       -0.070711955 0.015324106 0.08756613 -0.58306295
0000e0 e0 73 c4 be 89 17 cb be df 7f 03 be 59 d3 b7 bc
       -0.38369656 -0.39666393 -0.12841748 -0.022439646
0000f0 4c 45 a8 3e ef e0 1a 3f c7 46 23 3e 42 ba 8f 3e
       0.3286537 0.6049947 0.15944968 0.2807179
000100 ff c4 0f 3b 9e b7 3b be e2 9b 25 3e 41 8e 15 3f
       0.0021937487 -0.18331763 0.16172746 0.5842019
000110 3f ae 19 be 29 dc c5 bd 64 30 b5 3d 7f 32 0e be
       -0.15007876 -0.09661133 0.088471204 -0.1388645
000120 b0 88 32 be 66 bb 29 be af 3f 95 3c f0 19 23 3d
       -0.17434955 -0.16575393 0.018218843 0.039819658
000130 24 40 e2 3d d4 d1 9d 3c 63 bd a5 3c 71 dd 1b bd
       0.1104739 0.019265093 0.020231908 -0.03805298
000140 df ed 64 3d c0 f7 db 3c 79 02 54 be 02 c5 85 3e
       0.055890914 0.026851535 -0.20704068 0.26126868
000150 82 a5 29 be e0 52 f8 bd 4c 10 0c be 4e 00 d3 be
       -0.16567042 -0.12125182 -0.13678092 -0.4121117
000160 f2 be 86 bc a2 25 28 bc 93 74 cf 3f 2f a5 04 c0
       -0.016448472 -0.010262879 1.6207451 -2.072582
000170 6c a5 c1 be b8 18 78 be 1a fc 51 be 27 08 12 3e
       -0.3782152 -0.2422818 -0.20506325 0.14260922
000180 5e 41 41 bd ac 02 a4 3d d1 ef 86 3c 0a 9f 1a 3c
       -0.04718148 0.08008322 0.016471775 0.009437332
000190 07 7a 37 3e 33 68 ec bd 4d 86 a7 bd ae 30 55 3d
       0.17917643 -0.11543312 -0.08179913 0.052048378
0001a0 64 36 8e 3d e6 65 43 3c 4f fd 08 3d 9a 44 ec 3d
       0.06943968 0.01192615 0.0334447 0.11536522
0001b0 5f 23 4d 3e 64 61 80 3d 1e ce 73 3e f6 65 e4 bb
       0.20033024 0.06268576 0.23809096 -0.0069701625
0001c0 62 f4 3f 3f 03 97 6f 3d 7b 54 b1 3d 2e fc 70 3e
       0.74982274 0.058493625 0.086586915 0.23533699
0001d0 c7 98 20 bf fc 2b b8 3f 43 49 58 3e c0 28 5b 3e
       -0.6273312 1.4388423 0.21121697 0.21402264
0001e0 01 56 03 3e 2b 16 0f bd 5c fa 99 3d 8b 04 93 bc
       0.12825777 -0.03493325 0.075184554 -0.017946502
0001f0 69 8d 20 bd 31 3f f9 bd a2 77 63 bd 61 03 a9 bc
       -0.03919736 -0.12170256 -0.055534013 -0.020631494
000200 6e 3d 75 3d a1 92 69 3e 1b c7 11 3b d6 ff fc 3d
       0.059873037 0.2280984 0.002224392 0.12353484
000210 12 a2 00 3d cf d7 4c bd 05 e2 9c be 16 f7 96 3d
       0.031404562 -0.0500105 -0.3064119 0.07371347
000220 af 09 b0 bd a2 1c 70 be 2f aa ea bc 45 72 9b bd
       -0.08595597 -0.23448423 -0.028645603 -0.075901546
000230 30 b9 ae be 9a 1d 0b be 4b 41 13 40 19 21 07 40
       -0.34125662 -0.13585511 2.3008602 2.1113951
000240 70 37 ca bd 31 22 b0 3d d8 94 92 be 89 71 d6 bd
       -0.09873855 0.086002715 -0.28629184 -0.10470874
000250 56 9c d2 bd 0f 05 77 3e 8f 47 14 3e 64 e5 38 3e
       -0.10283725 0.24123023 0.14480422 0.18056256
000260 25 fd 55 3d f2 16 4d be 18 fc 1f 3d 71 2c ab 3d
       0.05224337 -0.20028284 0.039058775 0.08358086
000270 98 2b a6 bd 48 04 b4 3d 50 b5 a2 bc 2d fb 73 bd
       -0.081137836 0.08789879 -0.019861847 -0.05956571
000280 40 98 2d 3e da d0 27 be 3a f2 d1 bd 74 ae 8b 3d
       0.1695261 -0.16388264 -0.10251279 0.06820384
000290 02 57 ea 3d 66 5f 8c bc c7 ab 87 be 30 12 d7 3e
       0.11442377 -0.017135333 -0.26498243 0.42006063
0002a0 18 3c 78 3f 09 67 1c c0 f1 f7 93 3c d1 1d dd bd
       0.96966696 -2.4437888 0.018062564 -0.10796703
0002b0 b0 02 e7 bd a5 a2 d2 3d 2c a2 da 3d 63 19 7c 3d
       -0.112798095 0.10284928 0.10675463 0.06154765
0002c0 86 47 4d 3d 53 ef 25 3e 8b a2 13 3e b7 d1 d8 bd
       0.05011704 0.16204576 0.14417474 -0.10586875
0002d0 04 40 36 3e c8 25 00 bc 85 af 05 be bb 79 c1 bd
       0.17797858 -0.007821508 -0.13055237 -0.09447046
0002e0 52 5e 59 bd af 6f b5 bd d9 42 96 bc cc 90 91 39
       -0.053068466 -0.088591926 -0.018342422 0.00027764437
0002f0 46 60 81 3d 49 03 15 3e fe d0 eb be 0e 42 8d be
       0.06317191 0.14552034 -0.46057886 -0.27589458
000300 ac 27 26 be 71 58 a4 bd fc 9d 30 40 7c 16 fe 3d
       -0.16226071 -0.08024681 2.7596426 0.12406632
000310 1e 4e e8 bd 9a 50 f3 be 4d 81 25 3e 7c 0c c4 3d
       -0.11343025 -0.47522432 0.16162606 0.09572694
000320 af f4 3a bd a0 0a 48 3e 79 b5 55 be f6 2a 87 bd
       -0.045643505 0.19535303 -0.20870008 -0.06599991
000330 16 cd 04 be 37 22 af bd b3 53 56 3d c0 db e9 bd
       -0.12968859 -0.08551448 0.052325916 -0.11418867
000340 9d 47 1f be 76 8a 2b bd bc 74 1d 3c 6c fe f2 3d
       -0.15554662 -0.041880094 0.009610351 0.11864933
000350 7b 64 87 3e f2 2a e9 3d 33 39 b5 bd 7e bf 4a 3d
       0.26443848 0.11385144 -0.088488005 0.049499027
000360 c9 8e f6 3c 83 60 18 3d 3d 80 c6 3c bf bb b4 be
       0.030097382 0.037201416 0.02423107 -0.3529949
000370 3a 9c e1 bf 44 35 4f 40 55 1b 94 be 37 17 f1 bd
       -1.7625802 3.237626 -0.28927103 -0.11772006
000380 dc 58 3f be d0 93 82 3e fe 10 1d bd a6 ef e6 3d
       -0.18686241 0.25503397 -0.038346283 0.11276178
000390 23 f1 fb 3d 5b d2 17 be cd 77 b8 bc 23 48 60 be
       0.123018526 -0.14826338 -0.022518063 -0.21902518
0003a0 bd 1f 39 be 56 f7 87 bd 7f 85 fc bd 4e fe 6c bc
       -0.18078513 -0.066389725 -0.1233015 -0.014464928
0003b0 1e dd e5 bc a0 3e 58 3d 67 4a 33 3e c0 ac dc 3e
       -0.028059538 0.0527941 0.17508851 0.43100548
0003c0 00 0f 76 bd e2 77 31 3e e0 bf 2a 3d ee 8b 1b be
       -0.0600729 0.17330888 0.041686893 -0.15190098
0003d0 78 91 0b bd a0 a4 7d 3d fe a9 61 bf 0a 06 04 3f
       -0.034074277 0.061924577 -0.8815001 0.51571715
0003e0 b5 8e b9 3d d6 36 84 be 1e 2b d4 3c 5e d4 05 3e
       0.09060422 -0.25823087 0.025899466 0.13069293
0003f0 a8 d6 af 3d 45 10 f9 3d 54 a6 76 bd c8 ad d5 3d
       0.08585864 0.12161306 -0.060217217 0.10433537

fo1.bias f4 [30]
000000 0c 20 43 3d 27 bb 65 bf f6 63 94 3d 42 d9 fa bd
       0.047637984 -0.89738697 0.072456285 -0.1224847
000010 36 f7 c3 bc 2a 9c fa bd 00 9e 0e 3e 62 6b 24 3e
       -0.02392159 -0.12236817 0.1392746 0.16056588
000020 63 31 48 be 96 98 b9 bc d6 f8 1e be 3d 51 ae bd
       -0.1955009 -0.022655766 -0.15524611 -0.08511589
000030 4a a7 9a bd d2 cd a8 3d a3 54 63 3e 50 68 ff 3d
       -0.07551439 0.08242382 0.22200255 0.12471068
000040 80 0f 86 bc e6 70 9a bd 69 8d 4b be 22 da 10 be
       -0.016364813 -0.07541065 -0.19878162 -0.14145711
000050 5b de 80 3d 20 9c 6d be b4 f1 a9 be 85 e9 88 be
       0.06292411 -0.23204088 -0.33192217 -0.2674066
000060 e2 6f 6e bc ee 88 cf be 54 fb 09 3d d6 f2 4d 3b
       -0.014553042 -0.40534157 0.03368695 0.003142526
000070 e8 af 08 3e 56 0d 3e be
       0.13348353 -0.18559775

fo2.weight f4 [15, 30]
000000 e7 0f 00 be b4 f0 00 bf 88 c5 5b 3d ee ce a6 3c
       -0.12506066 -0.50367284 0.053655177 0.020362344
000010 66 8a 8f 3d e8 0c 68 3e e6 57 51 bd 6f 34 00 3e
       0.07008819 0.22661173 -0.051109217 0.12520002
000020 ce d0 07 3e f1 4a 00 be 79 5c 79 be 7e 15 84 be
       0.13263246 -0.12528588 -0.24351682 -0.25797647
000030 4d bd c0 bd 53 35 a5 ba cb 40 bc 3d 8a 39 1f be
       -0.09411106 -0.0012604393 0.09192046 -0.15549293
000040 f0 2b 92 3e 8e 8d 3e be 0a fc c2 bd c2 7c 05 3e
       0.28549147 -0.18608686 -0.09520729 0.13035873
000050 f1 c5 d6 bc e9 8f 42 3e 96 ac 33 3e b9 88 8a bc
       -0.026217433 0.1900021 0.17546305 -0.016910898
000060 4b 1d 16 be 49 46 e7 bc 7d 29 ac 3d be f6 7b bd
       -0.14659612 -0.028231757 0.08406351 -0.06151461
000070 c1 75 1d be 39 bb 27 bd 05 4f 6b be e8 5e b6 bd
       -0.15376951 -0.040950034 -0.22979362 -0.08904821
000080 9c e9 bf 3e 25 a2 2a 3e c5 7f 6d 3d 1f 97 c4 3e
       0.37482917 0.16663416 0.05798318 0.38396546
000090 29 c8 83 be 17 40 a1 bd ac 27 f0 3d 81 cc 6e bd
       -0.25738648 -0.07873552 0.11726317 -0.0583005
0000a0 d5 a8 92 be c1 d3 98 be 6c 78 63 bd 20 80 06 3e
       -0.28644434 -0.29849055 -0.055534765 0.13134813
0000b0 68 82 40 3d 0e 8c c4 be f9 37 fd 3d fa 8d 03 3e
       0.046999365 -0.38388103 0.123641916 0.12847129
0000c0 e4 ac 2e 3e dc 6b 83 bc f3 35 48 be 94 7a 87 3d
       0.1705814 -0.016042642 -0.1955183 0.06615177
0000d0 e7 24 8c 3e 53 bd c6 3d ee 5d af 3e b9 56 77 bd
       0.27371904 0.097040795 0.3425135 -0.06038544
0000e0 85 70 84 be 4d 2b bc bd 86 51 0e bf 35 c9 31 3d
       -0.25867096 -0.091879465 -0.55593145 0.043404777
0000f0 8a 8d e6 bd e1 33 f0 3c f3 6a 50 3c e3 52 ff bd
       -0.11257465 0.029321613 0.012720811 -0.12466981
000100 19 13 f5 3d af 70 0c be 27 9c 75 bd f1 85 0e be
       0.11966533 -0.1371486 -0.05996337 -0.13918282
000110 6a 03 99 3e b8 49 f5 bd 9b fe 97 bd 05 b6 40 3d
       0.29885417 -0.11976951 -0.07421609 0.047048587
000120 aa d0 46 3d c7 fd 21 3e e4 50 a3 bd 46 c1 b6 bd
       0.04853884 0.15819465 -0.07974413 -0.08923583
000130 12 d5 0c be 40 a5 6e 3e 52 e8 89 be 72 32 84 3d
       -0.13753155 0.23305225 -0.2693506 0.06454934
000140 49 3e 40 3d af e3 12 be fc 60 a8 3e bc 16 07 3e
       0.0469344 -0.14344667 0.32886493 0.13192266
000150 8f ae 9f bd 12 c9 3b 3c c0 46 01 be 93 d6 b2 3d
       -0.07796966 0.011461513 -0.12624645 0.08732333
000160 77 a8 15 bd 47 12 a8 be 94 b9 3a 3e 0f bb 36 be
       -0.036537614 -0.32826445 0.18234855 -0.17844795
000170 e6 0f 71 3c 24 2a 65 be 7f 45 90 bd b0 db 2a be
       0.014713263 -0.22379357 -0.07044505 -0.16685367
000180 55 80 9c 3d 25 b9 57 3e 9d 78 6f be e5 95 8e bb
       0.07641665 0.21066721 -0.23385854 -0.004351365
000190 75 f6 6d 3d 1a 45 24 be 83 e5 8d be d1 24 11 be
       0.058096368 -0.16041985 -0.27714166 -0.141742
0001a0 ac 59 3e be 6b dc c4 3a 16 89 66 3d 27 9e 3c be
       -0.18588895 0.0015019303 0.05628308 -0.18419705
0001b0 41 71 1e be 5e 31 89 bd 86 8e 06 3d 12 83 57 3e
       -0.1547289 -0.06698869 0.032850765 0.21046093
0001c0 17 b1 58 3e 3a 85 e5 bd 58 28 e4 3d d7 54 c9 3d
       0.21161304 -0.112070516 0.111405075 0.09830635
0001d0 2b d4 38 3d 70 df 1a be c2 0b 10 bc 73 82 b7 3d
       0.045124214 -0.15124297 -0.008791866 0.08960428
0001e0 2f 77 3b be d3 3d 00 3e c0 ec 43 bd 32 2f 45 be
       -0.18307184 0.12523584 -0.047833204 -0.19256285
0001f0 72 89 92 bd aa dd d2 3d ed 8a 20 be 7b ec 1a be
       -0.07155122 0.10296185 -0.15677996 -0.15129273
000200 69 2a 13 3e e5 a5 d7 be cd 7b e2 bd 19 cf 96 3d
       0.14371647 -0.42118755 -0.110587694 0.073637195
000210 c1 dd 4a be 09 5c ba 3b 87 28 5a 3d f7 55 a9 3d
       -0.19811155 0.005687241 0.053261306 0.082683496
000220 88 0b ad 3d e4 4b a6 3d fe 59 b1 3e 66 ca dd 3c
       0.08449465 0.08119944 0.3463897 0.02707405
000230 c8 bf e3 bd 28 a6 5e 3d 10 13 3b 3d 91 d1 03 3e
       -0.11120564 0.054357678 0.045672476 0.12872912
000240 b9 61 1d 3e 8b 2f a0 bd 50 5a 01 bd 61 40 78 bc
       0.1536931 -0.07821568 -0.03158027 -0.015152068
000250 55 ef cc 3b 42 0b b9 bd 95 94 34 bd 89 9f 0a bf
       0.0062541165 -0.090353504 -0.04408701 -0.5414968
000260 65 97 59 3e 26 b8 cc bd 41 cb e2 ba 20 32 5f bc
       0.21249159 -0.09996061 -0.0017303006 -0.013622791
000270 3a ce 46 be e2 bb 70 bc 3f 85 29 3e 3f 7c 94 3d
       -0.19414607 -0.014693232 0.16554736 0.072502606
000280 1a 4e 50 be c1 e7 8c 3d 87 93 90 bd a1 ed 21 bd
       -0.20342293 0.06880141 -0.070593886 -0.03953326
000290 ec 68 01 3e 97 db f0 bd 5a a6 3c 3e c4 82 1e 3d
       0.12637681 -0.117606334 0.18422833 0.038698927
0002a0 ec 2d c3 bd fe 75 5d 3e 45 b5 03 be 01 13 2a 3e
       -0.09530243 0.21627042 -0.12862118 0.16608812
0002b0 fa 44 36 3e 99 ac ce 3d 28 91 c6 bd 56 3d f3 bd
       0.1779975 0.10091514 -0.09695655 -0.11876933
0002c0 a2 a3 0e be b8 a3 1b be 14 bc c1 3c 17 ee 9d 3d
       -0.13929608 -0.15199172 0.023649253 0.07711428
0002d0 58 63 8e bb 72 d5 61 3d a3 46 12 be 7a df a0 bd
       -0.004345339 0.055135198 -0.14284758 -0.07855125
0002e0 6e 68 c5 bd c4 7c 01 3e 6c 54 cb bd 39 ad 8a 3d
       -0.09639059 0.1264525 -0.099282116 0.06771321
0002f0 59 65 e5 3d e7 8f 72 be c5 f6 e5 3d 22 60 c6 bd
       0.11200971 -0.23687707 0.11228708 -0.09686305
000300 5b 45 1c 3d 42 ec 29 bd 26 6f 82 bd 80 92 5d bd
       0.03815208 -0.04148508 -0.06368856 -0.05409479
000310 e3 14 c2 bd 39 1c a6 bd 8b 58 d8 bd 6c 9d c9 3c
       -0.0947664 -0.08110852 -0.10563763 0.024611197
000320 a3 b4 b9 bc df 0e d9 bc 20 46 84 be 31 aa d2 3d
       -0.022669142 -0.026496349 -0.2583475 0.10286368
000330 35 d7 37 3c b1 8d 4c 3c c0 48 a0 3c 23 ea a0 3d
       0.011220743 0.012484954 0.01956594 0.07857158
000340 48 cc e7 3c dc ec 9b bd 37 01 cd 3c 20 53 03 be
       0.028295651 -0.07613537 0.025024993 -0.12824678
000350 d8 3f 82 3d b2 34 54 3e 3f b4 7d 3d 07 a5 b3 3d
       0.063598335 0.20723227 0.061939474 0.08771711
000360 3e 1e 8b bd e6 0f 56 3b eb 1f 08 3e 2e 5f 97 bc
       -0.067928776 0.0032663285 0.13293426 -0.018478002
000370 2b 79 37 be 8e 51 18 be 5c d5 08 3d f1 25 9a 3b
       -0.17917316 -0.1487486 0.0334066 0.00470423
000380 4a 47 55 ba 34 72 be be 96 86 83 bd c1 c5 a6 be
       -0.0008135928 -0.37196505 -0.064221546 -0.3257275
000390 40 52 6c 3d ba 52 2e 3e 21 cd e7 3c e4 8c f1 3c
       0.057695627 0.17023745 0.028296055 0.029486127
0003a0 44 b2 11 be a3 d1 2a 3e 6a ec 23 3e ac d4 16 bd
       -0.14228159 0.16681533 0.16008154 -0.036823913
0003b0 da d3 1d 3e 57 82 64 3d 2c af f0 bd a2 24 7d 3b
       0.15412846 0.055788364 -0.117521614 0.0038626571
0003c0 fd 1f a9 3d 87 cf 42 bd 8f 64 2b 3d 4c 69 e3 bd
       0.082580544 -0.047561195 0.041843947 -0.11104068
0003d0 17 ea b0 3d 49 29 8f bd 3f e2 da bd 67 3d e9 bd
       0.08638399 -0.069902964 -0.10687684 -0.11388665
0003e0 2f 6e 7c bd b8 96 79 be 75 98 ce bd bc 43 32 be
       -0.061628517 -0.24373901 -0.100876726 -0.17408651
0003f0 e7 53 3d 3c 70 a3 90 be e3 a4 0a be 04 42 f7 bd
       0.011555648 -0.28249693 -0.13539462 -0.12073138

fo2.bias f4 [15]
000000 37 27 63 be c8 20 d2 be b0 e7 0f be 3f e7 24 be
       -0.22182928 -0.41040635 -0.14053226 -0.16103838
000010 69 c1 dc bd f2 22 0f bc d3 d0 9a 3d a8 2e 30 be
       -0.107790776 -0.008736359 0.07559361 -0.17205298
000020 71 c6 3a be ce 2d 32 be 30 66 11 3b 33 c3 54 be
       -0.18239762 -0.17400286 0.0022186153 -0.20777588
000030 cf 21 3a 3d 7b d9 41 bd 2f 27 31 be
       0.0454424 -0.047326546 -0.17300104

fo3.weight f4 [10, 15]
000000 f4 da 25 3d bc 50 9f bb 03 3b eb 3d 32 56 0d bd
       0.040492013 -0.004861919 0.11485865 -0.03450603
000010 72 24 b3 3d d2 7c 52 3e c6 e1 e9 3d 91 19 ac be
       0.08747186 0.20555428 0.11420016 -0.33613256
000020 b2 46 e1 bd b9 23 76 3e f8 ba 03 3e 6a 25 4c be
       -0.10999812 0.24037065 0.12864292 -0.19936147
000030 fb 7a 0c be 06 77 1d bd 47 2a 9e 3d 95 f2 0e 3e
       -0.13718788 -0.038443588 0.077229075 0.13959725
000040 30 26 63 3e c7 9e 43 3e 5d 11 2b 3e b0 12 b9 bd
       0.22182536 0.19103537 0.16705842 -0.090367675
000050 08 5a 8a 3e a9 cf 62 bd 14 dc c4 bd ee 70 7c be
       0.27021813 -0.05537382 -0.09612289 -0.24652454
000060 30 2a 00 3e 15 65 54 3e d6 b6 37 3e 66 2f 1b 3e
       0.12516093 0.20741685 0.1794084 0.151548
000070 90 14 3a bd 68 9d 4f be de ef 09 be ef ea 5d be
       -0.045429766 -0.2027489 -0.13470408 -0.21671651
000080 5b c1 0c be 8b 54 8c bd d8 2a 34 3e ce 58 ce bd
       -0.13745634 -0.06852063 0.17594469 -0.10075532
000090 b4 71 2d be 99 25 96 3c b6 01 4a be dc 80 22 bc
       -0.16937906 0.018328475 -0.19727215 -0.009918418
0000a0 d2 da 05 be 6f a7 2b 3d c3 94 87 3d d7 c5 3f be
       -0.13071755 0.041907724 0.06620171 -0.18727814
0000b0 88 9e 31 3d 55 2f b2 3e 79 5f 0c 3f c8 ea 4c be
       0.043364078 0.34801736 0.5483318 -0.20011437
0000c0 f9 3b e4 bd 11 41 f5 be de 42 67 3e 86 c3 58 3e
       -0.111442514 -0.47901204 0.22584102 0.21168336
0000d0 2a 70 1b 3d 34 c9 b5 3e 31 f0 de 3d 55 66 81 3d
       0.037948765 0.35505068 0.108856566 0.063183464
0000e0 5d 78 00 3e 06 eb 8d be 79 e6 1c 3e 8e 85 eb 3c
       0.12545915 -0.2771837 0.15322293 0.028750207
0000f0 69 5c ad bd f2 86 da 3d 3f 8b 7d 3d 9d 62 d2 3d
       -0.084648915 0.1067027 0.061900374 0.10272715
000100 be b7 56 3b ed 16 09 be ee b4 36 be cb 7e 38 3e
       0.0032763327 -0.13387652 -0.17842457 0.18017118
000110 eb 1b f0 bd e6 79 ae bd 97 5c 34 3e 45 98 88 3e
       -0.11724075 -0.08519344 0.17613445 0.26678672
000120 08 6c 8a 3e 74 30 6f be 63 74 7b bd 0b 3f 77 bd
       0.27035546 -0.23358327 -0.061390292 -0.060362857
000130 b8 a6 d4 3d 73 52 43 3e f4 2b b2 bd de 56 7b 3d
       0.103833616 0.1907442 -0.0869979 0.06136214
000140 38 f7 fd bd f0 1f a5 3d af 12 02 be 91 00 b4 3c
       -0.12400669 0.08062732 -0.1270244 0.021972926
000150 9d 00 7b 3e 1d 7f 60 3e 72 a6 d3 bd 29 5f a3 bd
       0.24511953 0.2192349 -0.10334481 -0.07977135
000160 6e 0e b7 bd 81 39 ff bc b7 aa 60 3a 72 4c d3 3d
       -0.08938299 -0.03115535 0.00085703604 0.10317315
000170 1e f3 72 be 4e 56 85 3e 51 77 56 be 12 c9 02 be
       -0.23725554 0.26042408 -0.20943953 -0.12772015
000180 3c 86 fb 3c 81 8b bb 3d 70 a5 6e 3e 10 9e 09 bf
       0.030703656 0.09157468 0.23305297 -0.5375681
000190 ea d6 93 bd 0d df 1a bb 42 d9 09 bf 4b d4 30 bd
       -0.07218726 -0.0023631484 -0.53847134 -0.04317121
0001a0 f5 6e bd be 79 6f 94 3d fe c5 8c 3d 1f 4b 58 3e
       -0.36998716 0.07247824 0.068737015 0.21122406
0001b0 f9 2b 41 3e 41 28 89 3d 9a 21 4c be a4 b0 a3 3d
       0.1886443 0.06697131 -0.19934693 0.07992676
0001c0 b5 2f 25 3e c4 d2 b6 3d 95 59 3e 3e 15 39 9d bd
       0.1613148 0.08926919 0.1858886 -0.07676903
0001d0 3d d5 22 3e 97 03 53 3d 78 bd 06 3e f7 83 98 bd
       0.15901656 0.051517095 0.13158214 -0.07447045
0001e0 1a 98 35 3d f0 a1 92 3e be e4 9d 3d ce 83 62 3d
       0.04433451 0.28639174 0.07709645 0.05530148
0001f0 b0 6f d0 bd 52 3c 74 3d 7f 8b 71 3e 0c 12 cd 3d
       -0.10177553 0.05962784 0.2358837 0.10013208
000200 53 fa 36 3e 5e 1a bc bd 81 9d 19 be f9 e9 79 be
       0.17868929 -0.09184717 -0.15001489 -0.2440566
000210 42 c5 93 3d 1a 72 da 3d e8 d2 0c 3e e9 ba 2b bd
       0.07215358 0.106662944 0.1375233 -0.0419263
000220 f1 6f 1b 3e 61 9f 74 3e 97 32 00 3e 53 49 1a be
       0.15179421 0.23888923 0.12519298 -0.15067033
000230 e7 e7 80 bc f3 3b 8f bd b8 d2 04 be ed 65 c3 bd
       -0.01573558 -0.06993856 -0.12971008 -0.09540925
000240 36 23 c5 3d c4 c3 77 bd 52 a2 2f 3d 1b 3a 82 3e
       0.096258566 -0.06048943 0.04287941 0.25434956
000250 46 f2 ff bc ca 01 21 be
       -0.031243455 -0.15723339

fo3.bias f4 [10]
000000 63 8d 4a be 50 e7 d7 3d 0a 06 0e be cd 47 fe bd
       -0.19780497 0.10542166 -0.13869491 -0.12416039
000010 a6 48 76 bc b3 1d ed 3d 82 77 0f 3d 9c 85 72 bd
       -0.015031969 0.1157793 0.03502608 -0.05920945
000020 fa a5 04 3e 3d d5 90 bd
       0.1295394 -0.07071922

fc1.weight f4 [30, 10]
000000 c1 2f df 3c 9c bd 1f 3e 26 c6 10 3e a7 5d 51 3d
       0.02724445 0.15599674 0.14138088 0.051114704
000010 bb e9 08 be 00 99 a0 3e 84 2d cb 3d fe 38 9a be
       -0.13370411 0.3136673 0.09920791 -0.30121607
000020 b8 31 01 be d9 b5 a2 3c ae 8a 74 3d 67 75 6a be
       -0.12616622 0.019862102 0.059702568 -0.22896348
000030 cc 9f 56 be 7c 5a 1e 3e 8b 29 04 be 4a ee 40 3e
       -0.20959395 0.15464205 -0.12906472 0.188409
000040 40 ed 2d bd a2 63 63 be 95 a6 92 be bc f0 c4 bd
       -0.042462587 -0.22205976 -0.28642717 -0.09616229
000050 d0 44 35 3e f1 f6 24 bd 58 6b 8e be 43 32 2f be
       0.17702031 -0.040274564 -0.27816272 -0.17109017
000060 f0 c5 7c bc 2f 38 4a 3e ea 42 9f 3c a5 43 90 3e
       -0.015428051 0.19747995 0.019441087 0.2817661
000070 c1 ab 83 be f8 44 4c be 13 ed 03 bd c1 20 f7 bd
       -0.25716975 -0.19948184 -0.032208513 -0.12066794
000080 3d 45 a1 bd a0 59 17 3c af 48 c8 be 11 a7 b4 3d
       -0.07874534 0.009237677 -0.39117953 0.08820928
000090 f0 84 a5 bd 43 f0 82 3d 51 75 0f be 71 7c bf be
       -0.080819964 0.063934825 -0.14009596 -0.3739963
0000a0 e1 d9 12 3e ee 09 f6 bd 64 62 dc bd 72 27 88 3c
       0.14340927 -0.12013613 -0.10760954 0.016620371
0000b0 b6 8a 29 3e 41 14 26 3e 5f aa ab be 25 7a 97 be
       0.1655682 0.16218664 -0.3352842 -0.29585376
0000c0 65 26 1d be 6a 09 ff 3d af d9 44 3d 70 93 c7 be
       -0.15346678 0.124529675 0.04805916 -0.38979673
0000d0 07 a4 01 be a5 5b b6 3d 65 7f 91 3e e3 57 03 be
       -0.12660228 0.089041986 0.28417507 -0.12826495
0000e0 23 08 44 3e af 58 a5 3e 41 42 5b 3e 67 26 57 bd
       0.19143729 0.32294223 0.21411993 -0.052526858
0000f0 f5 39 1a 3e 18 d0 2a 3e 0c 66 55 3e f0 33 5c be
       0.15061171 0.16680944 0.20839709 -0.21504188
000100 2d 15 e9 3d 3f 97 74 bd b8 b7 70 3d 40 be 44 be
       0.11380992 -0.059714552 0.058768958 -0.192132
000110 5d c9 52 3e 3f 0a b8 bc 8a 82 e1 3d d8 d9 11 be
       0.20584626 -0.022465823 0.110112265 -0.14243257
000120 64 0a 0a bf a9 e4 3f 3e df d2 94 be df 3b c0 3d
       -0.53922105 0.1873957 -0.29067132 0.093864195
000130 b6 ad 8f 3d 71 d9 27 3e bb 94 8d be 6e d8 f0 3d
       0.070155546 0.16391541 -0.27652535 0.11760031
000140 14 58 19 bf f8 34 2a be f4 0f d4 3c 37 fa 09 be
       -0.5990002 -0.16621768 0.025886513 -0.13474356
000150 8a 58 9a 3c 50 19 9a be 55 98 47 3c 57 62 79 3e
       0.018841047 -0.30097437 0.012182315 0.2435392
000160 3c 74 91 bd 83 d8 79 3e 9f 5a 43 3d b4 83 7f bd
       -0.07102248 0.24398999 0.047693845 -0.06238146
000170 bd a1 54 bd a6 58 55 be 42 5b 37 3e d1 a5 07 bf
       -0.05191206 -0.20834598 0.17905906 -0.5298739
000180 35 a4 c5 be c2 18 6d be 42 47 29 bd 07 07 e9 3d
       -0.38601843 -0.23153976 -0.041327722 0.113782935
000190 04 fe 04 3e 09 02 3e be 79 08 11 3e de d6 96 bd
       0.12987524 -0.18555464 0.14163388 -0.073652014
0001a0 42 b2 5e be 25 c0 65 bc 47 87 63 bd 46 8d c6 3d
       -0.21747687 -0.014022862 -0.055548932 0.096949145
0001b0 1e 10 ac 3c 6b 11 9d 3e 87 1d b4 bd c2 14 1f be
       0.021003779 0.3067735 -0.087946944 -0.15535262
0001c0 b0 4b 2a be b1 1f 3a 3b 1c 34 30 3e 45 2a 62 3c
       -0.16630435 0.0028400237 0.17207378 0.013804023
0001d0 0b f2 4d 3e d9 7d 0a 3d 5e 64 5d 3e c8 56 6c 3d
       0.20111863 0.033811424 0.21620318 0.05769995
0001e0 71 7c 2a be a7 8c 5e bd c9 d5 14 bd 4b 92 98 3e
       -0.16649033 -0.054333355 -0.036336694 0.29799113
0001f0 cc e1 13 be f0 9b 9b bd e2 be a0 be e0 18 ae 3d
       -0.14441603 -0.07598102 -0.31395632 0.08500838
000200 f4 2b f2 bd dc ae 02 3e 38 e4 59 be 1a 1f a9 bd
       -0.1182479 0.12762016 -0.21278465 -0.08257885
000210 07 e0 db bc 6a 17 e7 bd b1 8d 4f 3e db fb 1e 3e
       -0.026840223 -0.11283763 0.20268895 0.15525763
000220 85 fb a3 3e 49 f8 08 bf f2 c9 4e be 86 72 4d be
       0.32027832 -0.53503853 -0.20194224 -0.20063218
000230 c8 25 5c be 57 8d 61 3e 77 10 7b bd 70 a3 21 be
       -0.21498787 0.22026573 -0.061295 -0.15785003
000240 a3 f1 09 be 37 19 05 3d 5d 87 37 bc 00 99 27 3e
       -0.13471083 0.03249475 -0.011201707 0.16366959
000250 85 25 e2 3d ff b9 b9 be e2 93 14 be 27 56 1a be
       0.110423125 -0.36274716 -0.14509538 -0.15071927
000260 3e f1 59 3e 7c 87 a6 3e dc 55 a1 3d b1 c2 8b 3e
       0.21283433 0.3252524 0.078777045 0.27296975
000270 bc 80 23 3c c4 e1 77 be f9 39 e6 3d 2d 52 1a 3e
       0.009979423 -0.24207217 0.11241526 0.1507041
000280 f0 09 f8 3c 86 aa 54 be 3e 9d 5d 3d fb b0 73 be
       0.030278176 -0.20768175 0.054105036 -0.23797981
000290 9b 43 90 3e 68 e2 c7 3d 66 35 13 be 77 95 d7 bd
       0.2817658 0.097599804 -0.14375839 -0.10526555
0002a0 08 e1 9e be a0 38 2c 3d 8b 93 64 be 37 ba 21 3e
       -0.3103106 0.04204619 -0.22321908 0.15793692
0002b0 06 a3 71 3e 53 e7 88 bd 13 3d 5c be 63 29 3e be
       0.23597345 -0.066847466 -0.21507673 -0.18570475
0002c0 49 e5 ac be 7e fd 3f 3e 4e 84 45 bd f1 75 be bd
       -0.3376868 0.18749043 -0.04822188 -0.09299839
0002d0 3e 4e b1 bc 5f c6 71 be bc 33 fc 3d 7b a2 56 3d
       -0.021643754 -0.23610829 0.12314555 0.052401047
0002e0 00 ed 7b 3e 12 bc 74 bd a8 ac 48 3e 80 4f 89 3e
       0.24602127 -0.05974967 0.19597113 0.26818466
0002f0 66 3c 96 3e 80 0e c2 bd 8a d6 16 be 89 d4 2d 3e
       0.29342955 -0.09475422 -0.14730278 0.16975607
000300 77 47 d9 bd 44 3c 38 bd 76 ae 90 be fb 49 b2 be
       -0.10609334 -0.04497935 -0.28258103 -0.34822068
000310 fc cb a5 bd b3 6f 6b 3d 9c db 36 bd ca cf a6 bd
       -0.080955476 0.05747957 -0.04464303 -0.08145101
000320 85 78 fa bd 15 74 12 3e 82 76 0c bf 87 c5 ac 3e
       -0.122300185 0.14302094 -0.5486833 0.3374445
000330 0a 39 74 be ae f9 9e 3e ac 9f df 3e 2a 5d 8d 3d
       -0.23849884 0.31049865 0.43676507 0.06902535
000340 c1 ec 79 be bf 2e 36 bd 5f 2e 88 be b4 5b d4 3d
       -0.2440672 -0.044478174 -0.26597878 0.103690535
000350 2e 40 82 3e 4b 44 ba 3e 65 86 5c be 29 89 af bd
       0.2543959 0.36380228 -0.21535642 -0.08571083
000360 0c d5 8a be df 61 5e 3d 28 ef 2b 3e bb 05 d3 3b
       -0.27115667 0.054292556 0.1679045 0.006439892
000370 b2 f9 87 be 36 56 ca bd f9 b7 f5 3d 64 1c 9c be
       -0.2655769 -0.09879725 0.119979806 -0.3049041
000380 3d d4 20 3e 36 17 d4 3d 7f fe b2 3d 4d 89 56 bd
       0.15705962 0.1035599 0.087399475 -0.052377034
000390 e5 95 01 be 52 fc 55 bd 48 0a 0e bd 50 4b 73 3e
       -0.12654836 -0.052242585 -0.034677774 0.23759198
0003a0 2b 08 37 3e 5f 51 02 3e 4d 21 09 3d 83 04 6e 3e
       0.1787421 0.12726353 0.033479024 0.23243909
0003b0 37 03 e7 bd b8 33 7e be eb 39 4d 3e c7 de ec bc
       -0.1127991 -0.24824417 0.20041625 -0.028914822
0003c0 90 7d 68 3e b8 b3 9e bd 5f cb 90 3e fd c3 c4 3e
       0.22704148 -0.077491224 0.2828016 0.38430777
0003d0 e5 32 69 3e 7b b6 51 3d 2b ad 93 3e 0b d8 2f be
       0.22773321 0.051199418 0.28843054 -0.17172258
0003e0 41 d7 ca 3d 69 93 d3 bb ff 41 00 3d 69 7c f8 b9
       0.09904338 -0.0064567816 0.03131294 -0.0004739494
0003f0 34 c9 d6 bb ad e9 a4 3d a0 c5 4b be da c2 cd 3d
       -0.006554747 0.080523826 -0.19899607 0.100469306

fc1.bias f4 [30]
000000 c7 d8 40 be e3 25 60 bd a0 e8 04 be 26 77 84 be
       -0.18832694 -0.05472363 -0.12979364 -0.25872153
000010 04 4f ee 3d 5a 0e e3 be 30 d4 a9 3c 98 c1 90 be
       0.11636165 -0.44346887 0.020731062 -0.282727
000020 a1 3e 5b 3e 67 63 17 3f 5e ea cc 3e fc d8 c1 be
       0.2141061 0.5913605 0.40022558 -0.37860858
000030 2d 8f 62 3e 07 90 7c be 72 b8 4c bb ac b9 b2 3e
       0.2212493 -0.24664317 -0.0031237868 0.3490728
000040 81 2c e7 bd 1e 3d 38 3e 4b 3a a3 3b a5 9e 92 bc
       -0.11287785 0.17992064 0.0049813143 -0.017897913
000050 66 54 8c be ba e0 1e 3e 71 26 5b 3e 1c 18 8c bd
       -0.2740814 0.15515414 0.21401383 -0.06840536
000060 36 97 69 3e 07 45 49 be cf 03 a3 3e 76 24 c7 bd
       0.22811589 -0.19655238 0.31838843 -0.09723751
000070 15 75 f4 3d d4 bb dc bd
       0.11936394 -0.10778013
